{"format": "graph-model", "generatedBy": "2.7.0-dev20210923", "convertedBy": "TensorFlow.js Converter v3.9.0", "signature": {"outputs": {"SemanticPredictions": {"name": "SemanticPredictions"}}}, "modelTopology": {"node": [{"name": "ResizeBilinear/size", "op": "Const", "attr": {"value": {"tensor": {"dtype": "DT_INT32", "tensorShape": {"dim": [{"size": "2"}]}}}, "dtype": {"type": "DT_INT32"}}}, {"name": "MobilenetEdgeTPU/expanded_conv_20/depthwise/depthwise/SpaceToBatchND/block_shape", "op": "Const", "attr": {"dtype": {"type": "DT_INT32"}, "value": {"tensor": {"dtype": "DT_INT32", "tensorShape": {"dim": [{"size": "2"}]}}}}}, {"name": "MobilenetEdgeTPU/expanded_conv_20/depthwise/depthwise/SpaceToBatchND/paddings", "op": "Const", "attr": {"dtype": {"type": "DT_INT32"}, "value": {"tensor": {"dtype": "DT_INT32", "tensorShape": {"dim": [{"size": "2"}, {"size": "2"}]}}}}}, {"name": "MobilenetEdgeTPU/expanded_conv_20/depthwise/depthwise_weights", "op": "Const", "attr": {"dtype": {"type": "DT_FLOAT"}, "value": {"tensor": {"dtype": "DT_FLOAT", "tensorShape": {"dim": [{"size": "5"}, {"size": "5"}, {"size": "640"}, {"size": "1"}]}}}}}, {"name": "MobilenetEdgeTPU/expanded_conv_20/depthwise/depthwise/BatchToSpaceND/block_shape", "op": "Const", "attr": {"value": {"tensor": {"dtype": "DT_INT32", "tensorShape": {"dim": [{"size": "2"}]}}}, "dtype": {"type": "DT_INT32"}}}, {"name": "MobilenetEdgeTPU/expanded_conv_20/depthwise/depthwise/BatchToSpaceND/crops", "op": "Const", "attr": {"dtype": {"type": "DT_INT32"}, "value": {"tensor": {"dtype": "DT_INT32", "tensorShape": {"dim": [{"size": "2"}, {"size": "2"}]}}}}}, {"name": "MobilenetEdgeTPU/expanded_conv_19/depthwise/depthwise/SpaceToBatchND/block_shape", "op": "Const", "attr": {"value": {"tensor": {"dtype": "DT_INT32", "tensorShape": {"dim": [{"size": "2"}]}}}, "dtype": {"type": "DT_INT32"}}}, {"name": "MobilenetEdgeTPU/expanded_conv_19/depthwise/depthwise/SpaceToBatchND/paddings", "op": "Const", "attr": {"value": {"tensor": {"dtype": "DT_INT32", "tensorShape": {"dim": [{"size": "2"}, {"size": "2"}]}}}, "dtype": {"type": "DT_INT32"}}}, {"name": "MobilenetEdgeTPU/expanded_conv_19/depthwise/depthwise_weights", "op": "Const", "attr": {"value": {"tensor": {"dtype": "DT_FLOAT", "tensorShape": {"dim": [{"size": "5"}, {"size": "5"}, {"size": "640"}, {"size": "1"}]}}}, "dtype": {"type": "DT_FLOAT"}}}, {"name": "MobilenetEdgeTPU/expanded_conv_19/depthwise/depthwise/BatchToSpaceND/block_shape", "op": "Const", "attr": {"value": {"tensor": {"dtype": "DT_INT32", "tensorShape": {"dim": [{"size": "2"}]}}}, "dtype": {"type": "DT_INT32"}}}, {"name": "MobilenetEdgeTPU/expanded_conv_19/depthwise/depthwise/BatchToSpaceND/crops", "op": "Const", "attr": {"value": {"tensor": {"dtype": "DT_INT32", "tensorShape": {"dim": [{"size": "2"}, {"size": "2"}]}}}, "dtype": {"type": "DT_INT32"}}}, {"name": "MobilenetEdgeTPU/expanded_conv_18/depthwise/depthwise/SpaceToBatchND/block_shape", "op": "Const", "attr": {"value": {"tensor": {"dtype": "DT_INT32", "tensorShape": {"dim": [{"size": "2"}]}}}, "dtype": {"type": "DT_INT32"}}}, {"name": "MobilenetEdgeTPU/expanded_conv_18/depthwise/depthwise/SpaceToBatchND/paddings", "op": "Const", "attr": {"value": {"tensor": {"dtype": "DT_INT32", "tensorShape": {"dim": [{"size": "2"}, {"size": "2"}]}}}, "dtype": {"type": "DT_INT32"}}}, {"name": "MobilenetEdgeTPU/expanded_conv_18/depthwise/depthwise_weights", "op": "Const", "attr": {"value": {"tensor": {"dtype": "DT_FLOAT", "tensorShape": {"dim": [{"size": "5"}, {"size": "5"}, {"size": "640"}, {"size": "1"}]}}}, "dtype": {"type": "DT_FLOAT"}}}, {"name": "MobilenetEdgeTPU/expanded_conv_18/depthwise/depthwise/BatchToSpaceND/block_shape", "op": "Const", "attr": {"value": {"tensor": {"dtype": "DT_INT32", "tensorShape": {"dim": [{"size": "2"}]}}}, "dtype": {"type": "DT_INT32"}}}, {"name": "MobilenetEdgeTPU/expanded_conv_18/depthwise/depthwise/BatchToSpaceND/crops", "op": "Const", "attr": {"value": {"tensor": {"dtype": "DT_INT32", "tensorShape": {"dim": [{"size": "2"}, {"size": "2"}]}}}, "dtype": {"type": "DT_INT32"}}}, {"name": "mul_2/x", "op": "Const", "attr": {"dtype": {"type": "DT_FLOAT"}, "value": {"tensor": {"dtype": "DT_FLOAT", "tensorShape": {}}}}}, {"name": "pad_to_bounding_box_1/stack", "op": "Const", "attr": {"value": {"tensor": {"dtype": "DT_INT32", "tensorShape": {"dim": [{"size": "2"}]}}}, "dtype": {"type": "DT_INT32"}}}, {"name": "pad_to_bounding_box_1/stack_1/0", "op": "Const", "attr": {"value": {"tensor": {"dtype": "DT_INT32", "tensorShape": {}}}, "dtype": {"type": "DT_INT32"}}}, {"name": "pad_to_bounding_box_1/stack_2/0", "op": "Const", "attr": {"value": {"tensor": {"dtype": "DT_INT32", "tensorShape": {}}}, "dtype": {"type": "DT_INT32"}}}, {"name": "pad_to_bounding_box/stack", "op": "Const", "attr": {"value": {"tensor": {"dtype": "DT_INT32", "tensorShape": {"dim": [{"size": "2"}]}}}, "dtype": {"type": "DT_INT32"}}}, {"name": "pad_to_bounding_box/stack_1/0", "op": "Const", "attr": {"dtype": {"type": "DT_INT32"}, "value": {"tensor": {"dtype": "DT_INT32", "tensorShape": {}}}}}, {"name": "sub/x", "op": "Const", "attr": {"value": {"tensor": {"dtype": "DT_INT32", "tensorShape": {}}}, "dtype": {"type": "DT_INT32"}}}, {"name": "Maximum/y", "op": "Const", "attr": {"dtype": {"type": "DT_INT32"}, "value": {"tensor": {"dtype": "DT_INT32", "tensorShape": {}}}}}, {"name": "pad_to_bounding_box/stack_2/0", "op": "Const", "attr": {"dtype": {"type": "DT_INT32"}, "value": {"tensor": {"dtype": "DT_INT32", "tensorShape": {}}}}}, {"name": "sub_1/x", "op": "Const", "attr": {"value": {"tensor": {"dtype": "DT_INT32", "tensorShape": {}}}, "dtype": {"type": "DT_INT32"}}}, {"name": "Maximum_1/y", "op": "Const", "attr": {"dtype": {"type": "DT_INT32"}, "value": {"tensor": {"dtype": "DT_INT32", "tensorShape": {}}}}}, {"name": "pad_to_bounding_box/ExpandDims/dim", "op": "Const", "attr": {"value": {"tensor": {"dtype": "DT_INT32", "tensorShape": {}}}, "dtype": {"type": "DT_INT32"}}}, {"name": "pad_to_bounding_box/stack_3", "op": "Const", "attr": {"dtype": {"type": "DT_INT32"}, "value": {"tensor": {"dtype": "DT_INT32", "tensorShape": {"dim": [{"size": "2"}]}}}}}, {"name": "resize/ExpandDims/dim", "op": "Const", "attr": {"dtype": {"type": "DT_INT32"}, "value": {"tensor": {"dtype": "DT_INT32", "tensorShape": {}}}}}, {"name": "Cast_1", "op": "Const", "attr": {"value": {"tensor": {"dtype": "DT_FLOAT", "tensorShape": {}}}, "dtype": {"type": "DT_FLOAT"}}}, {"name": "strided_slice_1/stack", "op": "Const", "attr": {"dtype": {"type": "DT_INT32"}, "value": {"tensor": {"dtype": "DT_INT32", "tensorShape": {"dim": [{"size": "1"}]}}}}}, {"name": "strided_slice_1/stack_1", "op": "Const", "attr": {"value": {"tensor": {"dtype": "DT_INT32", "tensorShape": {"dim": [{"size": "1"}]}}}, "dtype": {"type": "DT_INT32"}}}, {"name": "strided_slice_1/stack_2", "op": "Const", "attr": {"value": {"tensor": {"dtype": "DT_INT32", "tensorShape": {"dim": [{"size": "1"}]}}}, "dtype": {"type": "DT_INT32"}}}, {"name": "Cast_3", "op": "Const", "attr": {"value": {"tensor": {"dtype": "DT_FLOAT", "tensorShape": {}}}, "dtype": {"type": "DT_FLOAT"}}}, {"name": "strided_slice_2/stack", "op": "Const", "attr": {"value": {"tensor": {"dtype": "DT_INT32", "tensorShape": {"dim": [{"size": "1"}]}}}, "dtype": {"type": "DT_INT32"}}}, {"name": "strided_slice_2/stack_1", "op": "Const", "attr": {"dtype": {"type": "DT_INT32"}, "value": {"tensor": {"dtype": "DT_INT32", "tensorShape": {"dim": [{"size": "1"}]}}}}}, {"name": "strided_slice_2/stack_2", "op": "Const", "attr": {"dtype": {"type": "DT_INT32"}, "value": {"tensor": {"dtype": "DT_INT32", "tensorShape": {"dim": [{"size": "1"}]}}}}}, {"name": "pad_to_bounding_box_1/ExpandDims/dim", "op": "Const", "attr": {"value": {"tensor": {"dtype": "DT_INT32", "tensorShape": {}}}, "dtype": {"type": "DT_INT32"}}}, {"name": "pad_to_bounding_box_1/stack_3", "op": "Const", "attr": {"value": {"tensor": {"dtype": "DT_INT32", "tensorShape": {"dim": [{"size": "2"}]}}}, "dtype": {"type": "DT_INT32"}}}, {"name": "Reshape", "op": "Const", "attr": {"dtype": {"type": "DT_FLOAT"}, "value": {"tensor": {"dtype": "DT_FLOAT", "tensorShape": {"dim": [{"size": "1"}, {"size": "1"}, {"size": "3"}]}}}}}, {"name": "ExpandDims/dim", "op": "Const", "attr": {"dtype": {"type": "DT_INT32"}, "value": {"tensor": {"dtype": "DT_INT32", "tensorShape": {}}}}}, {"name": "sub_2/y", "op": "Const", "attr": {"value": {"tensor": {"dtype": "DT_FLOAT", "tensorShape": {}}}, "dtype": {"type": "DT_FLOAT"}}}, {"name": "MobilenetEdgeTPU/expanded_conv_21/depthwise/depthwise/SpaceToBatchND/block_shape", "op": "Const", "attr": {"dtype": {"type": "DT_INT32"}, "value": {"tensor": {"dtype": "DT_INT32", "tensorShape": {"dim": [{"size": "2"}]}}}}}, {"name": "MobilenetEdgeTPU/expanded_conv_21/depthwise/depthwise/SpaceToBatchND/paddings", "op": "Const", "attr": {"dtype": {"type": "DT_INT32"}, "value": {"tensor": {"dtype": "DT_INT32", "tensorShape": {"dim": [{"size": "2"}, {"size": "2"}]}}}}}, {"name": "MobilenetEdgeTPU/expanded_conv_21/depthwise/depthwise_weights", "op": "Const", "attr": {"dtype": {"type": "DT_FLOAT"}, "value": {"tensor": {"dtype": "DT_FLOAT", "tensorShape": {"dim": [{"size": "3"}, {"size": "3"}, {"size": "1280"}, {"size": "1"}]}}}}}, {"name": "MobilenetEdgeTPU/expanded_conv_21/depthwise/depthwise/BatchToSpaceND/block_shape", "op": "Const", "attr": {"dtype": {"type": "DT_INT32"}, "value": {"tensor": {"dtype": "DT_INT32", "tensorShape": {"dim": [{"size": "2"}]}}}}}, {"name": "MobilenetEdgeTPU/expanded_conv_21/depthwise/depthwise/BatchToSpaceND/crops", "op": "Const", "attr": {"value": {"tensor": {"dtype": "DT_INT32", "tensorShape": {"dim": [{"size": "2"}, {"size": "2"}]}}}, "dtype": {"type": "DT_INT32"}}}, {"name": "concat/axis", "op": "Const", "attr": {"value": {"tensor": {"dtype": "DT_INT32", "tensorShape": {}}}, "dtype": {"type": "DT_INT32"}}}, {"name": "logits/semantic/weights", "op": "Const", "attr": {"dtype": {"type": "DT_FLOAT"}, "value": {"tensor": {"dtype": "DT_FLOAT", "tensorShape": {"dim": [{"size": "1"}, {"size": "1"}, {"size": "256"}, {"size": "19"}]}}}}}, {"name": "logits/semantic/biases", "op": "Const", "attr": {"value": {"tensor": {"dtype": "DT_FLOAT", "tensorShape": {"dim": [{"size": "19"}]}}}, "dtype": {"type": "DT_FLOAT"}}}, {"name": "ResizeBilinear_1/size", "op": "Const", "attr": {"dtype": {"type": "DT_INT32"}, "value": {"tensor": {"dtype": "DT_INT32", "tensorShape": {"dim": [{"size": "2"}]}}}}}, {"name": "strided_slice_4", "op": "Const", "attr": {"dtype": {"type": "DT_INT32"}, "value": {"tensor": {"dtype": "DT_INT32", "tensorShape": {"dim": [{"size": "2"}]}}}}}, {"name": "ArgMax/dimension", "op": "Const", "attr": {"value": {"tensor": {"dtype": "DT_INT32", "tensorShape": {}}}, "dtype": {"type": "DT_INT32"}}}, {"name": "strided_slice_7/stack", "op": "Const", "attr": {"dtype": {"type": "DT_INT32"}, "value": {"tensor": {"dtype": "DT_INT32", "tensorShape": {"dim": [{"size": "3"}]}}}}}, {"name": "strided_slice_7/stack_1/0", "op": "Const", "attr": {"value": {"tensor": {"dtype": "DT_INT32", "tensorShape": {}}}, "dtype": {"type": "DT_INT32"}}}, {"name": "strided_slice_5/stack", "op": "Const", "attr": {"value": {"tensor": {"dtype": "DT_INT32", "tensorShape": {"dim": [{"size": "1"}]}}}, "dtype": {"type": "DT_INT32"}}}, {"name": "strided_slice_5/stack_1", "op": "Const", "attr": {"value": {"tensor": {"dtype": "DT_INT32", "tensorShape": {"dim": [{"size": "1"}]}}}, "dtype": {"type": "DT_INT32"}}}, {"name": "strided_slice_5/stack_2", "op": "Const", "attr": {"value": {"tensor": {"dtype": "DT_INT32", "tensorShape": {"dim": [{"size": "1"}]}}}, "dtype": {"type": "DT_INT32"}}}, {"name": "strided_slice_3/stack", "op": "Const", "attr": {"value": {"tensor": {"dtype": "DT_INT32", "tensorShape": {"dim": [{"size": "1"}]}}}, "dtype": {"type": "DT_INT32"}}}, {"name": "strided_slice_3/stack_1", "op": "Const", "attr": {"dtype": {"type": "DT_INT32"}, "value": {"tensor": {"dtype": "DT_INT32", "tensorShape": {"dim": [{"size": "1"}]}}}}}, {"name": "strided_slice_3/stack_2", "op": "Const", "attr": {"value": {"tensor": {"dtype": "DT_INT32", "tensorShape": {"dim": [{"size": "1"}]}}}, "dtype": {"type": "DT_INT32"}}}, {"name": "strided_slice_6/stack", "op": "Const", "attr": {"value": {"tensor": {"dtype": "DT_INT32", "tensorShape": {"dim": [{"size": "1"}]}}}, "dtype": {"type": "DT_INT32"}}}, {"name": "strided_slice_6/stack_1", "op": "Const", "attr": {"dtype": {"type": "DT_INT32"}, "value": {"tensor": {"dtype": "DT_INT32", "tensorShape": {"dim": [{"size": "1"}]}}}}}, {"name": "strided_slice_6/stack_2", "op": "Const", "attr": {"dtype": {"type": "DT_INT32"}, "value": {"tensor": {"dtype": "DT_INT32", "tensorShape": {"dim": [{"size": "1"}]}}}}}, {"name": "strided_slice_7/stack_2", "op": "Const", "attr": {"value": {"tensor": {"dtype": "DT_INT32", "tensorShape": {"dim": [{"size": "3"}]}}}, "dtype": {"type": "DT_INT32"}}}, {"name": "ExpandDims_1/dim", "op": "Const", "attr": {"dtype": {"type": "DT_INT32"}, "value": {"tensor": {"dtype": "DT_INT32", "tensorShape": {}}}}}, {"name": "ImageTensor", "op": "Placeholder", "attr": {"shape": {"shape": {"dim": [{"size": "1"}, {"size": "-1"}, {"size": "-1"}, {"size": "3"}]}}, "dtype": {"type": "DT_UINT8"}}}, {"name": "strided_slice/stack", "op": "Const", "attr": {"dtype": {"type": "DT_INT32"}, "value": {"tensor": {"dtype": "DT_INT32", "tensorShape": {"dim": [{"size": "1"}]}}}}}, {"name": "strided_slice/stack_1", "op": "Const", "attr": {"dtype": {"type": "DT_INT32"}, "value": {"tensor": {"dtype": "DT_INT32", "tensorShape": {"dim": [{"size": "1"}]}}}}}, {"name": "strided_slice/stack_2", "op": "Const", "attr": {"dtype": {"type": "DT_INT32"}, "value": {"tensor": {"dtype": "DT_INT32", "tensorShape": {"dim": [{"size": "1"}]}}}}}, {"name": "MobilenetEdgeTPU/Conv/Conv2D_weights", "op": "Const", "attr": {"value": {"tensor": {"dtype": "DT_FLOAT", "tensorShape": {"dim": [{"size": "3"}, {"size": "3"}, {"size": "3"}, {"size": "32"}]}}}, "dtype": {"type": "DT_FLOAT"}}}, {"name": "MobilenetEdgeTPU/expanded_conv_21/expand/Conv2D_bn_offset", "op": "Const", "attr": {"value": {"tensor": {"dtype": "DT_FLOAT", "tensorShape": {"dim": [{"size": "1280"}]}}}, "dtype": {"type": "DT_FLOAT"}}}, {"name": "MobilenetEdgeTPU/Conv/Conv2D_bn_offset", "op": "Const", "attr": {"value": {"tensor": {"dtype": "DT_FLOAT", "tensorShape": {"dim": [{"size": "32"}]}}}, "dtype": {"type": "DT_FLOAT"}}}, {"name": "MobilenetEdgeTPU/expanded_conv_19/depthwise/BatchNorm/FusedBatchNormV3/Scaled", "op": "Const", "attr": {"value": {"tensor": {"dtype": "DT_FLOAT", "tensorShape": {"dim": [{"size": "640"}]}}}, "dtype": {"type": "DT_FLOAT"}}}, {"name": "MobilenetEdgeTPU/expanded_conv/project/Conv2D_weights", "op": "Const", "attr": {"value": {"tensor": {"dtype": "DT_FLOAT", "tensorShape": {"dim": [{"size": "1"}, {"size": "1"}, {"size": "32"}, {"size": "16"}]}}}, "dtype": {"type": "DT_FLOAT"}}}, {"name": "MobilenetEdgeTPU/expanded_conv/project/Conv2D_bn_offset", "op": "Const", "attr": {"value": {"tensor": {"dtype": "DT_FLOAT", "tensorShape": {"dim": [{"size": "16"}]}}}, "dtype": {"type": "DT_FLOAT"}}}, {"name": "MobilenetEdgeTPU/expanded_conv_1/expand/Conv2D_weights", "op": "Const", "attr": {"value": {"tensor": {"dtype": "DT_FLOAT", "tensorShape": {"dim": [{"size": "3"}, {"size": "3"}, {"size": "16"}, {"size": "128"}]}}}, "dtype": {"type": "DT_FLOAT"}}}, {"name": "MobilenetEdgeTPU/expanded_conv_1/expand/Conv2D_bn_offset", "op": "Const", "attr": {"value": {"tensor": {"dtype": "DT_FLOAT", "tensorShape": {"dim": [{"size": "128"}]}}}, "dtype": {"type": "DT_FLOAT"}}}, {"name": "MobilenetEdgeTPU/expanded_conv_1/project/Conv2D_weights", "op": "Const", "attr": {"value": {"tensor": {"dtype": "DT_FLOAT", "tensorShape": {"dim": [{"size": "1"}, {"size": "1"}, {"size": "128"}, {"size": "32"}]}}}, "dtype": {"type": "DT_FLOAT"}}}, {"name": "MobilenetEdgeTPU/expanded_conv_1/project/Conv2D_bn_offset", "op": "Const", "attr": {"value": {"tensor": {"dtype": "DT_FLOAT", "tensorShape": {"dim": [{"size": "32"}]}}}, "dtype": {"type": "DT_FLOAT"}}}, {"name": "MobilenetEdgeTPU/expanded_conv_2/expand/Conv2D_weights", "op": "Const", "attr": {"value": {"tensor": {"dtype": "DT_FLOAT", "tensorShape": {"dim": [{"size": "3"}, {"size": "3"}, {"size": "32"}, {"size": "128"}]}}}, "dtype": {"type": "DT_FLOAT"}}}, {"name": "MobilenetEdgeTPU/expanded_conv_2/expand/Conv2D_bn_offset", "op": "Const", "attr": {"dtype": {"type": "DT_FLOAT"}, "value": {"tensor": {"dtype": "DT_FLOAT", "tensorShape": {"dim": [{"size": "128"}]}}}}}, {"name": "MobilenetEdgeTPU/expanded_conv_2/project/Conv2D_weights", "op": "Const", "attr": {"value": {"tensor": {"dtype": "DT_FLOAT", "tensorShape": {"dim": [{"size": "1"}, {"size": "1"}, {"size": "128"}, {"size": "32"}]}}}, "dtype": {"type": "DT_FLOAT"}}}, {"name": "MobilenetEdgeTPU/expanded_conv_21/project/Conv2D_weights", "op": "Const", "attr": {"dtype": {"type": "DT_FLOAT"}, "value": {"tensor": {"dtype": "DT_FLOAT", "tensorShape": {"dim": [{"size": "1"}, {"size": "1"}, {"size": "1280"}, {"size": "192"}]}}}}}, {"name": "MobilenetEdgeTPU/expanded_conv_2/project/Conv2D_bn_offset", "op": "Const", "attr": {"dtype": {"type": "DT_FLOAT"}, "value": {"tensor": {"dtype": "DT_FLOAT", "tensorShape": {"dim": [{"size": "32"}]}}}}}, {"name": "MobilenetEdgeTPU/expanded_conv_3/expand/Conv2D_weights", "op": "Const", "attr": {"value": {"tensor": {"dtype": "DT_FLOAT", "tensorShape": {"dim": [{"size": "3"}, {"size": "3"}, {"size": "32"}, {"size": "128"}]}}}, "dtype": {"type": "DT_FLOAT"}}}, {"name": "MobilenetEdgeTPU/expanded_conv_3/expand/Conv2D_bn_offset", "op": "Const", "attr": {"value": {"tensor": {"dtype": "DT_FLOAT", "tensorShape": {"dim": [{"size": "128"}]}}}, "dtype": {"type": "DT_FLOAT"}}}, {"name": "MobilenetEdgeTPU/expanded_conv_21/project/Conv2D_bn_offset", "op": "Const", "attr": {"dtype": {"type": "DT_FLOAT"}, "value": {"tensor": {"dtype": "DT_FLOAT", "tensorShape": {"dim": [{"size": "192"}]}}}}}, {"name": "MobilenetEdgeTPU/expanded_conv_3/project/Conv2D_weights", "op": "Const", "attr": {"value": {"tensor": {"dtype": "DT_FLOAT", "tensorShape": {"dim": [{"size": "1"}, {"size": "1"}, {"size": "128"}, {"size": "32"}]}}}, "dtype": {"type": "DT_FLOAT"}}}, {"name": "MobilenetEdgeTPU/expanded_conv_3/project/Conv2D_bn_offset", "op": "Const", "attr": {"dtype": {"type": "DT_FLOAT"}, "value": {"tensor": {"dtype": "DT_FLOAT", "tensorShape": {"dim": [{"size": "32"}]}}}}}, {"name": "MobilenetEdgeTPU/expanded_conv_4/expand/Conv2D_weights", "op": "Const", "attr": {"dtype": {"type": "DT_FLOAT"}, "value": {"tensor": {"dtype": "DT_FLOAT", "tensorShape": {"dim": [{"size": "3"}, {"size": "3"}, {"size": "32"}, {"size": "128"}]}}}}}, {"name": "MobilenetEdgeTPU/Conv_1/Conv2D_weights", "op": "Const", "attr": {"dtype": {"type": "DT_FLOAT"}, "value": {"tensor": {"dtype": "DT_FLOAT", "tensorShape": {"dim": [{"size": "1"}, {"size": "1"}, {"size": "192"}, {"size": "1280"}]}}}}}, {"name": "MobilenetEdgeTPU/expanded_conv_4/expand/Conv2D_bn_offset", "op": "Const", "attr": {"value": {"tensor": {"dtype": "DT_FLOAT", "tensorShape": {"dim": [{"size": "128"}]}}}, "dtype": {"type": "DT_FLOAT"}}}, {"name": "MobilenetEdgeTPU/expanded_conv_4/project/Conv2D_weights", "op": "Const", "attr": {"value": {"tensor": {"dtype": "DT_FLOAT", "tensorShape": {"dim": [{"size": "1"}, {"size": "1"}, {"size": "128"}, {"size": "32"}]}}}, "dtype": {"type": "DT_FLOAT"}}}, {"name": "MobilenetEdgeTPU/Conv_1/Conv2D_bn_offset", "op": "Const", "attr": {"dtype": {"type": "DT_FLOAT"}, "value": {"tensor": {"dtype": "DT_FLOAT", "tensorShape": {"dim": [{"size": "1280"}]}}}}}, {"name": "MobilenetEdgeTPU/expanded_conv_4/project/Conv2D_bn_offset", "op": "Const", "attr": {"dtype": {"type": "DT_FLOAT"}, "value": {"tensor": {"dtype": "DT_FLOAT", "tensorShape": {"dim": [{"size": "32"}]}}}}}, {"name": "MobilenetEdgeTPU/expanded_conv_5/expand/Conv2D_weights", "op": "Const", "attr": {"value": {"tensor": {"dtype": "DT_FLOAT", "tensorShape": {"dim": [{"size": "3"}, {"size": "3"}, {"size": "32"}, {"size": "256"}]}}}, "dtype": {"type": "DT_FLOAT"}}}, {"name": "MobilenetEdgeTPU/expanded_conv_19/depthwise/BatchNorm/FusedBatchNormV3/Offset", "op": "Const", "attr": {"value": {"tensor": {"dtype": "DT_FLOAT", "tensorShape": {"dim": [{"size": "640"}]}}}, "dtype": {"type": "DT_FLOAT"}}}, {"name": "MobilenetEdgeTPU/expanded_conv_5/expand/Conv2D_bn_offset", "op": "Const", "attr": {"value": {"tensor": {"dtype": "DT_FLOAT", "tensorShape": {"dim": [{"size": "256"}]}}}, "dtype": {"type": "DT_FLOAT"}}}, {"name": "MobilenetEdgeTPU/expanded_conv_5/project/Conv2D_weights", "op": "Const", "attr": {"value": {"tensor": {"dtype": "DT_FLOAT", "tensorShape": {"dim": [{"size": "1"}, {"size": "1"}, {"size": "256"}, {"size": "48"}]}}}, "dtype": {"type": "DT_FLOAT"}}}, {"name": "MobilenetEdgeTPU/expanded_conv_5/project/Conv2D_bn_offset", "op": "Const", "attr": {"dtype": {"type": "DT_FLOAT"}, "value": {"tensor": {"dtype": "DT_FLOAT", "tensorShape": {"dim": [{"size": "48"}]}}}}}, {"name": "MobilenetEdgeTPU/expanded_conv_6/expand/Conv2D_weights", "op": "Const", "attr": {"dtype": {"type": "DT_FLOAT"}, "value": {"tensor": {"dtype": "DT_FLOAT", "tensorShape": {"dim": [{"size": "3"}, {"size": "3"}, {"size": "48"}, {"size": "192"}]}}}}}, {"name": "aspp0/Conv2D_weights", "op": "Const", "attr": {"value": {"tensor": {"dtype": "DT_FLOAT", "tensorShape": {"dim": [{"size": "1"}, {"size": "1"}, {"size": "1280"}, {"size": "256"}]}}}, "dtype": {"type": "DT_FLOAT"}}}, {"name": "MobilenetEdgeTPU/expanded_conv_6/expand/Conv2D_bn_offset", "op": "Const", "attr": {"value": {"tensor": {"dtype": "DT_FLOAT", "tensorShape": {"dim": [{"size": "192"}]}}}, "dtype": {"type": "DT_FLOAT"}}}, {"name": "MobilenetEdgeTPU/expanded_conv_6/project/Conv2D_weights", "op": "Const", "attr": {"dtype": {"type": "DT_FLOAT"}, "value": {"tensor": {"dtype": "DT_FLOAT", "tensorShape": {"dim": [{"size": "1"}, {"size": "1"}, {"size": "192"}, {"size": "48"}]}}}}}, {"name": "aspp0/Conv2D_bn_offset", "op": "Const", "attr": {"dtype": {"type": "DT_FLOAT"}, "value": {"tensor": {"dtype": "DT_FLOAT", "tensorShape": {"dim": [{"size": "256"}]}}}}}, {"name": "MobilenetEdgeTPU/expanded_conv_6/project/Conv2D_bn_offset", "op": "Const", "attr": {"value": {"tensor": {"dtype": "DT_FLOAT", "tensorShape": {"dim": [{"size": "48"}]}}}, "dtype": {"type": "DT_FLOAT"}}}, {"name": "MobilenetEdgeTPU/expanded_conv_7/expand/Conv2D_weights", "op": "Const", "attr": {"dtype": {"type": "DT_FLOAT"}, "value": {"tensor": {"dtype": "DT_FLOAT", "tensorShape": {"dim": [{"size": "3"}, {"size": "3"}, {"size": "48"}, {"size": "192"}]}}}}}, {"name": "MobilenetEdgeTPU/expanded_conv_7/expand/Conv2D_bn_offset", "op": "Const", "attr": {"value": {"tensor": {"dtype": "DT_FLOAT", "tensorShape": {"dim": [{"size": "192"}]}}}, "dtype": {"type": "DT_FLOAT"}}}, {"name": "MobilenetEdgeTPU/expanded_conv_7/project/Conv2D_weights", "op": "Const", "attr": {"dtype": {"type": "DT_FLOAT"}, "value": {"tensor": {"dtype": "DT_FLOAT", "tensorShape": {"dim": [{"size": "1"}, {"size": "1"}, {"size": "192"}, {"size": "48"}]}}}}}, {"name": "image_pooling/Conv2D_weights", "op": "Const", "attr": {"dtype": {"type": "DT_FLOAT"}, "value": {"tensor": {"dtype": "DT_FLOAT", "tensorShape": {"dim": [{"size": "1"}, {"size": "1"}, {"size": "1280"}, {"size": "256"}]}}}}}, {"name": "MobilenetEdgeTPU/expanded_conv_7/project/Conv2D_bn_offset", "op": "Const", "attr": {"dtype": {"type": "DT_FLOAT"}, "value": {"tensor": {"dtype": "DT_FLOAT", "tensorShape": {"dim": [{"size": "48"}]}}}}}, {"name": "MobilenetEdgeTPU/expanded_conv_8/expand/Conv2D_weights", "op": "Const", "attr": {"value": {"tensor": {"dtype": "DT_FLOAT", "tensorShape": {"dim": [{"size": "3"}, {"size": "3"}, {"size": "48"}, {"size": "192"}]}}}, "dtype": {"type": "DT_FLOAT"}}}, {"name": "MobilenetEdgeTPU/expanded_conv_8/expand/Conv2D_bn_offset", "op": "Const", "attr": {"dtype": {"type": "DT_FLOAT"}, "value": {"tensor": {"dtype": "DT_FLOAT", "tensorShape": {"dim": [{"size": "192"}]}}}}}, {"name": "image_pooling/Conv2D_bn_offset", "op": "Const", "attr": {"dtype": {"type": "DT_FLOAT"}, "value": {"tensor": {"dtype": "DT_FLOAT", "tensorShape": {"dim": [{"size": "256"}]}}}}}, {"name": "MobilenetEdgeTPU/expanded_conv_8/project/Conv2D_weights", "op": "Const", "attr": {"dtype": {"type": "DT_FLOAT"}, "value": {"tensor": {"dtype": "DT_FLOAT", "tensorShape": {"dim": [{"size": "1"}, {"size": "1"}, {"size": "192"}, {"size": "48"}]}}}}}, {"name": "MobilenetEdgeTPU/expanded_conv_18/depthwise/BatchNorm/FusedBatchNormV3/Scaled", "op": "Const", "attr": {"dtype": {"type": "DT_FLOAT"}, "value": {"tensor": {"dtype": "DT_FLOAT", "tensorShape": {"dim": [{"size": "640"}]}}}}}, {"name": "MobilenetEdgeTPU/expanded_conv_8/project/Conv2D_bn_offset", "op": "Const", "attr": {"dtype": {"type": "DT_FLOAT"}, "value": {"tensor": {"dtype": "DT_FLOAT", "tensorShape": {"dim": [{"size": "48"}]}}}}}, {"name": "MobilenetEdgeTPU/expanded_conv_9/expand/Conv2D_weights", "op": "Const", "attr": {"value": {"tensor": {"dtype": "DT_FLOAT", "tensorShape": {"dim": [{"size": "1"}, {"size": "1"}, {"size": "48"}, {"size": "384"}]}}}, "dtype": {"type": "DT_FLOAT"}}}, {"name": "MobilenetEdgeTPU/expanded_conv_9/expand/Conv2D_bn_offset", "op": "Const", "attr": {"dtype": {"type": "DT_FLOAT"}, "value": {"tensor": {"dtype": "DT_FLOAT", "tensorShape": {"dim": [{"size": "384"}]}}}}}, {"name": "MobilenetEdgeTPU/expanded_conv_9/depthwise/depthwise_weights", "op": "Const", "attr": {"dtype": {"type": "DT_FLOAT"}, "value": {"tensor": {"dtype": "DT_FLOAT", "tensorShape": {"dim": [{"size": "3"}, {"size": "3"}, {"size": "384"}, {"size": "1"}]}}}}}, {"name": "MobilenetEdgeTPU/expanded_conv_9/depthwise/depthwise_bn_offset", "op": "Const", "attr": {"dtype": {"type": "DT_FLOAT"}, "value": {"tensor": {"dtype": "DT_FLOAT", "tensorShape": {"dim": [{"size": "384"}]}}}}}, {"name": "MobilenetEdgeTPU/expanded_conv_9/project/Conv2D_weights", "op": "Const", "attr": {"dtype": {"type": "DT_FLOAT"}, "value": {"tensor": {"dtype": "DT_FLOAT", "tensorShape": {"dim": [{"size": "1"}, {"size": "1"}, {"size": "384"}, {"size": "96"}]}}}}}, {"name": "MobilenetEdgeTPU/expanded_conv_9/project/Conv2D_bn_offset", "op": "Const", "attr": {"dtype": {"type": "DT_FLOAT"}, "value": {"tensor": {"dtype": "DT_FLOAT", "tensorShape": {"dim": [{"size": "96"}]}}}}}, {"name": "MobilenetEdgeTPU/expanded_conv_10/expand/Conv2D_weights", "op": "Const", "attr": {"dtype": {"type": "DT_FLOAT"}, "value": {"tensor": {"dtype": "DT_FLOAT", "tensorShape": {"dim": [{"size": "1"}, {"size": "1"}, {"size": "96"}, {"size": "384"}]}}}}}, {"name": "concat_projection/Conv2D_weights", "op": "Const", "attr": {"dtype": {"type": "DT_FLOAT"}, "value": {"tensor": {"dtype": "DT_FLOAT", "tensorShape": {"dim": [{"size": "1"}, {"size": "1"}, {"size": "512"}, {"size": "256"}]}}}}}, {"name": "MobilenetEdgeTPU/expanded_conv_10/expand/Conv2D_bn_offset", "op": "Const", "attr": {"dtype": {"type": "DT_FLOAT"}, "value": {"tensor": {"dtype": "DT_FLOAT", "tensorShape": {"dim": [{"size": "384"}]}}}}}, {"name": "MobilenetEdgeTPU/expanded_conv_10/depthwise/depthwise_weights", "op": "Const", "attr": {"dtype": {"type": "DT_FLOAT"}, "value": {"tensor": {"dtype": "DT_FLOAT", "tensorShape": {"dim": [{"size": "3"}, {"size": "3"}, {"size": "384"}, {"size": "1"}]}}}}}, {"name": "MobilenetEdgeTPU/expanded_conv_10/depthwise/depthwise_bn_offset", "op": "Const", "attr": {"dtype": {"type": "DT_FLOAT"}, "value": {"tensor": {"dtype": "DT_FLOAT", "tensorShape": {"dim": [{"size": "384"}]}}}}}, {"name": "MobilenetEdgeTPU/expanded_conv_10/project/Conv2D_weights", "op": "Const", "attr": {"value": {"tensor": {"dtype": "DT_FLOAT", "tensorShape": {"dim": [{"size": "1"}, {"size": "1"}, {"size": "384"}, {"size": "96"}]}}}, "dtype": {"type": "DT_FLOAT"}}}, {"name": "concat_projection/Conv2D_bn_offset", "op": "Const", "attr": {"dtype": {"type": "DT_FLOAT"}, "value": {"tensor": {"dtype": "DT_FLOAT", "tensorShape": {"dim": [{"size": "256"}]}}}}}, {"name": "MobilenetEdgeTPU/expanded_conv_10/project/Conv2D_bn_offset", "op": "Const", "attr": {"value": {"tensor": {"dtype": "DT_FLOAT", "tensorShape": {"dim": [{"size": "96"}]}}}, "dtype": {"type": "DT_FLOAT"}}}, {"name": "MobilenetEdgeTPU/expanded_conv_11/expand/Conv2D_weights", "op": "Const", "attr": {"dtype": {"type": "DT_FLOAT"}, "value": {"tensor": {"dtype": "DT_FLOAT", "tensorShape": {"dim": [{"size": "1"}, {"size": "1"}, {"size": "96"}, {"size": "384"}]}}}}}, {"name": "MobilenetEdgeTPU/expanded_conv_11/expand/Conv2D_bn_offset", "op": "Const", "attr": {"dtype": {"type": "DT_FLOAT"}, "value": {"tensor": {"dtype": "DT_FLOAT", "tensorShape": {"dim": [{"size": "384"}]}}}}}, {"name": "MobilenetEdgeTPU/expanded_conv_11/depthwise/depthwise_weights", "op": "Const", "attr": {"dtype": {"type": "DT_FLOAT"}, "value": {"tensor": {"dtype": "DT_FLOAT", "tensorShape": {"dim": [{"size": "3"}, {"size": "3"}, {"size": "384"}, {"size": "1"}]}}}}}, {"name": "MobilenetEdgeTPU/expanded_conv_11/depthwise/depthwise_bn_offset", "op": "Const", "attr": {"dtype": {"type": "DT_FLOAT"}, "value": {"tensor": {"dtype": "DT_FLOAT", "tensorShape": {"dim": [{"size": "384"}]}}}}}, {"name": "MobilenetEdgeTPU/expanded_conv_11/project/Conv2D_weights", "op": "Const", "attr": {"dtype": {"type": "DT_FLOAT"}, "value": {"tensor": {"dtype": "DT_FLOAT", "tensorShape": {"dim": [{"size": "1"}, {"size": "1"}, {"size": "384"}, {"size": "96"}]}}}}}, {"name": "MobilenetEdgeTPU/expanded_conv_18/depthwise/BatchNorm/FusedBatchNormV3/Offset", "op": "Const", "attr": {"dtype": {"type": "DT_FLOAT"}, "value": {"tensor": {"dtype": "DT_FLOAT", "tensorShape": {"dim": [{"size": "640"}]}}}}}, {"name": "MobilenetEdgeTPU/expanded_conv_11/project/Conv2D_bn_offset", "op": "Const", "attr": {"dtype": {"type": "DT_FLOAT"}, "value": {"tensor": {"dtype": "DT_FLOAT", "tensorShape": {"dim": [{"size": "96"}]}}}}}, {"name": "MobilenetEdgeTPU/expanded_conv_12/expand/Conv2D_weights", "op": "Const", "attr": {"dtype": {"type": "DT_FLOAT"}, "value": {"tensor": {"dtype": "DT_FLOAT", "tensorShape": {"dim": [{"size": "1"}, {"size": "1"}, {"size": "96"}, {"size": "384"}]}}}}}, {"name": "MobilenetEdgeTPU/expanded_conv_12/expand/Conv2D_bn_offset", "op": "Const", "attr": {"dtype": {"type": "DT_FLOAT"}, "value": {"tensor": {"dtype": "DT_FLOAT", "tensorShape": {"dim": [{"size": "384"}]}}}}}, {"name": "MobilenetEdgeTPU/expanded_conv_12/depthwise/depthwise_weights", "op": "Const", "attr": {"dtype": {"type": "DT_FLOAT"}, "value": {"tensor": {"dtype": "DT_FLOAT", "tensorShape": {"dim": [{"size": "3"}, {"size": "3"}, {"size": "384"}, {"size": "1"}]}}}}}, {"name": "MobilenetEdgeTPU/expanded_conv_12/depthwise/depthwise_bn_offset", "op": "Const", "attr": {"dtype": {"type": "DT_FLOAT"}, "value": {"tensor": {"dtype": "DT_FLOAT", "tensorShape": {"dim": [{"size": "384"}]}}}}}, {"name": "MobilenetEdgeTPU/expanded_conv_12/project/Conv2D_weights", "op": "Const", "attr": {"dtype": {"type": "DT_FLOAT"}, "value": {"tensor": {"dtype": "DT_FLOAT", "tensorShape": {"dim": [{"size": "1"}, {"size": "1"}, {"size": "384"}, {"size": "96"}]}}}}}, {"name": "MobilenetEdgeTPU/expanded_conv_12/project/Conv2D_bn_offset", "op": "Const", "attr": {"dtype": {"type": "DT_FLOAT"}, "value": {"tensor": {"dtype": "DT_FLOAT", "tensorShape": {"dim": [{"size": "96"}]}}}}}, {"name": "MobilenetEdgeTPU/expanded_conv_13/expand/Conv2D_weights", "op": "Const", "attr": {"value": {"tensor": {"dtype": "DT_FLOAT", "tensorShape": {"dim": [{"size": "1"}, {"size": "1"}, {"size": "96"}, {"size": "768"}]}}}, "dtype": {"type": "DT_FLOAT"}}}, {"name": "MobilenetEdgeTPU/expanded_conv_13/expand/Conv2D_bn_offset", "op": "Const", "attr": {"value": {"tensor": {"dtype": "DT_FLOAT", "tensorShape": {"dim": [{"size": "768"}]}}}, "dtype": {"type": "DT_FLOAT"}}}, {"name": "MobilenetEdgeTPU/expanded_conv_13/depthwise/depthwise_weights", "op": "Const", "attr": {"dtype": {"type": "DT_FLOAT"}, "value": {"tensor": {"dtype": "DT_FLOAT", "tensorShape": {"dim": [{"size": "3"}, {"size": "3"}, {"size": "768"}, {"size": "1"}]}}}}}, {"name": "MobilenetEdgeTPU/expanded_conv_13/depthwise/depthwise_bn_offset", "op": "Const", "attr": {"dtype": {"type": "DT_FLOAT"}, "value": {"tensor": {"dtype": "DT_FLOAT", "tensorShape": {"dim": [{"size": "768"}]}}}}}, {"name": "MobilenetEdgeTPU/expanded_conv_13/project/Conv2D_weights", "op": "Const", "attr": {"dtype": {"type": "DT_FLOAT"}, "value": {"tensor": {"dtype": "DT_FLOAT", "tensorShape": {"dim": [{"size": "1"}, {"size": "1"}, {"size": "768"}, {"size": "96"}]}}}}}, {"name": "MobilenetEdgeTPU/expanded_conv_13/project/Conv2D_bn_offset", "op": "Const", "attr": {"dtype": {"type": "DT_FLOAT"}, "value": {"tensor": {"dtype": "DT_FLOAT", "tensorShape": {"dim": [{"size": "96"}]}}}}}, {"name": "MobilenetEdgeTPU/expanded_conv_14/expand/Conv2D_weights", "op": "Const", "attr": {"dtype": {"type": "DT_FLOAT"}, "value": {"tensor": {"dtype": "DT_FLOAT", "tensorShape": {"dim": [{"size": "1"}, {"size": "1"}, {"size": "96"}, {"size": "384"}]}}}}}, {"name": "MobilenetEdgeTPU/expanded_conv_14/expand/Conv2D_bn_offset", "op": "Const", "attr": {"dtype": {"type": "DT_FLOAT"}, "value": {"tensor": {"dtype": "DT_FLOAT", "tensorShape": {"dim": [{"size": "384"}]}}}}}, {"name": "MobilenetEdgeTPU/expanded_conv_14/depthwise/depthwise_weights", "op": "Const", "attr": {"dtype": {"type": "DT_FLOAT"}, "value": {"tensor": {"dtype": "DT_FLOAT", "tensorShape": {"dim": [{"size": "3"}, {"size": "3"}, {"size": "384"}, {"size": "1"}]}}}}}, {"name": "MobilenetEdgeTPU/expanded_conv_14/depthwise/depthwise_bn_offset", "op": "Const", "attr": {"dtype": {"type": "DT_FLOAT"}, "value": {"tensor": {"dtype": "DT_FLOAT", "tensorShape": {"dim": [{"size": "384"}]}}}}}, {"name": "MobilenetEdgeTPU/expanded_conv_14/project/Conv2D_weights", "op": "Const", "attr": {"value": {"tensor": {"dtype": "DT_FLOAT", "tensorShape": {"dim": [{"size": "1"}, {"size": "1"}, {"size": "384"}, {"size": "96"}]}}}, "dtype": {"type": "DT_FLOAT"}}}, {"name": "MobilenetEdgeTPU/expanded_conv_14/project/Conv2D_bn_offset", "op": "Const", "attr": {"dtype": {"type": "DT_FLOAT"}, "value": {"tensor": {"dtype": "DT_FLOAT", "tensorShape": {"dim": [{"size": "96"}]}}}}}, {"name": "MobilenetEdgeTPU/expanded_conv_15/expand/Conv2D_weights", "op": "Const", "attr": {"value": {"tensor": {"dtype": "DT_FLOAT", "tensorShape": {"dim": [{"size": "1"}, {"size": "1"}, {"size": "96"}, {"size": "384"}]}}}, "dtype": {"type": "DT_FLOAT"}}}, {"name": "MobilenetEdgeTPU/expanded_conv_15/expand/Conv2D_bn_offset", "op": "Const", "attr": {"dtype": {"type": "DT_FLOAT"}, "value": {"tensor": {"dtype": "DT_FLOAT", "tensorShape": {"dim": [{"size": "384"}]}}}}}, {"name": "MobilenetEdgeTPU/expanded_conv_15/depthwise/depthwise_weights", "op": "Const", "attr": {"dtype": {"type": "DT_FLOAT"}, "value": {"tensor": {"dtype": "DT_FLOAT", "tensorShape": {"dim": [{"size": "3"}, {"size": "3"}, {"size": "384"}, {"size": "1"}]}}}}}, {"name": "MobilenetEdgeTPU/expanded_conv_15/depthwise/depthwise_bn_offset", "op": "Const", "attr": {"value": {"tensor": {"dtype": "DT_FLOAT", "tensorShape": {"dim": [{"size": "384"}]}}}, "dtype": {"type": "DT_FLOAT"}}}, {"name": "MobilenetEdgeTPU/expanded_conv_15/project/Conv2D_weights", "op": "Const", "attr": {"dtype": {"type": "DT_FLOAT"}, "value": {"tensor": {"dtype": "DT_FLOAT", "tensorShape": {"dim": [{"size": "1"}, {"size": "1"}, {"size": "384"}, {"size": "96"}]}}}}}, {"name": "MobilenetEdgeTPU/expanded_conv_15/project/Conv2D_bn_offset", "op": "Const", "attr": {"value": {"tensor": {"dtype": "DT_FLOAT", "tensorShape": {"dim": [{"size": "96"}]}}}, "dtype": {"type": "DT_FLOAT"}}}, {"name": "MobilenetEdgeTPU/expanded_conv_16/expand/Conv2D_weights", "op": "Const", "attr": {"value": {"tensor": {"dtype": "DT_FLOAT", "tensorShape": {"dim": [{"size": "1"}, {"size": "1"}, {"size": "96"}, {"size": "384"}]}}}, "dtype": {"type": "DT_FLOAT"}}}, {"name": "MobilenetEdgeTPU/expanded_conv_16/expand/Conv2D_bn_offset", "op": "Const", "attr": {"dtype": {"type": "DT_FLOAT"}, "value": {"tensor": {"dtype": "DT_FLOAT", "tensorShape": {"dim": [{"size": "384"}]}}}}}, {"name": "MobilenetEdgeTPU/expanded_conv_16/depthwise/depthwise_weights", "op": "Const", "attr": {"value": {"tensor": {"dtype": "DT_FLOAT", "tensorShape": {"dim": [{"size": "3"}, {"size": "3"}, {"size": "384"}, {"size": "1"}]}}}, "dtype": {"type": "DT_FLOAT"}}}, {"name": "MobilenetEdgeTPU/expanded_conv_16/depthwise/depthwise_bn_offset", "op": "Const", "attr": {"value": {"tensor": {"dtype": "DT_FLOAT", "tensorShape": {"dim": [{"size": "384"}]}}}, "dtype": {"type": "DT_FLOAT"}}}, {"name": "MobilenetEdgeTPU/expanded_conv_16/project/Conv2D_weights", "op": "Const", "attr": {"dtype": {"type": "DT_FLOAT"}, "value": {"tensor": {"dtype": "DT_FLOAT", "tensorShape": {"dim": [{"size": "1"}, {"size": "1"}, {"size": "384"}, {"size": "96"}]}}}}}, {"name": "MobilenetEdgeTPU/expanded_conv_21/depthwise/BatchNorm/FusedBatchNormV3/Scaled", "op": "Const", "attr": {"dtype": {"type": "DT_FLOAT"}, "value": {"tensor": {"dtype": "DT_FLOAT", "tensorShape": {"dim": [{"size": "1280"}]}}}}}, {"name": "MobilenetEdgeTPU/expanded_conv_16/project/Conv2D_bn_offset", "op": "Const", "attr": {"dtype": {"type": "DT_FLOAT"}, "value": {"tensor": {"dtype": "DT_FLOAT", "tensorShape": {"dim": [{"size": "96"}]}}}}}, {"name": "MobilenetEdgeTPU/expanded_conv_17/expand/Conv2D_weights", "op": "Const", "attr": {"dtype": {"type": "DT_FLOAT"}, "value": {"tensor": {"dtype": "DT_FLOAT", "tensorShape": {"dim": [{"size": "1"}, {"size": "1"}, {"size": "96"}, {"size": "768"}]}}}}}, {"name": "MobilenetEdgeTPU/expanded_conv_17/expand/Conv2D_bn_offset", "op": "Const", "attr": {"dtype": {"type": "DT_FLOAT"}, "value": {"tensor": {"dtype": "DT_FLOAT", "tensorShape": {"dim": [{"size": "768"}]}}}}}, {"name": "MobilenetEdgeTPU/expanded_conv_17/depthwise/depthwise_weights", "op": "Const", "attr": {"dtype": {"type": "DT_FLOAT"}, "value": {"tensor": {"dtype": "DT_FLOAT", "tensorShape": {"dim": [{"size": "5"}, {"size": "5"}, {"size": "768"}, {"size": "1"}]}}}}}, {"name": "MobilenetEdgeTPU/expanded_conv_17/depthwise/depthwise_bn_offset", "op": "Const", "attr": {"dtype": {"type": "DT_FLOAT"}, "value": {"tensor": {"dtype": "DT_FLOAT", "tensorShape": {"dim": [{"size": "768"}]}}}}}, {"name": "MobilenetEdgeTPU/expanded_conv_17/project/Conv2D_weights", "op": "Const", "attr": {"dtype": {"type": "DT_FLOAT"}, "value": {"tensor": {"dtype": "DT_FLOAT", "tensorShape": {"dim": [{"size": "1"}, {"size": "1"}, {"size": "768"}, {"size": "160"}]}}}}}, {"name": "MobilenetEdgeTPU/expanded_conv_21/depthwise/BatchNorm/FusedBatchNormV3/Offset", "op": "Const", "attr": {"dtype": {"type": "DT_FLOAT"}, "value": {"tensor": {"dtype": "DT_FLOAT", "tensorShape": {"dim": [{"size": "1280"}]}}}}}, {"name": "MobilenetEdgeTPU/expanded_conv_17/project/Conv2D_bn_offset", "op": "Const", "attr": {"dtype": {"type": "DT_FLOAT"}, "value": {"tensor": {"dtype": "DT_FLOAT", "tensorShape": {"dim": [{"size": "160"}]}}}}}, {"name": "MobilenetEdgeTPU/expanded_conv_18/expand/Conv2D_weights", "op": "Const", "attr": {"dtype": {"type": "DT_FLOAT"}, "value": {"tensor": {"dtype": "DT_FLOAT", "tensorShape": {"dim": [{"size": "1"}, {"size": "1"}, {"size": "160"}, {"size": "640"}]}}}}}, {"name": "MobilenetEdgeTPU/expanded_conv_18/expand/Conv2D_bn_offset", "op": "Const", "attr": {"dtype": {"type": "DT_FLOAT"}, "value": {"tensor": {"dtype": "DT_FLOAT", "tensorShape": {"dim": [{"size": "640"}]}}}}}, {"name": "MobilenetEdgeTPU/expanded_conv_18/project/Conv2D_weights", "op": "Const", "attr": {"dtype": {"type": "DT_FLOAT"}, "value": {"tensor": {"dtype": "DT_FLOAT", "tensorShape": {"dim": [{"size": "1"}, {"size": "1"}, {"size": "640"}, {"size": "160"}]}}}}}, {"name": "MobilenetEdgeTPU/expanded_conv_18/project/Conv2D_bn_offset", "op": "Const", "attr": {"dtype": {"type": "DT_FLOAT"}, "value": {"tensor": {"dtype": "DT_FLOAT", "tensorShape": {"dim": [{"size": "160"}]}}}}}, {"name": "MobilenetEdgeTPU/expanded_conv_19/expand/Conv2D_weights", "op": "Const", "attr": {"dtype": {"type": "DT_FLOAT"}, "value": {"tensor": {"dtype": "DT_FLOAT", "tensorShape": {"dim": [{"size": "1"}, {"size": "1"}, {"size": "160"}, {"size": "640"}]}}}}}, {"name": "MobilenetEdgeTPU/expanded_conv_20/depthwise/BatchNorm/FusedBatchNormV3/Scaled", "op": "Const", "attr": {"dtype": {"type": "DT_FLOAT"}, "value": {"tensor": {"dtype": "DT_FLOAT", "tensorShape": {"dim": [{"size": "640"}]}}}}}, {"name": "MobilenetEdgeTPU/expanded_conv_19/expand/Conv2D_bn_offset", "op": "Const", "attr": {"dtype": {"type": "DT_FLOAT"}, "value": {"tensor": {"dtype": "DT_FLOAT", "tensorShape": {"dim": [{"size": "640"}]}}}}}, {"name": "MobilenetEdgeTPU/expanded_conv_19/project/Conv2D_weights", "op": "Const", "attr": {"dtype": {"type": "DT_FLOAT"}, "value": {"tensor": {"dtype": "DT_FLOAT", "tensorShape": {"dim": [{"size": "1"}, {"size": "1"}, {"size": "640"}, {"size": "160"}]}}}}}, {"name": "MobilenetEdgeTPU/expanded_conv_19/project/Conv2D_bn_offset", "op": "Const", "attr": {"dtype": {"type": "DT_FLOAT"}, "value": {"tensor": {"dtype": "DT_FLOAT", "tensorShape": {"dim": [{"size": "160"}]}}}}}, {"name": "MobilenetEdgeTPU/expanded_conv_20/expand/Conv2D_weights", "op": "Const", "attr": {"dtype": {"type": "DT_FLOAT"}, "value": {"tensor": {"dtype": "DT_FLOAT", "tensorShape": {"dim": [{"size": "1"}, {"size": "1"}, {"size": "160"}, {"size": "640"}]}}}}}, {"name": "MobilenetEdgeTPU/expanded_conv_20/depthwise/BatchNorm/FusedBatchNormV3/Offset", "op": "Const", "attr": {"dtype": {"type": "DT_FLOAT"}, "value": {"tensor": {"dtype": "DT_FLOAT", "tensorShape": {"dim": [{"size": "640"}]}}}}}, {"name": "MobilenetEdgeTPU/expanded_conv_20/expand/Conv2D_bn_offset", "op": "Const", "attr": {"dtype": {"type": "DT_FLOAT"}, "value": {"tensor": {"dtype": "DT_FLOAT", "tensorShape": {"dim": [{"size": "640"}]}}}}}, {"name": "MobilenetEdgeTPU/expanded_conv_20/project/Conv2D_weights", "op": "Const", "attr": {"dtype": {"type": "DT_FLOAT"}, "value": {"tensor": {"dtype": "DT_FLOAT", "tensorShape": {"dim": [{"size": "1"}, {"size": "1"}, {"size": "640"}, {"size": "160"}]}}}}}, {"name": "MobilenetEdgeTPU/expanded_conv_20/project/Conv2D_bn_offset", "op": "Const", "attr": {"dtype": {"type": "DT_FLOAT"}, "value": {"tensor": {"dtype": "DT_FLOAT", "tensorShape": {"dim": [{"size": "160"}]}}}}}, {"name": "MobilenetEdgeTPU/expanded_conv_21/expand/Conv2D_weights", "op": "Const", "attr": {"dtype": {"type": "DT_FLOAT"}, "value": {"tensor": {"dtype": "DT_FLOAT", "tensorShape": {"dim": [{"size": "1"}, {"size": "1"}, {"size": "160"}, {"size": "1280"}]}}}}}, {"name": "Squeeze", "op": "Squeeze", "input": ["ImageTensor"], "attr": {"T": {"type": "DT_UINT8"}, "squeeze_dims": {"list": {"i": ["0"]}}}}, {"name": "Shape", "op": "Shape", "input": ["ImageTensor"], "attr": {"out_type": {"type": "DT_INT32"}, "T": {"type": "DT_UINT8"}}}, {"name": "Cast", "op": "Cast", "input": ["Squeeze"], "attr": {"DstT": {"type": "DT_FLOAT"}, "SrcT": {"type": "DT_UINT8"}, "Truncate": {"b": false}}}, {"name": "Shape_2", "op": "Shape", "input": ["Squeeze"], "attr": {"T": {"type": "DT_UINT8"}, "out_type": {"type": "DT_INT32"}}}, {"name": "strided_slice", "op": "StridedSlice", "input": ["Shape", "strided_slice/stack", "strided_slice/stack_1", "strided_slice/stack_2"], "attr": {"shrink_axis_mask": {"i": "0"}, "ellipsis_mask": {"i": "0"}, "Index": {"type": "DT_INT32"}, "begin_mask": {"i": "0"}, "end_mask": {"i": "0"}, "new_axis_mask": {"i": "0"}, "T": {"type": "DT_INT32"}}}, {"name": "pad_to_bounding_box/sub", "op": "Sub", "input": ["Cast", "Reshape"], "attr": {"T": {"type": "DT_FLOAT"}}}, {"name": "Shape_1", "op": "Shape", "input": ["Cast"], "attr": {"out_type": {"type": "DT_INT32"}, "T": {"type": "DT_FLOAT"}}}, {"name": "strided_slice_3", "op": "StridedSlice", "input": ["Shape_2", "strided_slice_3/stack", "strided_slice_3/stack_1", "strided_slice_3/stack_2"], "attr": {"end_mask": {"i": "0"}, "shrink_axis_mask": {"i": "0"}, "T": {"type": "DT_INT32"}, "new_axis_mask": {"i": "0"}, "Index": {"type": "DT_INT32"}, "ellipsis_mask": {"i": "0"}, "begin_mask": {"i": "1"}}}, {"name": "pad_to_bounding_box/ExpandDims", "op": "ExpandDims", "input": ["pad_to_bounding_box/sub", "pad_to_bounding_box/ExpandDims/dim"], "attr": {"Tdim": {"type": "DT_INT32"}, "T": {"type": "DT_FLOAT"}}}, {"name": "strided_slice_1", "op": "StridedSlice", "input": ["Shape_1", "strided_slice_1/stack", "strided_slice_1/stack_1", "strided_slice_1/stack_2"], "attr": {"shrink_axis_mask": {"i": "1"}, "ellipsis_mask": {"i": "0"}, "Index": {"type": "DT_INT32"}, "begin_mask": {"i": "0"}, "end_mask": {"i": "0"}, "new_axis_mask": {"i": "0"}, "T": {"type": "DT_INT32"}}}, {"name": "strided_slice_2", "op": "StridedSlice", "input": ["Shape_1", "strided_slice_2/stack", "strided_slice_2/stack_1", "strided_slice_2/stack_2"], "attr": {"Index": {"type": "DT_INT32"}, "ellipsis_mask": {"i": "0"}, "new_axis_mask": {"i": "0"}, "shrink_axis_mask": {"i": "1"}, "end_mask": {"i": "0"}, "T": {"type": "DT_INT32"}, "begin_mask": {"i": "0"}}}, {"name": "strided_slice_5", "op": "StridedSlice", "input": ["strided_slice_3", "strided_slice_5/stack", "strided_slice_5/stack_1", "strided_slice_5/stack_2"], "attr": {"Index": {"type": "DT_INT32"}, "ellipsis_mask": {"i": "0"}, "new_axis_mask": {"i": "0"}, "shrink_axis_mask": {"i": "1"}, "end_mask": {"i": "0"}, "T": {"type": "DT_INT32"}, "begin_mask": {"i": "0"}}}, {"name": "strided_slice_6", "op": "StridedSlice", "input": ["strided_slice_3", "strided_slice_6/stack", "strided_slice_6/stack_1", "strided_slice_6/stack_2"], "attr": {"ellipsis_mask": {"i": "0"}, "Index": {"type": "DT_INT32"}, "begin_mask": {"i": "0"}, "end_mask": {"i": "0"}, "T": {"type": "DT_INT32"}, "shrink_axis_mask": {"i": "1"}, "new_axis_mask": {"i": "0"}}}, {"name": "pad_to_bounding_box/Shape", "op": "Shape", "input": ["pad_to_bounding_box/ExpandDims"], "attr": {"T": {"type": "DT_FLOAT"}, "out_type": {"type": "DT_INT32"}}}, {"name": "sub", "op": "Sub", "input": ["sub/x", "strided_slice_1"], "attr": {"T": {"type": "DT_INT32"}}}, {"name": "Cast_5", "op": "Cast", "input": ["strided_slice_1"], "attr": {"DstT": {"type": "DT_FLOAT"}, "SrcT": {"type": "DT_INT32"}, "Truncate": {"b": false}}}, {"name": "Cast_2", "op": "Cast", "input": ["strided_slice_1"], "attr": {"SrcT": {"type": "DT_INT32"}, "DstT": {"type": "DT_FLOAT"}, "Truncate": {"b": false}}}, {"name": "sub_1", "op": "Sub", "input": ["sub_1/x", "strided_slice_2"], "attr": {"T": {"type": "DT_INT32"}}}, {"name": "Cast_6", "op": "Cast", "input": ["strided_slice_2"], "attr": {"DstT": {"type": "DT_FLOAT"}, "SrcT": {"type": "DT_INT32"}, "Truncate": {"b": false}}}, {"name": "Cast_4", "op": "Cast", "input": ["strided_slice_2"], "attr": {"SrcT": {"type": "DT_INT32"}, "Truncate": {"b": false}, "DstT": {"type": "DT_FLOAT"}}}, {"name": "strided_slice_7/stack_1", "op": "Pack", "input": ["strided_slice_7/stack_1/0", "strided_slice_5", "strided_slice_6"], "attr": {"T": {"type": "DT_INT32"}, "axis": {"i": "0"}, "N": {"i": "3"}}}, {"name": "pad_to_bounding_box/unstack", "op": "Unpack", "input": ["pad_to_bounding_box/Shape"], "attr": {"num": {"i": "4"}, "T": {"type": "DT_INT32"}, "axis": {"i": "0"}}}, {"name": "Maximum", "op": "Maximum", "input": ["sub", "Maximum/y"], "attr": {"T": {"type": "DT_INT32"}}}, {"name": "truediv", "op": "RealDiv", "input": ["Cast_1", "Cast_2"], "attr": {"T": {"type": "DT_FLOAT"}}}, {"name": "Maximum_1", "op": "Maximum", "input": ["sub_1", "Maximum_1/y"], "attr": {"T": {"type": "DT_INT32"}}}, {"name": "truediv_1", "op": "RealDiv", "input": ["Cast_3", "Cast_4"], "attr": {"T": {"type": "DT_FLOAT"}}}, {"name": "add", "op": "AddV2", "input": ["strided_slice_1", "Maximum"], "attr": {"T": {"type": "DT_INT32"}}}, {"name": "add_1", "op": "AddV2", "input": ["strided_slice_2", "Maximum_1"], "attr": {"T": {"type": "DT_INT32"}}}, {"name": "Minimum", "op": "Minimum", "input": ["truediv", "truediv_1"], "attr": {"T": {"type": "DT_FLOAT"}}}, {"name": "pad_to_bounding_box/sub_4", "op": "Sub", "input": ["add", "pad_to_bounding_box/unstack:1"], "attr": {"T": {"type": "DT_INT32"}}}, {"name": "pad_to_bounding_box/sub_2", "op": "Sub", "input": ["add_1", "pad_to_bounding_box/unstack:2"], "attr": {"T": {"type": "DT_INT32"}}}, {"name": "mul", "op": "Mul", "input": ["Cast_5", "Minimum"], "attr": {"T": {"type": "DT_FLOAT"}}}, {"name": "mul_1", "op": "Mul", "input": ["Cast_6", "Minimum"], "attr": {"T": {"type": "DT_FLOAT"}}}, {"name": "pad_to_bounding_box/stack_1", "op": "Pack", "input": ["pad_to_bounding_box/stack_1/0", "pad_to_bounding_box/sub_4"], "attr": {"T": {"type": "DT_INT32"}, "N": {"i": "2"}, "axis": {"i": "0"}}}, {"name": "pad_to_bounding_box/stack_2", "op": "Pack", "input": ["pad_to_bounding_box/stack_2/0", "pad_to_bounding_box/sub_2"], "attr": {"axis": {"i": "0"}, "T": {"type": "DT_INT32"}, "N": {"i": "2"}}}, {"name": "resize/Cast", "op": "Cast", "input": ["mul"], "attr": {"Truncate": {"b": false}, "DstT": {"type": "DT_INT32"}, "SrcT": {"type": "DT_FLOAT"}}}, {"name": "resize/Cast_1", "op": "Cast", "input": ["mul_1"], "attr": {"Truncate": {"b": false}, "DstT": {"type": "DT_INT32"}, "SrcT": {"type": "DT_FLOAT"}}}, {"name": "pad_to_bounding_box/stack_4", "op": "Pack", "input": ["pad_to_bounding_box/stack", "pad_to_bounding_box/stack_1", "pad_to_bounding_box/stack_2", "pad_to_bounding_box/stack_3"], "attr": {"T": {"type": "DT_INT32"}, "axis": {"i": "0"}, "N": {"i": "4"}}}, {"name": "resize/size", "op": "Pack", "input": ["resize/Cast", "resize/Cast_1"], "attr": {"T": {"type": "DT_INT32"}, "N": {"i": "2"}, "axis": {"i": "0"}}}, {"name": "pad_to_bounding_box/Pad", "op": "Pad", "input": ["pad_to_bounding_box/ExpandDims", "pad_to_bounding_box/stack_4"], "attr": {"Tpaddings": {"type": "DT_INT32"}, "T": {"type": "DT_FLOAT"}}}, {"name": "pad_to_bounding_box/Squeeze", "op": "Squeeze", "input": ["pad_to_bounding_box/Pad"], "attr": {"T": {"type": "DT_FLOAT"}, "squeeze_dims": {"list": {"i": ["0"]}}}}, {"name": "pad_to_bounding_box/add", "op": "AddV2", "input": ["pad_to_bounding_box/Squeeze", "Reshape"], "attr": {"T": {"type": "DT_FLOAT"}}}, {"name": "resize/ExpandDims", "op": "ExpandDims", "input": ["pad_to_bounding_box/add", "resize/ExpandDims/dim"], "attr": {"Tdim": {"type": "DT_INT32"}, "T": {"type": "DT_FLOAT"}}}, {"name": "resize/ResizeBilinear", "op": "ResizeBilinear", "input": ["resize/ExpandDims", "resize/size"], "attr": {"align_corners": {"b": true}, "T": {"type": "DT_FLOAT"}, "half_pixel_centers": {"b": false}}}, {"name": "resize/Squeeze", "op": "Squeeze", "input": ["resize/ResizeBilinear"], "attr": {"T": {"type": "DT_FLOAT"}, "squeeze_dims": {"list": {"i": ["0"]}}}}, {"name": "pad_to_bounding_box_1/sub", "op": "Sub", "input": ["resize/Squeeze", "Reshape"], "attr": {"T": {"type": "DT_FLOAT"}}}, {"name": "pad_to_bounding_box_1/ExpandDims", "op": "ExpandDims", "input": ["pad_to_bounding_box_1/sub", "pad_to_bounding_box_1/ExpandDims/dim"], "attr": {"Tdim": {"type": "DT_INT32"}, "T": {"type": "DT_FLOAT"}}}, {"name": "pad_to_bounding_box_1/Shape", "op": "Shape", "input": ["pad_to_bounding_box_1/ExpandDims"], "attr": {"T": {"type": "DT_FLOAT"}, "out_type": {"type": "DT_INT32"}}}, {"name": "pad_to_bounding_box_1/unstack", "op": "Unpack", "input": ["pad_to_bounding_box_1/Shape"], "attr": {"T": {"type": "DT_INT32"}, "axis": {"i": "0"}, "num": {"i": "4"}}}, {"name": "pad_to_bounding_box_1/sub_2/x", "op": "Const", "input": ["^pad_to_bounding_box_1/unstack"], "attr": {"dtype": {"type": "DT_INT32"}, "value": {"tensor": {"dtype": "DT_INT32", "tensorShape": {}}}}}, {"name": "pad_to_bounding_box_1/sub_1/x", "op": "Const", "input": ["^pad_to_bounding_box_1/unstack"], "attr": {"dtype": {"type": "DT_INT32"}, "value": {"tensor": {"dtype": "DT_INT32", "tensorShape": {}}}}}, {"name": "pad_to_bounding_box_1/sub_2", "op": "Sub", "input": ["pad_to_bounding_box_1/sub_2/x", "pad_to_bounding_box_1/unstack:1"], "attr": {"T": {"type": "DT_INT32"}}}, {"name": "pad_to_bounding_box_1/sub_1", "op": "Sub", "input": ["pad_to_bounding_box_1/sub_1/x", "pad_to_bounding_box_1/unstack:2"], "attr": {"T": {"type": "DT_INT32"}}}, {"name": "pad_to_bounding_box_1/stack_1", "op": "Pack", "input": ["pad_to_bounding_box_1/stack_1/0", "pad_to_bounding_box_1/sub_2"], "attr": {"axis": {"i": "0"}, "T": {"type": "DT_INT32"}, "N": {"i": "2"}}}, {"name": "pad_to_bounding_box_1/stack_2", "op": "Pack", "input": ["pad_to_bounding_box_1/stack_2/0", "pad_to_bounding_box_1/sub_1"], "attr": {"T": {"type": "DT_INT32"}, "N": {"i": "2"}, "axis": {"i": "0"}}}, {"name": "pad_to_bounding_box_1/stack_4", "op": "Pack", "input": ["pad_to_bounding_box_1/stack", "pad_to_bounding_box_1/stack_1", "pad_to_bounding_box_1/stack_2", "pad_to_bounding_box_1/stack_3"], "attr": {"T": {"type": "DT_INT32"}, "axis": {"i": "0"}, "N": {"i": "4"}}}, {"name": "pad_to_bounding_box_1/Pad", "op": "Pad", "input": ["pad_to_bounding_box_1/ExpandDims", "pad_to_bounding_box_1/stack_4"], "attr": {"T": {"type": "DT_FLOAT"}, "Tpaddings": {"type": "DT_INT32"}}}, {"name": "pad_to_bounding_box_1/Squeeze", "op": "Squeeze", "input": ["pad_to_bounding_box_1/Pad"], "attr": {"squeeze_dims": {"list": {"i": ["0"]}}, "T": {"type": "DT_FLOAT"}}}, {"name": "pad_to_bounding_box_1/add", "op": "AddV2", "input": ["pad_to_bounding_box_1/Squeeze", "Reshape"], "attr": {"T": {"type": "DT_FLOAT"}}}, {"name": "ExpandDims", "op": "ExpandDims", "input": ["pad_to_bounding_box_1/add", "ExpandDims/dim"], "attr": {"T": {"type": "DT_FLOAT"}, "Tdim": {"type": "DT_INT32"}}}, {"name": "mul_2", "op": "Mul", "input": ["mul_2/x", "ExpandDims"], "attr": {"T": {"type": "DT_FLOAT"}}}, {"name": "sub_2", "op": "Sub", "input": ["mul_2", "sub_2/y"], "attr": {"T": {"type": "DT_FLOAT"}}}, {"name": "MobilenetEdgeTPU/Conv/Relu", "op": "_FusedConv2D", "input": ["sub_2", "MobilenetEdgeTPU/Conv/Conv2D_weights", "MobilenetEdgeTPU/Conv/Conv2D_bn_offset"], "device": "/device:CPU:0", "attr": {"T": {"type": "DT_FLOAT"}, "padding": {"s": "U0FNRQ=="}, "dilations": {"list": {"i": ["1", "1", "1", "1"]}}, "strides": {"list": {"i": ["1", "2", "2", "1"]}}, "explicit_paddings": {"list": {}}, "num_args": {"i": "1"}, "epsilon": {"f": 0.0}, "data_format": {"s": "TkhXQw=="}, "use_cudnn_on_gpu": {"b": true}, "fused_ops": {"list": {"s": ["Qmlhc0FkZA==", "UmVsdQ=="]}}}}, {"name": "MobilenetEdgeTPU/expanded_conv/project/BatchNorm/FusedBatchNormV3", "op": "_FusedConv2D", "input": ["MobilenetEdgeTPU/Conv/Relu", "MobilenetEdgeTPU/expanded_conv/project/Conv2D_weights", "MobilenetEdgeTPU/expanded_conv/project/Conv2D_bn_offset"], "device": "/device:CPU:0", "attr": {"fused_ops": {"list": {"s": ["Qmlhc0FkZA=="]}}, "num_args": {"i": "1"}, "use_cudnn_on_gpu": {"b": true}, "data_format": {"s": "TkhXQw=="}, "epsilon": {"f": 0.0}, "strides": {"list": {"i": ["1", "1", "1", "1"]}}, "T": {"type": "DT_FLOAT"}, "padding": {"s": "U0FNRQ=="}, "explicit_paddings": {"list": {}}, "dilations": {"list": {"i": ["1", "1", "1", "1"]}}}}, {"name": "MobilenetEdgeTPU/expanded_conv_1/expand/Relu", "op": "_FusedConv2D", "input": ["MobilenetEdgeTPU/expanded_conv/project/BatchNorm/FusedBatchNormV3", "MobilenetEdgeTPU/expanded_conv_1/expand/Conv2D_weights", "MobilenetEdgeTPU/expanded_conv_1/expand/Conv2D_bn_offset"], "device": "/device:CPU:0", "attr": {"num_args": {"i": "1"}, "fused_ops": {"list": {"s": ["Qmlhc0FkZA==", "UmVsdQ=="]}}, "padding": {"s": "U0FNRQ=="}, "explicit_paddings": {"list": {}}, "dilations": {"list": {"i": ["1", "1", "1", "1"]}}, "epsilon": {"f": 0.0}, "use_cudnn_on_gpu": {"b": true}, "data_format": {"s": "TkhXQw=="}, "strides": {"list": {"i": ["1", "2", "2", "1"]}}, "T": {"type": "DT_FLOAT"}}}, {"name": "MobilenetEdgeTPU/expanded_conv_1/project/BatchNorm/FusedBatchNormV3", "op": "_FusedConv2D", "input": ["MobilenetEdgeTPU/expanded_conv_1/expand/Relu", "MobilenetEdgeTPU/expanded_conv_1/project/Conv2D_weights", "MobilenetEdgeTPU/expanded_conv_1/project/Conv2D_bn_offset"], "device": "/device:CPU:0", "attr": {"num_args": {"i": "1"}, "fused_ops": {"list": {"s": ["Qmlhc0FkZA=="]}}, "padding": {"s": "U0FNRQ=="}, "explicit_paddings": {"list": {}}, "dilations": {"list": {"i": ["1", "1", "1", "1"]}}, "epsilon": {"f": 0.0}, "use_cudnn_on_gpu": {"b": true}, "data_format": {"s": "TkhXQw=="}, "strides": {"list": {"i": ["1", "1", "1", "1"]}}, "T": {"type": "DT_FLOAT"}}}, {"name": "MobilenetEdgeTPU/expanded_conv_2/expand/Relu", "op": "_FusedConv2D", "input": ["MobilenetEdgeTPU/expanded_conv_1/project/BatchNorm/FusedBatchNormV3", "MobilenetEdgeTPU/expanded_conv_2/expand/Conv2D_weights", "MobilenetEdgeTPU/expanded_conv_2/expand/Conv2D_bn_offset"], "device": "/device:CPU:0", "attr": {"num_args": {"i": "1"}, "fused_ops": {"list": {"s": ["Qmlhc0FkZA==", "UmVsdQ=="]}}, "padding": {"s": "U0FNRQ=="}, "explicit_paddings": {"list": {}}, "dilations": {"list": {"i": ["1", "1", "1", "1"]}}, "epsilon": {"f": 0.0}, "use_cudnn_on_gpu": {"b": true}, "data_format": {"s": "TkhXQw=="}, "strides": {"list": {"i": ["1", "1", "1", "1"]}}, "T": {"type": "DT_FLOAT"}}}, {"name": "MobilenetEdgeTPU/expanded_conv_2/project/BatchNorm/FusedBatchNormV3", "op": "_FusedConv2D", "input": ["MobilenetEdgeTPU/expanded_conv_2/expand/Relu", "MobilenetEdgeTPU/expanded_conv_2/project/Conv2D_weights", "MobilenetEdgeTPU/expanded_conv_2/project/Conv2D_bn_offset"], "device": "/device:CPU:0", "attr": {"fused_ops": {"list": {"s": ["Qmlhc0FkZA=="]}}, "num_args": {"i": "1"}, "use_cudnn_on_gpu": {"b": true}, "data_format": {"s": "TkhXQw=="}, "epsilon": {"f": 0.0}, "strides": {"list": {"i": ["1", "1", "1", "1"]}}, "T": {"type": "DT_FLOAT"}, "padding": {"s": "U0FNRQ=="}, "explicit_paddings": {"list": {}}, "dilations": {"list": {"i": ["1", "1", "1", "1"]}}}}, {"name": "MobilenetEdgeTPU/expanded_conv_2/add", "op": "AddV2", "input": ["MobilenetEdgeTPU/expanded_conv_2/project/BatchNorm/FusedBatchNormV3", "MobilenetEdgeTPU/expanded_conv_1/project/BatchNorm/FusedBatchNormV3"], "attr": {"T": {"type": "DT_FLOAT"}}}, {"name": "MobilenetEdgeTPU/expanded_conv_3/expand/Relu", "op": "_FusedConv2D", "input": ["MobilenetEdgeTPU/expanded_conv_2/add", "MobilenetEdgeTPU/expanded_conv_3/expand/Conv2D_weights", "MobilenetEdgeTPU/expanded_conv_3/expand/Conv2D_bn_offset"], "device": "/device:CPU:0", "attr": {"T": {"type": "DT_FLOAT"}, "num_args": {"i": "1"}, "explicit_paddings": {"list": {}}, "dilations": {"list": {"i": ["1", "1", "1", "1"]}}, "epsilon": {"f": 0.0}, "use_cudnn_on_gpu": {"b": true}, "data_format": {"s": "TkhXQw=="}, "strides": {"list": {"i": ["1", "1", "1", "1"]}}, "fused_ops": {"list": {"s": ["Qmlhc0FkZA==", "UmVsdQ=="]}}, "padding": {"s": "U0FNRQ=="}}}, {"name": "MobilenetEdgeTPU/expanded_conv_3/project/BatchNorm/FusedBatchNormV3", "op": "_FusedConv2D", "input": ["MobilenetEdgeTPU/expanded_conv_3/expand/Relu", "MobilenetEdgeTPU/expanded_conv_3/project/Conv2D_weights", "MobilenetEdgeTPU/expanded_conv_3/project/Conv2D_bn_offset"], "device": "/device:CPU:0", "attr": {"num_args": {"i": "1"}, "fused_ops": {"list": {"s": ["Qmlhc0FkZA=="]}}, "padding": {"s": "U0FNRQ=="}, "explicit_paddings": {"list": {}}, "dilations": {"list": {"i": ["1", "1", "1", "1"]}}, "epsilon": {"f": 0.0}, "use_cudnn_on_gpu": {"b": true}, "data_format": {"s": "TkhXQw=="}, "strides": {"list": {"i": ["1", "1", "1", "1"]}}, "T": {"type": "DT_FLOAT"}}}, {"name": "MobilenetEdgeTPU/expanded_conv_3/add", "op": "AddV2", "input": ["MobilenetEdgeTPU/expanded_conv_3/project/BatchNorm/FusedBatchNormV3", "MobilenetEdgeTPU/expanded_conv_2/add"], "attr": {"T": {"type": "DT_FLOAT"}}}, {"name": "MobilenetEdgeTPU/expanded_conv_4/expand/Relu", "op": "_FusedConv2D", "input": ["MobilenetEdgeTPU/expanded_conv_3/add", "MobilenetEdgeTPU/expanded_conv_4/expand/Conv2D_weights", "MobilenetEdgeTPU/expanded_conv_4/expand/Conv2D_bn_offset"], "device": "/device:CPU:0", "attr": {"T": {"type": "DT_FLOAT"}, "padding": {"s": "U0FNRQ=="}, "dilations": {"list": {"i": ["1", "1", "1", "1"]}}, "strides": {"list": {"i": ["1", "1", "1", "1"]}}, "explicit_paddings": {"list": {}}, "num_args": {"i": "1"}, "epsilon": {"f": 0.0}, "data_format": {"s": "TkhXQw=="}, "use_cudnn_on_gpu": {"b": true}, "fused_ops": {"list": {"s": ["Qmlhc0FkZA==", "UmVsdQ=="]}}}}, {"name": "MobilenetEdgeTPU/expanded_conv_4/project/BatchNorm/FusedBatchNormV3", "op": "_FusedConv2D", "input": ["MobilenetEdgeTPU/expanded_conv_4/expand/Relu", "MobilenetEdgeTPU/expanded_conv_4/project/Conv2D_weights", "MobilenetEdgeTPU/expanded_conv_4/project/Conv2D_bn_offset"], "device": "/device:CPU:0", "attr": {"num_args": {"i": "1"}, "fused_ops": {"list": {"s": ["Qmlhc0FkZA=="]}}, "padding": {"s": "U0FNRQ=="}, "explicit_paddings": {"list": {}}, "dilations": {"list": {"i": ["1", "1", "1", "1"]}}, "epsilon": {"f": 0.0}, "use_cudnn_on_gpu": {"b": true}, "data_format": {"s": "TkhXQw=="}, "strides": {"list": {"i": ["1", "1", "1", "1"]}}, "T": {"type": "DT_FLOAT"}}}, {"name": "MobilenetEdgeTPU/expanded_conv_4/add", "op": "AddV2", "input": ["MobilenetEdgeTPU/expanded_conv_4/project/BatchNorm/FusedBatchNormV3", "MobilenetEdgeTPU/expanded_conv_3/add"], "attr": {"T": {"type": "DT_FLOAT"}}}, {"name": "MobilenetEdgeTPU/expanded_conv_5/expand/Relu", "op": "_FusedConv2D", "input": ["MobilenetEdgeTPU/expanded_conv_4/add", "MobilenetEdgeTPU/expanded_conv_5/expand/Conv2D_weights", "MobilenetEdgeTPU/expanded_conv_5/expand/Conv2D_bn_offset"], "device": "/device:CPU:0", "attr": {"T": {"type": "DT_FLOAT"}, "padding": {"s": "U0FNRQ=="}, "dilations": {"list": {"i": ["1", "1", "1", "1"]}}, "strides": {"list": {"i": ["1", "2", "2", "1"]}}, "explicit_paddings": {"list": {}}, "num_args": {"i": "1"}, "epsilon": {"f": 0.0}, "data_format": {"s": "TkhXQw=="}, "use_cudnn_on_gpu": {"b": true}, "fused_ops": {"list": {"s": ["Qmlhc0FkZA==", "UmVsdQ=="]}}}}, {"name": "MobilenetEdgeTPU/expanded_conv_5/project/BatchNorm/FusedBatchNormV3", "op": "_FusedConv2D", "input": ["MobilenetEdgeTPU/expanded_conv_5/expand/Relu", "MobilenetEdgeTPU/expanded_conv_5/project/Conv2D_weights", "MobilenetEdgeTPU/expanded_conv_5/project/Conv2D_bn_offset"], "device": "/device:CPU:0", "attr": {"num_args": {"i": "1"}, "fused_ops": {"list": {"s": ["Qmlhc0FkZA=="]}}, "padding": {"s": "U0FNRQ=="}, "explicit_paddings": {"list": {}}, "dilations": {"list": {"i": ["1", "1", "1", "1"]}}, "epsilon": {"f": 0.0}, "use_cudnn_on_gpu": {"b": true}, "data_format": {"s": "TkhXQw=="}, "strides": {"list": {"i": ["1", "1", "1", "1"]}}, "T": {"type": "DT_FLOAT"}}}, {"name": "MobilenetEdgeTPU/expanded_conv_6/expand/Relu", "op": "_FusedConv2D", "input": ["MobilenetEdgeTPU/expanded_conv_5/project/BatchNorm/FusedBatchNormV3", "MobilenetEdgeTPU/expanded_conv_6/expand/Conv2D_weights", "MobilenetEdgeTPU/expanded_conv_6/expand/Conv2D_bn_offset"], "device": "/device:CPU:0", "attr": {"num_args": {"i": "1"}, "fused_ops": {"list": {"s": ["Qmlhc0FkZA==", "UmVsdQ=="]}}, "padding": {"s": "U0FNRQ=="}, "explicit_paddings": {"list": {}}, "dilations": {"list": {"i": ["1", "1", "1", "1"]}}, "epsilon": {"f": 0.0}, "use_cudnn_on_gpu": {"b": true}, "data_format": {"s": "TkhXQw=="}, "strides": {"list": {"i": ["1", "1", "1", "1"]}}, "T": {"type": "DT_FLOAT"}}}, {"name": "MobilenetEdgeTPU/expanded_conv_6/project/BatchNorm/FusedBatchNormV3", "op": "_FusedConv2D", "input": ["MobilenetEdgeTPU/expanded_conv_6/expand/Relu", "MobilenetEdgeTPU/expanded_conv_6/project/Conv2D_weights", "MobilenetEdgeTPU/expanded_conv_6/project/Conv2D_bn_offset"], "device": "/device:CPU:0", "attr": {"T": {"type": "DT_FLOAT"}, "num_args": {"i": "1"}, "explicit_paddings": {"list": {}}, "dilations": {"list": {"i": ["1", "1", "1", "1"]}}, "epsilon": {"f": 0.0}, "use_cudnn_on_gpu": {"b": true}, "data_format": {"s": "TkhXQw=="}, "strides": {"list": {"i": ["1", "1", "1", "1"]}}, "fused_ops": {"list": {"s": ["Qmlhc0FkZA=="]}}, "padding": {"s": "U0FNRQ=="}}}, {"name": "MobilenetEdgeTPU/expanded_conv_6/add", "op": "AddV2", "input": ["MobilenetEdgeTPU/expanded_conv_6/project/BatchNorm/FusedBatchNormV3", "MobilenetEdgeTPU/expanded_conv_5/project/BatchNorm/FusedBatchNormV3"], "attr": {"T": {"type": "DT_FLOAT"}}}, {"name": "MobilenetEdgeTPU/expanded_conv_7/expand/Relu", "op": "_FusedConv2D", "input": ["MobilenetEdgeTPU/expanded_conv_6/add", "MobilenetEdgeTPU/expanded_conv_7/expand/Conv2D_weights", "MobilenetEdgeTPU/expanded_conv_7/expand/Conv2D_bn_offset"], "device": "/device:CPU:0", "attr": {"T": {"type": "DT_FLOAT"}, "num_args": {"i": "1"}, "explicit_paddings": {"list": {}}, "dilations": {"list": {"i": ["1", "1", "1", "1"]}}, "epsilon": {"f": 0.0}, "use_cudnn_on_gpu": {"b": true}, "data_format": {"s": "TkhXQw=="}, "strides": {"list": {"i": ["1", "1", "1", "1"]}}, "fused_ops": {"list": {"s": ["Qmlhc0FkZA==", "UmVsdQ=="]}}, "padding": {"s": "U0FNRQ=="}}}, {"name": "MobilenetEdgeTPU/expanded_conv_7/project/BatchNorm/FusedBatchNormV3", "op": "_FusedConv2D", "input": ["MobilenetEdgeTPU/expanded_conv_7/expand/Relu", "MobilenetEdgeTPU/expanded_conv_7/project/Conv2D_weights", "MobilenetEdgeTPU/expanded_conv_7/project/Conv2D_bn_offset"], "device": "/device:CPU:0", "attr": {"num_args": {"i": "1"}, "fused_ops": {"list": {"s": ["Qmlhc0FkZA=="]}}, "padding": {"s": "U0FNRQ=="}, "explicit_paddings": {"list": {}}, "dilations": {"list": {"i": ["1", "1", "1", "1"]}}, "epsilon": {"f": 0.0}, "use_cudnn_on_gpu": {"b": true}, "data_format": {"s": "TkhXQw=="}, "strides": {"list": {"i": ["1", "1", "1", "1"]}}, "T": {"type": "DT_FLOAT"}}}, {"name": "MobilenetEdgeTPU/expanded_conv_7/add", "op": "AddV2", "input": ["MobilenetEdgeTPU/expanded_conv_7/project/BatchNorm/FusedBatchNormV3", "MobilenetEdgeTPU/expanded_conv_6/add"], "attr": {"T": {"type": "DT_FLOAT"}}}, {"name": "MobilenetEdgeTPU/expanded_conv_8/expand/Relu", "op": "_FusedConv2D", "input": ["MobilenetEdgeTPU/expanded_conv_7/add", "MobilenetEdgeTPU/expanded_conv_8/expand/Conv2D_weights", "MobilenetEdgeTPU/expanded_conv_8/expand/Conv2D_bn_offset"], "device": "/device:CPU:0", "attr": {"T": {"type": "DT_FLOAT"}, "num_args": {"i": "1"}, "explicit_paddings": {"list": {}}, "dilations": {"list": {"i": ["1", "1", "1", "1"]}}, "epsilon": {"f": 0.0}, "use_cudnn_on_gpu": {"b": true}, "data_format": {"s": "TkhXQw=="}, "strides": {"list": {"i": ["1", "1", "1", "1"]}}, "fused_ops": {"list": {"s": ["Qmlhc0FkZA==", "UmVsdQ=="]}}, "padding": {"s": "U0FNRQ=="}}}, {"name": "MobilenetEdgeTPU/expanded_conv_8/project/BatchNorm/FusedBatchNormV3", "op": "_FusedConv2D", "input": ["MobilenetEdgeTPU/expanded_conv_8/expand/Relu", "MobilenetEdgeTPU/expanded_conv_8/project/Conv2D_weights", "MobilenetEdgeTPU/expanded_conv_8/project/Conv2D_bn_offset"], "device": "/device:CPU:0", "attr": {"fused_ops": {"list": {"s": ["Qmlhc0FkZA=="]}}, "num_args": {"i": "1"}, "use_cudnn_on_gpu": {"b": true}, "data_format": {"s": "TkhXQw=="}, "epsilon": {"f": 0.0}, "strides": {"list": {"i": ["1", "1", "1", "1"]}}, "T": {"type": "DT_FLOAT"}, "padding": {"s": "U0FNRQ=="}, "explicit_paddings": {"list": {}}, "dilations": {"list": {"i": ["1", "1", "1", "1"]}}}}, {"name": "MobilenetEdgeTPU/expanded_conv_8/add", "op": "AddV2", "input": ["MobilenetEdgeTPU/expanded_conv_8/project/BatchNorm/FusedBatchNormV3", "MobilenetEdgeTPU/expanded_conv_7/add"], "attr": {"T": {"type": "DT_FLOAT"}}}, {"name": "MobilenetEdgeTPU/expanded_conv_9/expand/Relu", "op": "_FusedConv2D", "input": ["MobilenetEdgeTPU/expanded_conv_8/add", "MobilenetEdgeTPU/expanded_conv_9/expand/Conv2D_weights", "MobilenetEdgeTPU/expanded_conv_9/expand/Conv2D_bn_offset"], "device": "/device:CPU:0", "attr": {"epsilon": {"f": 0.0}, "num_args": {"i": "1"}, "data_format": {"s": "TkhXQw=="}, "explicit_paddings": {"list": {}}, "fused_ops": {"list": {"s": ["Qmlhc0FkZA==", "UmVsdQ=="]}}, "use_cudnn_on_gpu": {"b": true}, "T": {"type": "DT_FLOAT"}, "padding": {"s": "U0FNRQ=="}, "strides": {"list": {"i": ["1", "1", "1", "1"]}}, "dilations": {"list": {"i": ["1", "1", "1", "1"]}}}}, {"name": "MobilenetEdgeTPU/expanded_conv_9/depthwise/depthwise", "op": "FusedDepthwiseConv2dNative", "input": ["MobilenetEdgeTPU/expanded_conv_9/expand/Relu", "MobilenetEdgeTPU/expanded_conv_9/depthwise/depthwise_weights", "MobilenetEdgeTPU/expanded_conv_9/depthwise/depthwise_bn_offset"], "attr": {"num_args": {"i": "1"}, "explicit_paddings": {"list": {}}, "padding": {"s": "U0FNRQ=="}, "fused_ops": {"list": {"s": ["Qmlhc0FkZA==", "UmVsdQ=="]}}, "dilations": {"list": {"i": ["1", "1", "1", "1"]}}, "data_format": {"s": "TkhXQw=="}, "strides": {"list": {"i": ["1", "2", "2", "1"]}}, "T": {"type": "DT_FLOAT"}}}, {"name": "MobilenetEdgeTPU/expanded_conv_9/project/BatchNorm/FusedBatchNormV3", "op": "_FusedConv2D", "input": ["MobilenetEdgeTPU/expanded_conv_9/depthwise/depthwise", "MobilenetEdgeTPU/expanded_conv_9/project/Conv2D_weights", "MobilenetEdgeTPU/expanded_conv_9/project/Conv2D_bn_offset"], "device": "/device:CPU:0", "attr": {"T": {"type": "DT_FLOAT"}, "padding": {"s": "U0FNRQ=="}, "dilations": {"list": {"i": ["1", "1", "1", "1"]}}, "strides": {"list": {"i": ["1", "1", "1", "1"]}}, "explicit_paddings": {"list": {}}, "num_args": {"i": "1"}, "epsilon": {"f": 0.0}, "data_format": {"s": "TkhXQw=="}, "use_cudnn_on_gpu": {"b": true}, "fused_ops": {"list": {"s": ["Qmlhc0FkZA=="]}}}}, {"name": "MobilenetEdgeTPU/expanded_conv_10/expand/Relu", "op": "_FusedConv2D", "input": ["MobilenetEdgeTPU/expanded_conv_9/project/BatchNorm/FusedBatchNormV3", "MobilenetEdgeTPU/expanded_conv_10/expand/Conv2D_weights", "MobilenetEdgeTPU/expanded_conv_10/expand/Conv2D_bn_offset"], "device": "/device:CPU:0", "attr": {"T": {"type": "DT_FLOAT"}, "padding": {"s": "U0FNRQ=="}, "dilations": {"list": {"i": ["1", "1", "1", "1"]}}, "strides": {"list": {"i": ["1", "1", "1", "1"]}}, "explicit_paddings": {"list": {}}, "num_args": {"i": "1"}, "epsilon": {"f": 0.0}, "data_format": {"s": "TkhXQw=="}, "use_cudnn_on_gpu": {"b": true}, "fused_ops": {"list": {"s": ["Qmlhc0FkZA==", "UmVsdQ=="]}}}}, {"name": "MobilenetEdgeTPU/expanded_conv_10/depthwise/depthwise", "op": "FusedDepthwiseConv2dNative", "input": ["MobilenetEdgeTPU/expanded_conv_10/expand/Relu", "MobilenetEdgeTPU/expanded_conv_10/depthwise/depthwise_weights", "MobilenetEdgeTPU/expanded_conv_10/depthwise/depthwise_bn_offset"], "attr": {"num_args": {"i": "1"}, "fused_ops": {"list": {"s": ["Qmlhc0FkZA==", "UmVsdQ=="]}}, "data_format": {"s": "TkhXQw=="}, "strides": {"list": {"i": ["1", "1", "1", "1"]}}, "T": {"type": "DT_FLOAT"}, "padding": {"s": "U0FNRQ=="}, "explicit_paddings": {"list": {}}, "dilations": {"list": {"i": ["1", "1", "1", "1"]}}}}, {"name": "MobilenetEdgeTPU/expanded_conv_10/project/BatchNorm/FusedBatchNormV3", "op": "_FusedConv2D", "input": ["MobilenetEdgeTPU/expanded_conv_10/depthwise/depthwise", "MobilenetEdgeTPU/expanded_conv_10/project/Conv2D_weights", "MobilenetEdgeTPU/expanded_conv_10/project/Conv2D_bn_offset"], "device": "/device:CPU:0", "attr": {"fused_ops": {"list": {"s": ["Qmlhc0FkZA=="]}}, "num_args": {"i": "1"}, "use_cudnn_on_gpu": {"b": true}, "data_format": {"s": "TkhXQw=="}, "epsilon": {"f": 0.0}, "strides": {"list": {"i": ["1", "1", "1", "1"]}}, "T": {"type": "DT_FLOAT"}, "padding": {"s": "U0FNRQ=="}, "explicit_paddings": {"list": {}}, "dilations": {"list": {"i": ["1", "1", "1", "1"]}}}}, {"name": "MobilenetEdgeTPU/expanded_conv_10/add", "op": "AddV2", "input": ["MobilenetEdgeTPU/expanded_conv_10/project/BatchNorm/FusedBatchNormV3", "MobilenetEdgeTPU/expanded_conv_9/project/BatchNorm/FusedBatchNormV3"], "attr": {"T": {"type": "DT_FLOAT"}}}, {"name": "MobilenetEdgeTPU/expanded_conv_11/expand/Relu", "op": "_FusedConv2D", "input": ["MobilenetEdgeTPU/expanded_conv_10/add", "MobilenetEdgeTPU/expanded_conv_11/expand/Conv2D_weights", "MobilenetEdgeTPU/expanded_conv_11/expand/Conv2D_bn_offset"], "device": "/device:CPU:0", "attr": {"T": {"type": "DT_FLOAT"}, "padding": {"s": "U0FNRQ=="}, "dilations": {"list": {"i": ["1", "1", "1", "1"]}}, "strides": {"list": {"i": ["1", "1", "1", "1"]}}, "explicit_paddings": {"list": {}}, "num_args": {"i": "1"}, "epsilon": {"f": 0.0}, "data_format": {"s": "TkhXQw=="}, "use_cudnn_on_gpu": {"b": true}, "fused_ops": {"list": {"s": ["Qmlhc0FkZA==", "UmVsdQ=="]}}}}, {"name": "MobilenetEdgeTPU/expanded_conv_11/depthwise/depthwise", "op": "FusedDepthwiseConv2dNative", "input": ["MobilenetEdgeTPU/expanded_conv_11/expand/Relu", "MobilenetEdgeTPU/expanded_conv_11/depthwise/depthwise_weights", "MobilenetEdgeTPU/expanded_conv_11/depthwise/depthwise_bn_offset"], "attr": {"fused_ops": {"list": {"s": ["Qmlhc0FkZA==", "UmVsdQ=="]}}, "num_args": {"i": "1"}, "data_format": {"s": "TkhXQw=="}, "strides": {"list": {"i": ["1", "1", "1", "1"]}}, "T": {"type": "DT_FLOAT"}, "explicit_paddings": {"list": {}}, "padding": {"s": "U0FNRQ=="}, "dilations": {"list": {"i": ["1", "1", "1", "1"]}}}}, {"name": "MobilenetEdgeTPU/expanded_conv_11/project/BatchNorm/FusedBatchNormV3", "op": "_FusedConv2D", "input": ["MobilenetEdgeTPU/expanded_conv_11/depthwise/depthwise", "MobilenetEdgeTPU/expanded_conv_11/project/Conv2D_weights", "MobilenetEdgeTPU/expanded_conv_11/project/Conv2D_bn_offset"], "device": "/device:CPU:0", "attr": {"fused_ops": {"list": {"s": ["Qmlhc0FkZA=="]}}, "num_args": {"i": "1"}, "use_cudnn_on_gpu": {"b": true}, "data_format": {"s": "TkhXQw=="}, "epsilon": {"f": 0.0}, "strides": {"list": {"i": ["1", "1", "1", "1"]}}, "T": {"type": "DT_FLOAT"}, "padding": {"s": "U0FNRQ=="}, "explicit_paddings": {"list": {}}, "dilations": {"list": {"i": ["1", "1", "1", "1"]}}}}, {"name": "MobilenetEdgeTPU/expanded_conv_11/add", "op": "AddV2", "input": ["MobilenetEdgeTPU/expanded_conv_11/project/BatchNorm/FusedBatchNormV3", "MobilenetEdgeTPU/expanded_conv_10/add"], "attr": {"T": {"type": "DT_FLOAT"}}}, {"name": "MobilenetEdgeTPU/expanded_conv_12/expand/Relu", "op": "_FusedConv2D", "input": ["MobilenetEdgeTPU/expanded_conv_11/add", "MobilenetEdgeTPU/expanded_conv_12/expand/Conv2D_weights", "MobilenetEdgeTPU/expanded_conv_12/expand/Conv2D_bn_offset"], "device": "/device:CPU:0", "attr": {"epsilon": {"f": 0.0}, "num_args": {"i": "1"}, "data_format": {"s": "TkhXQw=="}, "explicit_paddings": {"list": {}}, "fused_ops": {"list": {"s": ["Qmlhc0FkZA==", "UmVsdQ=="]}}, "use_cudnn_on_gpu": {"b": true}, "T": {"type": "DT_FLOAT"}, "padding": {"s": "U0FNRQ=="}, "strides": {"list": {"i": ["1", "1", "1", "1"]}}, "dilations": {"list": {"i": ["1", "1", "1", "1"]}}}}, {"name": "MobilenetEdgeTPU/expanded_conv_12/depthwise/depthwise", "op": "FusedDepthwiseConv2dNative", "input": ["MobilenetEdgeTPU/expanded_conv_12/expand/Relu", "MobilenetEdgeTPU/expanded_conv_12/depthwise/depthwise_weights", "MobilenetEdgeTPU/expanded_conv_12/depthwise/depthwise_bn_offset"], "attr": {"T": {"type": "DT_FLOAT"}, "padding": {"s": "U0FNRQ=="}, "dilations": {"list": {"i": ["1", "1", "1", "1"]}}, "strides": {"list": {"i": ["1", "1", "1", "1"]}}, "explicit_paddings": {"list": {}}, "num_args": {"i": "1"}, "data_format": {"s": "TkhXQw=="}, "fused_ops": {"list": {"s": ["Qmlhc0FkZA==", "UmVsdQ=="]}}}}, {"name": "MobilenetEdgeTPU/expanded_conv_12/project/BatchNorm/FusedBatchNormV3", "op": "_FusedConv2D", "input": ["MobilenetEdgeTPU/expanded_conv_12/depthwise/depthwise", "MobilenetEdgeTPU/expanded_conv_12/project/Conv2D_weights", "MobilenetEdgeTPU/expanded_conv_12/project/Conv2D_bn_offset"], "device": "/device:CPU:0", "attr": {"num_args": {"i": "1"}, "fused_ops": {"list": {"s": ["Qmlhc0FkZA=="]}}, "padding": {"s": "U0FNRQ=="}, "explicit_paddings": {"list": {}}, "dilations": {"list": {"i": ["1", "1", "1", "1"]}}, "epsilon": {"f": 0.0}, "use_cudnn_on_gpu": {"b": true}, "data_format": {"s": "TkhXQw=="}, "strides": {"list": {"i": ["1", "1", "1", "1"]}}, "T": {"type": "DT_FLOAT"}}}, {"name": "MobilenetEdgeTPU/expanded_conv_12/add", "op": "AddV2", "input": ["MobilenetEdgeTPU/expanded_conv_12/project/BatchNorm/FusedBatchNormV3", "MobilenetEdgeTPU/expanded_conv_11/add"], "attr": {"T": {"type": "DT_FLOAT"}}}, {"name": "MobilenetEdgeTPU/expanded_conv_13/expand/Relu", "op": "_FusedConv2D", "input": ["MobilenetEdgeTPU/expanded_conv_12/add", "MobilenetEdgeTPU/expanded_conv_13/expand/Conv2D_weights", "MobilenetEdgeTPU/expanded_conv_13/expand/Conv2D_bn_offset"], "device": "/device:CPU:0", "attr": {"num_args": {"i": "1"}, "fused_ops": {"list": {"s": ["Qmlhc0FkZA==", "UmVsdQ=="]}}, "padding": {"s": "U0FNRQ=="}, "explicit_paddings": {"list": {}}, "dilations": {"list": {"i": ["1", "1", "1", "1"]}}, "epsilon": {"f": 0.0}, "use_cudnn_on_gpu": {"b": true}, "data_format": {"s": "TkhXQw=="}, "strides": {"list": {"i": ["1", "1", "1", "1"]}}, "T": {"type": "DT_FLOAT"}}}, {"name": "MobilenetEdgeTPU/expanded_conv_13/depthwise/depthwise", "op": "FusedDepthwiseConv2dNative", "input": ["MobilenetEdgeTPU/expanded_conv_13/expand/Relu", "MobilenetEdgeTPU/expanded_conv_13/depthwise/depthwise_weights", "MobilenetEdgeTPU/expanded_conv_13/depthwise/depthwise_bn_offset"], "attr": {"T": {"type": "DT_FLOAT"}, "padding": {"s": "U0FNRQ=="}, "dilations": {"list": {"i": ["1", "1", "1", "1"]}}, "strides": {"list": {"i": ["1", "1", "1", "1"]}}, "explicit_paddings": {"list": {}}, "num_args": {"i": "1"}, "data_format": {"s": "TkhXQw=="}, "fused_ops": {"list": {"s": ["Qmlhc0FkZA==", "UmVsdQ=="]}}}}, {"name": "MobilenetEdgeTPU/expanded_conv_13/project/BatchNorm/FusedBatchNormV3", "op": "_FusedConv2D", "input": ["MobilenetEdgeTPU/expanded_conv_13/depthwise/depthwise", "MobilenetEdgeTPU/expanded_conv_13/project/Conv2D_weights", "MobilenetEdgeTPU/expanded_conv_13/project/Conv2D_bn_offset"], "device": "/device:CPU:0", "attr": {"T": {"type": "DT_FLOAT"}, "padding": {"s": "U0FNRQ=="}, "dilations": {"list": {"i": ["1", "1", "1", "1"]}}, "strides": {"list": {"i": ["1", "1", "1", "1"]}}, "explicit_paddings": {"list": {}}, "num_args": {"i": "1"}, "epsilon": {"f": 0.0}, "data_format": {"s": "TkhXQw=="}, "use_cudnn_on_gpu": {"b": true}, "fused_ops": {"list": {"s": ["Qmlhc0FkZA=="]}}}}, {"name": "MobilenetEdgeTPU/expanded_conv_14/expand/Relu", "op": "_FusedConv2D", "input": ["MobilenetEdgeTPU/expanded_conv_13/project/BatchNorm/FusedBatchNormV3", "MobilenetEdgeTPU/expanded_conv_14/expand/Conv2D_weights", "MobilenetEdgeTPU/expanded_conv_14/expand/Conv2D_bn_offset"], "device": "/device:CPU:0", "attr": {"T": {"type": "DT_FLOAT"}, "padding": {"s": "U0FNRQ=="}, "dilations": {"list": {"i": ["1", "1", "1", "1"]}}, "strides": {"list": {"i": ["1", "1", "1", "1"]}}, "explicit_paddings": {"list": {}}, "num_args": {"i": "1"}, "epsilon": {"f": 0.0}, "data_format": {"s": "TkhXQw=="}, "use_cudnn_on_gpu": {"b": true}, "fused_ops": {"list": {"s": ["Qmlhc0FkZA==", "UmVsdQ=="]}}}}, {"name": "MobilenetEdgeTPU/expanded_conv_14/depthwise/depthwise", "op": "FusedDepthwiseConv2dNative", "input": ["MobilenetEdgeTPU/expanded_conv_14/expand/Relu", "MobilenetEdgeTPU/expanded_conv_14/depthwise/depthwise_weights", "MobilenetEdgeTPU/expanded_conv_14/depthwise/depthwise_bn_offset"], "attr": {"num_args": {"i": "1"}, "data_format": {"s": "TkhXQw=="}, "explicit_paddings": {"list": {}}, "fused_ops": {"list": {"s": ["Qmlhc0FkZA==", "UmVsdQ=="]}}, "T": {"type": "DT_FLOAT"}, "padding": {"s": "U0FNRQ=="}, "strides": {"list": {"i": ["1", "1", "1", "1"]}}, "dilations": {"list": {"i": ["1", "1", "1", "1"]}}}}, {"name": "MobilenetEdgeTPU/expanded_conv_14/project/BatchNorm/FusedBatchNormV3", "op": "_FusedConv2D", "input": ["MobilenetEdgeTPU/expanded_conv_14/depthwise/depthwise", "MobilenetEdgeTPU/expanded_conv_14/project/Conv2D_weights", "MobilenetEdgeTPU/expanded_conv_14/project/Conv2D_bn_offset"], "device": "/device:CPU:0", "attr": {"epsilon": {"f": 0.0}, "num_args": {"i": "1"}, "data_format": {"s": "TkhXQw=="}, "explicit_paddings": {"list": {}}, "fused_ops": {"list": {"s": ["Qmlhc0FkZA=="]}}, "use_cudnn_on_gpu": {"b": true}, "T": {"type": "DT_FLOAT"}, "padding": {"s": "U0FNRQ=="}, "strides": {"list": {"i": ["1", "1", "1", "1"]}}, "dilations": {"list": {"i": ["1", "1", "1", "1"]}}}}, {"name": "MobilenetEdgeTPU/expanded_conv_14/add", "op": "AddV2", "input": ["MobilenetEdgeTPU/expanded_conv_14/project/BatchNorm/FusedBatchNormV3", "MobilenetEdgeTPU/expanded_conv_13/project/BatchNorm/FusedBatchNormV3"], "attr": {"T": {"type": "DT_FLOAT"}}}, {"name": "MobilenetEdgeTPU/expanded_conv_15/expand/Relu", "op": "_FusedConv2D", "input": ["MobilenetEdgeTPU/expanded_conv_14/add", "MobilenetEdgeTPU/expanded_conv_15/expand/Conv2D_weights", "MobilenetEdgeTPU/expanded_conv_15/expand/Conv2D_bn_offset"], "device": "/device:CPU:0", "attr": {"padding": {"s": "U0FNRQ=="}, "use_cudnn_on_gpu": {"b": true}, "dilations": {"list": {"i": ["1", "1", "1", "1"]}}, "fused_ops": {"list": {"s": ["Qmlhc0FkZA==", "UmVsdQ=="]}}, "strides": {"list": {"i": ["1", "1", "1", "1"]}}, "explicit_paddings": {"list": {}}, "num_args": {"i": "1"}, "epsilon": {"f": 0.0}, "T": {"type": "DT_FLOAT"}, "data_format": {"s": "TkhXQw=="}}}, {"name": "MobilenetEdgeTPU/expanded_conv_15/depthwise/depthwise", "op": "FusedDepthwiseConv2dNative", "input": ["MobilenetEdgeTPU/expanded_conv_15/expand/Relu", "MobilenetEdgeTPU/expanded_conv_15/depthwise/depthwise_weights", "MobilenetEdgeTPU/expanded_conv_15/depthwise/depthwise_bn_offset"], "attr": {"dilations": {"list": {"i": ["1", "1", "1", "1"]}}, "num_args": {"i": "1"}, "data_format": {"s": "TkhXQw=="}, "fused_ops": {"list": {"s": ["Qmlhc0FkZA==", "UmVsdQ=="]}}, "T": {"type": "DT_FLOAT"}, "padding": {"s": "U0FNRQ=="}, "strides": {"list": {"i": ["1", "1", "1", "1"]}}, "explicit_paddings": {"list": {}}}}, {"name": "MobilenetEdgeTPU/expanded_conv_15/project/BatchNorm/FusedBatchNormV3", "op": "_FusedConv2D", "input": ["MobilenetEdgeTPU/expanded_conv_15/depthwise/depthwise", "MobilenetEdgeTPU/expanded_conv_15/project/Conv2D_weights", "MobilenetEdgeTPU/expanded_conv_15/project/Conv2D_bn_offset"], "device": "/device:CPU:0", "attr": {"dilations": {"list": {"i": ["1", "1", "1", "1"]}}, "num_args": {"i": "1"}, "use_cudnn_on_gpu": {"b": true}, "epsilon": {"f": 0.0}, "data_format": {"s": "TkhXQw=="}, "fused_ops": {"list": {"s": ["Qmlhc0FkZA=="]}}, "T": {"type": "DT_FLOAT"}, "padding": {"s": "U0FNRQ=="}, "strides": {"list": {"i": ["1", "1", "1", "1"]}}, "explicit_paddings": {"list": {}}}}, {"name": "MobilenetEdgeTPU/expanded_conv_15/add", "op": "AddV2", "input": ["MobilenetEdgeTPU/expanded_conv_15/project/BatchNorm/FusedBatchNormV3", "MobilenetEdgeTPU/expanded_conv_14/add"], "attr": {"T": {"type": "DT_FLOAT"}}}, {"name": "MobilenetEdgeTPU/expanded_conv_16/expand/Relu", "op": "_FusedConv2D", "input": ["MobilenetEdgeTPU/expanded_conv_15/add", "MobilenetEdgeTPU/expanded_conv_16/expand/Conv2D_weights", "MobilenetEdgeTPU/expanded_conv_16/expand/Conv2D_bn_offset"], "device": "/device:CPU:0", "attr": {"strides": {"list": {"i": ["1", "1", "1", "1"]}}, "explicit_paddings": {"list": {}}, "dilations": {"list": {"i": ["1", "1", "1", "1"]}}, "num_args": {"i": "1"}, "fused_ops": {"list": {"s": ["Qmlhc0FkZA==", "UmVsdQ=="]}}, "T": {"type": "DT_FLOAT"}, "use_cudnn_on_gpu": {"b": true}, "epsilon": {"f": 0.0}, "data_format": {"s": "TkhXQw=="}, "padding": {"s": "U0FNRQ=="}}}, {"name": "MobilenetEdgeTPU/expanded_conv_16/depthwise/depthwise", "op": "FusedDepthwiseConv2dNative", "input": ["MobilenetEdgeTPU/expanded_conv_16/expand/Relu", "MobilenetEdgeTPU/expanded_conv_16/depthwise/depthwise_weights", "MobilenetEdgeTPU/expanded_conv_16/depthwise/depthwise_bn_offset"], "attr": {"padding": {"s": "U0FNRQ=="}, "dilations": {"list": {"i": ["1", "1", "1", "1"]}}, "strides": {"list": {"i": ["1", "1", "1", "1"]}}, "fused_ops": {"list": {"s": ["Qmlhc0FkZA==", "UmVsdQ=="]}}, "explicit_paddings": {"list": {}}, "num_args": {"i": "1"}, "data_format": {"s": "TkhXQw=="}, "T": {"type": "DT_FLOAT"}}}, {"name": "MobilenetEdgeTPU/expanded_conv_16/project/BatchNorm/FusedBatchNormV3", "op": "_FusedConv2D", "input": ["MobilenetEdgeTPU/expanded_conv_16/depthwise/depthwise", "MobilenetEdgeTPU/expanded_conv_16/project/Conv2D_weights", "MobilenetEdgeTPU/expanded_conv_16/project/Conv2D_bn_offset"], "device": "/device:CPU:0", "attr": {"dilations": {"list": {"i": ["1", "1", "1", "1"]}}, "num_args": {"i": "1"}, "use_cudnn_on_gpu": {"b": true}, "epsilon": {"f": 0.0}, "data_format": {"s": "TkhXQw=="}, "fused_ops": {"list": {"s": ["Qmlhc0FkZA=="]}}, "T": {"type": "DT_FLOAT"}, "padding": {"s": "U0FNRQ=="}, "strides": {"list": {"i": ["1", "1", "1", "1"]}}, "explicit_paddings": {"list": {}}}}, {"name": "MobilenetEdgeTPU/expanded_conv_16/add", "op": "AddV2", "input": ["MobilenetEdgeTPU/expanded_conv_16/project/BatchNorm/FusedBatchNormV3", "MobilenetEdgeTPU/expanded_conv_15/add"], "attr": {"T": {"type": "DT_FLOAT"}}}, {"name": "MobilenetEdgeTPU/expanded_conv_17/expand/Relu", "op": "_FusedConv2D", "input": ["MobilenetEdgeTPU/expanded_conv_16/add", "MobilenetEdgeTPU/expanded_conv_17/expand/Conv2D_weights", "MobilenetEdgeTPU/expanded_conv_17/expand/Conv2D_bn_offset"], "device": "/device:CPU:0", "attr": {"strides": {"list": {"i": ["1", "1", "1", "1"]}}, "fused_ops": {"list": {"s": ["Qmlhc0FkZA==", "UmVsdQ=="]}}, "dilations": {"list": {"i": ["1", "1", "1", "1"]}}, "epsilon": {"f": 0.0}, "num_args": {"i": "1"}, "T": {"type": "DT_FLOAT"}, "data_format": {"s": "TkhXQw=="}, "explicit_paddings": {"list": {}}, "use_cudnn_on_gpu": {"b": true}, "padding": {"s": "U0FNRQ=="}}}, {"name": "MobilenetEdgeTPU/expanded_conv_17/depthwise/depthwise", "op": "FusedDepthwiseConv2dNative", "input": ["MobilenetEdgeTPU/expanded_conv_17/expand/Relu", "MobilenetEdgeTPU/expanded_conv_17/depthwise/depthwise_weights", "MobilenetEdgeTPU/expanded_conv_17/depthwise/depthwise_bn_offset"], "attr": {"padding": {"s": "U0FNRQ=="}, "dilations": {"list": {"i": ["1", "1", "1", "1"]}}, "fused_ops": {"list": {"s": ["Qmlhc0FkZA==", "UmVsdQ=="]}}, "strides": {"list": {"i": ["1", "1", "1", "1"]}}, "explicit_paddings": {"list": {}}, "num_args": {"i": "1"}, "T": {"type": "DT_FLOAT"}, "data_format": {"s": "TkhXQw=="}}}, {"name": "MobilenetEdgeTPU/expanded_conv_17/project/BatchNorm/FusedBatchNormV3", "op": "_FusedConv2D", "input": ["MobilenetEdgeTPU/expanded_conv_17/depthwise/depthwise", "MobilenetEdgeTPU/expanded_conv_17/project/Conv2D_weights", "MobilenetEdgeTPU/expanded_conv_17/project/Conv2D_bn_offset"], "device": "/device:CPU:0", "attr": {"epsilon": {"f": 0.0}, "num_args": {"i": "1"}, "data_format": {"s": "TkhXQw=="}, "explicit_paddings": {"list": {}}, "fused_ops": {"list": {"s": ["Qmlhc0FkZA=="]}}, "use_cudnn_on_gpu": {"b": true}, "T": {"type": "DT_FLOAT"}, "padding": {"s": "U0FNRQ=="}, "strides": {"list": {"i": ["1", "1", "1", "1"]}}, "dilations": {"list": {"i": ["1", "1", "1", "1"]}}}}, {"name": "MobilenetEdgeTPU/expanded_conv_18/expand/Relu", "op": "_FusedConv2D", "input": ["MobilenetEdgeTPU/expanded_conv_17/project/BatchNorm/FusedBatchNormV3", "MobilenetEdgeTPU/expanded_conv_18/expand/Conv2D_weights", "MobilenetEdgeTPU/expanded_conv_18/expand/Conv2D_bn_offset"], "device": "/device:CPU:0", "attr": {"strides": {"list": {"i": ["1", "1", "1", "1"]}}, "padding": {"s": "U0FNRQ=="}, "num_args": {"i": "1"}, "dilations": {"list": {"i": ["1", "1", "1", "1"]}}, "explicit_paddings": {"list": {}}, "epsilon": {"f": 0.0}, "use_cudnn_on_gpu": {"b": true}, "data_format": {"s": "TkhXQw=="}, "T": {"type": "DT_FLOAT"}, "fused_ops": {"list": {"s": ["Qmlhc0FkZA==", "UmVsdQ=="]}}}}, {"name": "MobilenetEdgeTPU/expanded_conv_18/depthwise/depthwise/SpaceToBatchND", "op": "SpaceToBatchND", "input": ["MobilenetEdgeTPU/expanded_conv_18/expand/Relu", "MobilenetEdgeTPU/expanded_conv_18/depthwise/depthwise/SpaceToBatchND/block_shape", "MobilenetEdgeTPU/expanded_conv_18/depthwise/depthwise/SpaceToBatchND/paddings"], "attr": {"Tblock_shape": {"type": "DT_INT32"}, "T": {"type": "DT_FLOAT"}, "Tpaddings": {"type": "DT_INT32"}}}, {"name": "MobilenetEdgeTPU/expanded_conv_18/depthwise/depthwise", "op": "DepthwiseConv2dNative", "input": ["MobilenetEdgeTPU/expanded_conv_18/depthwise/depthwise/SpaceToBatchND", "MobilenetEdgeTPU/expanded_conv_18/depthwise/depthwise_weights"], "attr": {"strides": {"list": {"i": ["1", "1", "1", "1"]}}, "padding": {"s": "VkFMSUQ="}, "dilations": {"list": {"i": ["1", "1", "1", "1"]}}, "explicit_paddings": {"list": {}}, "data_format": {"s": "TkhXQw=="}, "T": {"type": "DT_FLOAT"}}}, {"name": "MobilenetEdgeTPU/expanded_conv_18/depthwise/depthwise/BatchToSpaceND", "op": "BatchToSpaceND", "input": ["MobilenetEdgeTPU/expanded_conv_18/depthwise/depthwise", "MobilenetEdgeTPU/expanded_conv_18/depthwise/depthwise/BatchToSpaceND/block_shape", "MobilenetEdgeTPU/expanded_conv_18/depthwise/depthwise/BatchToSpaceND/crops"], "attr": {"T": {"type": "DT_FLOAT"}, "Tcrops": {"type": "DT_INT32"}, "Tblock_shape": {"type": "DT_INT32"}}}, {"name": "MobilenetEdgeTPU/expanded_conv_18/depthwise/BatchNorm/FusedBatchNormV3/Mul", "op": "Mul", "input": ["MobilenetEdgeTPU/expanded_conv_18/depthwise/depthwise/BatchToSpaceND", "MobilenetEdgeTPU/expanded_conv_18/depthwise/BatchNorm/FusedBatchNormV3/Scaled"], "attr": {"T": {"type": "DT_FLOAT"}}}, {"name": "MobilenetEdgeTPU/expanded_conv_18/depthwise/BatchNorm/FusedBatchNormV3", "op": "Add", "input": ["MobilenetEdgeTPU/expanded_conv_18/depthwise/BatchNorm/FusedBatchNormV3/Mul", "MobilenetEdgeTPU/expanded_conv_18/depthwise/BatchNorm/FusedBatchNormV3/Offset"], "attr": {"T": {"type": "DT_FLOAT"}}}, {"name": "MobilenetEdgeTPU/expanded_conv_18/depthwise/Relu", "op": "Relu", "input": ["MobilenetEdgeTPU/expanded_conv_18/depthwise/BatchNorm/FusedBatchNormV3"], "attr": {"T": {"type": "DT_FLOAT"}}}, {"name": "MobilenetEdgeTPU/expanded_conv_18/project/BatchNorm/FusedBatchNormV3", "op": "_FusedConv2D", "input": ["MobilenetEdgeTPU/expanded_conv_18/depthwise/Relu", "MobilenetEdgeTPU/expanded_conv_18/project/Conv2D_weights", "MobilenetEdgeTPU/expanded_conv_18/project/Conv2D_bn_offset"], "device": "/device:CPU:0", "attr": {"padding": {"s": "U0FNRQ=="}, "use_cudnn_on_gpu": {"b": true}, "dilations": {"list": {"i": ["1", "1", "1", "1"]}}, "fused_ops": {"list": {"s": ["Qmlhc0FkZA=="]}}, "strides": {"list": {"i": ["1", "1", "1", "1"]}}, "explicit_paddings": {"list": {}}, "num_args": {"i": "1"}, "epsilon": {"f": 0.0}, "T": {"type": "DT_FLOAT"}, "data_format": {"s": "TkhXQw=="}}}, {"name": "MobilenetEdgeTPU/expanded_conv_18/add", "op": "AddV2", "input": ["MobilenetEdgeTPU/expanded_conv_18/project/BatchNorm/FusedBatchNormV3", "MobilenetEdgeTPU/expanded_conv_17/project/BatchNorm/FusedBatchNormV3"], "attr": {"T": {"type": "DT_FLOAT"}}}, {"name": "MobilenetEdgeTPU/expanded_conv_19/expand/Relu", "op": "_FusedConv2D", "input": ["MobilenetEdgeTPU/expanded_conv_18/add", "MobilenetEdgeTPU/expanded_conv_19/expand/Conv2D_weights", "MobilenetEdgeTPU/expanded_conv_19/expand/Conv2D_bn_offset"], "device": "/device:CPU:0", "attr": {"padding": {"s": "U0FNRQ=="}, "use_cudnn_on_gpu": {"b": true}, "dilations": {"list": {"i": ["1", "1", "1", "1"]}}, "fused_ops": {"list": {"s": ["Qmlhc0FkZA==", "UmVsdQ=="]}}, "strides": {"list": {"i": ["1", "1", "1", "1"]}}, "explicit_paddings": {"list": {}}, "num_args": {"i": "1"}, "epsilon": {"f": 0.0}, "T": {"type": "DT_FLOAT"}, "data_format": {"s": "TkhXQw=="}}}, {"name": "MobilenetEdgeTPU/expanded_conv_19/depthwise/depthwise/SpaceToBatchND", "op": "SpaceToBatchND", "input": ["MobilenetEdgeTPU/expanded_conv_19/expand/Relu", "MobilenetEdgeTPU/expanded_conv_19/depthwise/depthwise/SpaceToBatchND/block_shape", "MobilenetEdgeTPU/expanded_conv_19/depthwise/depthwise/SpaceToBatchND/paddings"], "attr": {"T": {"type": "DT_FLOAT"}, "Tblock_shape": {"type": "DT_INT32"}, "Tpaddings": {"type": "DT_INT32"}}}, {"name": "MobilenetEdgeTPU/expanded_conv_19/depthwise/depthwise", "op": "DepthwiseConv2dNative", "input": ["MobilenetEdgeTPU/expanded_conv_19/depthwise/depthwise/SpaceToBatchND", "MobilenetEdgeTPU/expanded_conv_19/depthwise/depthwise_weights"], "attr": {"padding": {"s": "VkFMSUQ="}, "dilations": {"list": {"i": ["1", "1", "1", "1"]}}, "strides": {"list": {"i": ["1", "1", "1", "1"]}}, "explicit_paddings": {"list": {}}, "T": {"type": "DT_FLOAT"}, "data_format": {"s": "TkhXQw=="}}}, {"name": "MobilenetEdgeTPU/expanded_conv_19/depthwise/depthwise/BatchToSpaceND", "op": "BatchToSpaceND", "input": ["MobilenetEdgeTPU/expanded_conv_19/depthwise/depthwise", "MobilenetEdgeTPU/expanded_conv_19/depthwise/depthwise/BatchToSpaceND/block_shape", "MobilenetEdgeTPU/expanded_conv_19/depthwise/depthwise/BatchToSpaceND/crops"], "attr": {"Tblock_shape": {"type": "DT_INT32"}, "Tcrops": {"type": "DT_INT32"}, "T": {"type": "DT_FLOAT"}}}, {"name": "MobilenetEdgeTPU/expanded_conv_19/depthwise/BatchNorm/FusedBatchNormV3/Mul", "op": "Mul", "input": ["MobilenetEdgeTPU/expanded_conv_19/depthwise/depthwise/BatchToSpaceND", "MobilenetEdgeTPU/expanded_conv_19/depthwise/BatchNorm/FusedBatchNormV3/Scaled"], "attr": {"T": {"type": "DT_FLOAT"}}}, {"name": "MobilenetEdgeTPU/expanded_conv_19/depthwise/BatchNorm/FusedBatchNormV3", "op": "Add", "input": ["MobilenetEdgeTPU/expanded_conv_19/depthwise/BatchNorm/FusedBatchNormV3/Mul", "MobilenetEdgeTPU/expanded_conv_19/depthwise/BatchNorm/FusedBatchNormV3/Offset"], "attr": {"T": {"type": "DT_FLOAT"}}}, {"name": "MobilenetEdgeTPU/expanded_conv_19/depthwise/Relu", "op": "Relu", "input": ["MobilenetEdgeTPU/expanded_conv_19/depthwise/BatchNorm/FusedBatchNormV3"], "attr": {"T": {"type": "DT_FLOAT"}}}, {"name": "MobilenetEdgeTPU/expanded_conv_19/project/BatchNorm/FusedBatchNormV3", "op": "_FusedConv2D", "input": ["MobilenetEdgeTPU/expanded_conv_19/depthwise/Relu", "MobilenetEdgeTPU/expanded_conv_19/project/Conv2D_weights", "MobilenetEdgeTPU/expanded_conv_19/project/Conv2D_bn_offset"], "device": "/device:CPU:0", "attr": {"strides": {"list": {"i": ["1", "1", "1", "1"]}}, "padding": {"s": "U0FNRQ=="}, "num_args": {"i": "1"}, "dilations": {"list": {"i": ["1", "1", "1", "1"]}}, "explicit_paddings": {"list": {}}, "epsilon": {"f": 0.0}, "use_cudnn_on_gpu": {"b": true}, "data_format": {"s": "TkhXQw=="}, "T": {"type": "DT_FLOAT"}, "fused_ops": {"list": {"s": ["Qmlhc0FkZA=="]}}}}, {"name": "MobilenetEdgeTPU/expanded_conv_19/add", "op": "AddV2", "input": ["MobilenetEdgeTPU/expanded_conv_19/project/BatchNorm/FusedBatchNormV3", "MobilenetEdgeTPU/expanded_conv_18/add"], "attr": {"T": {"type": "DT_FLOAT"}}}, {"name": "MobilenetEdgeTPU/expanded_conv_20/expand/Relu", "op": "_FusedConv2D", "input": ["MobilenetEdgeTPU/expanded_conv_19/add", "MobilenetEdgeTPU/expanded_conv_20/expand/Conv2D_weights", "MobilenetEdgeTPU/expanded_conv_20/expand/Conv2D_bn_offset"], "device": "/device:CPU:0", "attr": {"strides": {"list": {"i": ["1", "1", "1", "1"]}}, "explicit_paddings": {"list": {}}, "dilations": {"list": {"i": ["1", "1", "1", "1"]}}, "num_args": {"i": "1"}, "fused_ops": {"list": {"s": ["Qmlhc0FkZA==", "UmVsdQ=="]}}, "T": {"type": "DT_FLOAT"}, "use_cudnn_on_gpu": {"b": true}, "epsilon": {"f": 0.0}, "data_format": {"s": "TkhXQw=="}, "padding": {"s": "U0FNRQ=="}}}, {"name": "MobilenetEdgeTPU/expanded_conv_20/depthwise/depthwise/SpaceToBatchND", "op": "SpaceToBatchND", "input": ["MobilenetEdgeTPU/expanded_conv_20/expand/Relu", "MobilenetEdgeTPU/expanded_conv_20/depthwise/depthwise/SpaceToBatchND/block_shape", "MobilenetEdgeTPU/expanded_conv_20/depthwise/depthwise/SpaceToBatchND/paddings"], "attr": {"Tpaddings": {"type": "DT_INT32"}, "Tblock_shape": {"type": "DT_INT32"}, "T": {"type": "DT_FLOAT"}}}, {"name": "MobilenetEdgeTPU/expanded_conv_20/depthwise/depthwise", "op": "DepthwiseConv2dNative", "input": ["MobilenetEdgeTPU/expanded_conv_20/depthwise/depthwise/SpaceToBatchND", "MobilenetEdgeTPU/expanded_conv_20/depthwise/depthwise_weights"], "attr": {"dilations": {"list": {"i": ["1", "1", "1", "1"]}}, "data_format": {"s": "TkhXQw=="}, "T": {"type": "DT_FLOAT"}, "padding": {"s": "VkFMSUQ="}, "strides": {"list": {"i": ["1", "1", "1", "1"]}}, "explicit_paddings": {"list": {}}}}, {"name": "MobilenetEdgeTPU/expanded_conv_20/depthwise/depthwise/BatchToSpaceND", "op": "BatchToSpaceND", "input": ["MobilenetEdgeTPU/expanded_conv_20/depthwise/depthwise", "MobilenetEdgeTPU/expanded_conv_20/depthwise/depthwise/BatchToSpaceND/block_shape", "MobilenetEdgeTPU/expanded_conv_20/depthwise/depthwise/BatchToSpaceND/crops"], "attr": {"Tblock_shape": {"type": "DT_INT32"}, "Tcrops": {"type": "DT_INT32"}, "T": {"type": "DT_FLOAT"}}}, {"name": "MobilenetEdgeTPU/expanded_conv_20/depthwise/BatchNorm/FusedBatchNormV3/Mul", "op": "Mul", "input": ["MobilenetEdgeTPU/expanded_conv_20/depthwise/depthwise/BatchToSpaceND", "MobilenetEdgeTPU/expanded_conv_20/depthwise/BatchNorm/FusedBatchNormV3/Scaled"], "attr": {"T": {"type": "DT_FLOAT"}}}, {"name": "MobilenetEdgeTPU/expanded_conv_20/depthwise/BatchNorm/FusedBatchNormV3", "op": "Add", "input": ["MobilenetEdgeTPU/expanded_conv_20/depthwise/BatchNorm/FusedBatchNormV3/Mul", "MobilenetEdgeTPU/expanded_conv_20/depthwise/BatchNorm/FusedBatchNormV3/Offset"], "attr": {"T": {"type": "DT_FLOAT"}}}, {"name": "MobilenetEdgeTPU/expanded_conv_20/depthwise/Relu", "op": "Relu", "input": ["MobilenetEdgeTPU/expanded_conv_20/depthwise/BatchNorm/FusedBatchNormV3"], "attr": {"T": {"type": "DT_FLOAT"}}}, {"name": "MobilenetEdgeTPU/expanded_conv_20/project/BatchNorm/FusedBatchNormV3", "op": "_FusedConv2D", "input": ["MobilenetEdgeTPU/expanded_conv_20/depthwise/Relu", "MobilenetEdgeTPU/expanded_conv_20/project/Conv2D_weights", "MobilenetEdgeTPU/expanded_conv_20/project/Conv2D_bn_offset"], "device": "/device:CPU:0", "attr": {"strides": {"list": {"i": ["1", "1", "1", "1"]}}, "padding": {"s": "U0FNRQ=="}, "num_args": {"i": "1"}, "dilations": {"list": {"i": ["1", "1", "1", "1"]}}, "explicit_paddings": {"list": {}}, "epsilon": {"f": 0.0}, "use_cudnn_on_gpu": {"b": true}, "data_format": {"s": "TkhXQw=="}, "T": {"type": "DT_FLOAT"}, "fused_ops": {"list": {"s": ["Qmlhc0FkZA=="]}}}}, {"name": "MobilenetEdgeTPU/expanded_conv_20/add", "op": "AddV2", "input": ["MobilenetEdgeTPU/expanded_conv_20/project/BatchNorm/FusedBatchNormV3", "MobilenetEdgeTPU/expanded_conv_19/add"], "attr": {"T": {"type": "DT_FLOAT"}}}, {"name": "MobilenetEdgeTPU/expanded_conv_21/expand/Relu", "op": "_FusedConv2D", "input": ["MobilenetEdgeTPU/expanded_conv_20/add", "MobilenetEdgeTPU/expanded_conv_21/expand/Conv2D_weights", "MobilenetEdgeTPU/expanded_conv_21/expand/Conv2D_bn_offset"], "device": "/device:CPU:0", "attr": {"dilations": {"list": {"i": ["1", "1", "1", "1"]}}, "num_args": {"i": "1"}, "use_cudnn_on_gpu": {"b": true}, "epsilon": {"f": 0.0}, "data_format": {"s": "TkhXQw=="}, "fused_ops": {"list": {"s": ["Qmlhc0FkZA==", "UmVsdQ=="]}}, "T": {"type": "DT_FLOAT"}, "padding": {"s": "U0FNRQ=="}, "strides": {"list": {"i": ["1", "1", "1", "1"]}}, "explicit_paddings": {"list": {}}}}, {"name": "MobilenetEdgeTPU/expanded_conv_21/depthwise/depthwise/SpaceToBatchND", "op": "SpaceToBatchND", "input": ["MobilenetEdgeTPU/expanded_conv_21/expand/Relu", "MobilenetEdgeTPU/expanded_conv_21/depthwise/depthwise/SpaceToBatchND/block_shape", "MobilenetEdgeTPU/expanded_conv_21/depthwise/depthwise/SpaceToBatchND/paddings"], "attr": {"Tpaddings": {"type": "DT_INT32"}, "Tblock_shape": {"type": "DT_INT32"}, "T": {"type": "DT_FLOAT"}}}, {"name": "MobilenetEdgeTPU/expanded_conv_21/depthwise/depthwise", "op": "DepthwiseConv2dNative", "input": ["MobilenetEdgeTPU/expanded_conv_21/depthwise/depthwise/SpaceToBatchND", "MobilenetEdgeTPU/expanded_conv_21/depthwise/depthwise_weights"], "attr": {"strides": {"list": {"i": ["1", "1", "1", "1"]}}, "padding": {"s": "VkFMSUQ="}, "dilations": {"list": {"i": ["1", "1", "1", "1"]}}, "explicit_paddings": {"list": {}}, "data_format": {"s": "TkhXQw=="}, "T": {"type": "DT_FLOAT"}}}, {"name": "MobilenetEdgeTPU/expanded_conv_21/depthwise/depthwise/BatchToSpaceND", "op": "BatchToSpaceND", "input": ["MobilenetEdgeTPU/expanded_conv_21/depthwise/depthwise", "MobilenetEdgeTPU/expanded_conv_21/depthwise/depthwise/BatchToSpaceND/block_shape", "MobilenetEdgeTPU/expanded_conv_21/depthwise/depthwise/BatchToSpaceND/crops"], "attr": {"Tblock_shape": {"type": "DT_INT32"}, "Tcrops": {"type": "DT_INT32"}, "T": {"type": "DT_FLOAT"}}}, {"name": "MobilenetEdgeTPU/expanded_conv_21/depthwise/BatchNorm/FusedBatchNormV3/Mul", "op": "Mul", "input": ["MobilenetEdgeTPU/expanded_conv_21/depthwise/depthwise/BatchToSpaceND", "MobilenetEdgeTPU/expanded_conv_21/depthwise/BatchNorm/FusedBatchNormV3/Scaled"], "attr": {"T": {"type": "DT_FLOAT"}}}, {"name": "MobilenetEdgeTPU/expanded_conv_21/depthwise/BatchNorm/FusedBatchNormV3", "op": "Add", "input": ["MobilenetEdgeTPU/expanded_conv_21/depthwise/BatchNorm/FusedBatchNormV3/Mul", "MobilenetEdgeTPU/expanded_conv_21/depthwise/BatchNorm/FusedBatchNormV3/Offset"], "attr": {"T": {"type": "DT_FLOAT"}}}, {"name": "MobilenetEdgeTPU/expanded_conv_21/depthwise/Relu", "op": "Relu", "input": ["MobilenetEdgeTPU/expanded_conv_21/depthwise/BatchNorm/FusedBatchNormV3"], "attr": {"T": {"type": "DT_FLOAT"}}}, {"name": "MobilenetEdgeTPU/expanded_conv_21/project/BatchNorm/FusedBatchNormV3", "op": "_FusedConv2D", "input": ["MobilenetEdgeTPU/expanded_conv_21/depthwise/Relu", "MobilenetEdgeTPU/expanded_conv_21/project/Conv2D_weights", "MobilenetEdgeTPU/expanded_conv_21/project/Conv2D_bn_offset"], "device": "/device:CPU:0", "attr": {"padding": {"s": "U0FNRQ=="}, "use_cudnn_on_gpu": {"b": true}, "dilations": {"list": {"i": ["1", "1", "1", "1"]}}, "fused_ops": {"list": {"s": ["Qmlhc0FkZA=="]}}, "strides": {"list": {"i": ["1", "1", "1", "1"]}}, "explicit_paddings": {"list": {}}, "num_args": {"i": "1"}, "epsilon": {"f": 0.0}, "T": {"type": "DT_FLOAT"}, "data_format": {"s": "TkhXQw=="}}}, {"name": "MobilenetEdgeTPU/Conv_1/Relu", "op": "_FusedConv2D", "input": ["MobilenetEdgeTPU/expanded_conv_21/project/BatchNorm/FusedBatchNormV3", "MobilenetEdgeTPU/Conv_1/Conv2D_weights", "MobilenetEdgeTPU/Conv_1/Conv2D_bn_offset"], "device": "/device:CPU:0", "attr": {"strides": {"list": {"i": ["1", "1", "1", "1"]}}, "padding": {"s": "U0FNRQ=="}, "num_args": {"i": "1"}, "dilations": {"list": {"i": ["1", "1", "1", "1"]}}, "explicit_paddings": {"list": {}}, "epsilon": {"f": 0.0}, "use_cudnn_on_gpu": {"b": true}, "data_format": {"s": "TkhXQw=="}, "T": {"type": "DT_FLOAT"}, "fused_ops": {"list": {"s": ["Qmlhc0FkZA==", "UmVsdQ=="]}}}}, {"name": "AvgPool2D/AvgPool", "op": "AvgPool", "input": ["MobilenetEdgeTPU/Conv_1/Relu"], "attr": {"strides": {"list": {"i": ["1", "1", "1", "1"]}}, "padding": {"s": "VkFMSUQ="}, "ksize": {"list": {"i": ["1", "17", "17", "1"]}}, "data_format": {"s": "TkhXQw=="}, "T": {"type": "DT_FLOAT"}}}, {"name": "aspp0/Relu", "op": "_FusedConv2D", "input": ["MobilenetEdgeTPU/Conv_1/Relu", "aspp0/Conv2D_weights", "aspp0/Conv2D_bn_offset"], "device": "/device:CPU:0", "attr": {"strides": {"list": {"i": ["1", "1", "1", "1"]}}, "fused_ops": {"list": {"s": ["Qmlhc0FkZA==", "UmVsdQ=="]}}, "dilations": {"list": {"i": ["1", "1", "1", "1"]}}, "epsilon": {"f": 0.0}, "num_args": {"i": "1"}, "T": {"type": "DT_FLOAT"}, "data_format": {"s": "TkhXQw=="}, "explicit_paddings": {"list": {}}, "use_cudnn_on_gpu": {"b": true}, "padding": {"s": "U0FNRQ=="}}}, {"name": "image_pooling/Relu", "op": "_FusedConv2D", "input": ["AvgPool2D/AvgPool", "image_pooling/Conv2D_weights", "image_pooling/Conv2D_bn_offset"], "device": "/device:CPU:0", "attr": {"strides": {"list": {"i": ["1", "1", "1", "1"]}}, "padding": {"s": "U0FNRQ=="}, "num_args": {"i": "1"}, "dilations": {"list": {"i": ["1", "1", "1", "1"]}}, "explicit_paddings": {"list": {}}, "epsilon": {"f": 0.0}, "use_cudnn_on_gpu": {"b": true}, "data_format": {"s": "TkhXQw=="}, "T": {"type": "DT_FLOAT"}, "fused_ops": {"list": {"s": ["Qmlhc0FkZA==", "UmVsdQ=="]}}}}, {"name": "ResizeBilinear", "op": "ResizeBilinear", "input": ["image_pooling/Relu", "ResizeBilinear/size"], "attr": {"half_pixel_centers": {"b": false}, "align_corners": {"b": true}, "T": {"type": "DT_FLOAT"}}}, {"name": "concat", "op": "ConcatV2", "input": ["ResizeBilinear", "aspp0/Relu", "concat/axis"], "attr": {"Tidx": {"type": "DT_INT32"}, "T": {"type": "DT_FLOAT"}, "N": {"i": "2"}}}, {"name": "concat_projection/Relu", "op": "_FusedConv2D", "input": ["concat", "concat_projection/Conv2D_weights", "concat_projection/Conv2D_bn_offset"], "device": "/device:CPU:0", "attr": {"strides": {"list": {"i": ["1", "1", "1", "1"]}}, "fused_ops": {"list": {"s": ["Qmlhc0FkZA==", "UmVsdQ=="]}}, "dilations": {"list": {"i": ["1", "1", "1", "1"]}}, "epsilon": {"f": 0.0}, "num_args": {"i": "1"}, "T": {"type": "DT_FLOAT"}, "data_format": {"s": "TkhXQw=="}, "explicit_paddings": {"list": {}}, "use_cudnn_on_gpu": {"b": true}, "padding": {"s": "U0FNRQ=="}}}, {"name": "logits/semantic/BiasAdd", "op": "_FusedConv2D", "input": ["concat_projection/Relu", "logits/semantic/weights", "logits/semantic/biases"], "device": "/device:CPU:0", "attr": {"strides": {"list": {"i": ["1", "1", "1", "1"]}}, "fused_ops": {"list": {"s": ["Qmlhc0FkZA=="]}}, "dilations": {"list": {"i": ["1", "1", "1", "1"]}}, "epsilon": {"f": 0.0}, "num_args": {"i": "1"}, "T": {"type": "DT_FLOAT"}, "data_format": {"s": "TkhXQw=="}, "explicit_paddings": {"list": {}}, "use_cudnn_on_gpu": {"b": true}, "padding": {"s": "U0FNRQ=="}}}, {"name": "ResizeBilinear_1", "op": "ResizeBilinear", "input": ["logits/semantic/BiasAdd", "ResizeBilinear_1/size"], "attr": {"align_corners": {"b": true}, "T": {"type": "DT_FLOAT"}, "half_pixel_centers": {"b": false}}}, {"name": "ResizeBilinear_2", "op": "ResizeBilinear", "input": ["ResizeBilinear_1", "strided_slice_4"], "attr": {"align_corners": {"b": true}, "T": {"type": "DT_FLOAT"}, "half_pixel_centers": {"b": false}}}, {"name": "ArgMax", "op": "ArgMax", "input": ["ResizeBilinear_2", "ArgMax/dimension"], "attr": {"Tidx": {"type": "DT_INT32"}, "output_type": {"type": "DT_INT64"}, "T": {"type": "DT_FLOAT"}}}, {"name": "Cast_7", "op": "Cast", "input": ["ArgMax"], "attr": {"Truncate": {"b": false}, "DstT": {"type": "DT_FLOAT"}, "SrcT": {"type": "DT_INT64"}}}, {"name": "strided_slice_7", "op": "StridedSlice", "input": ["Cast_7", "strided_slice_7/stack", "strided_slice_7/stack_1", "strided_slice_7/stack_2"], "attr": {"ellipsis_mask": {"i": "0"}, "begin_mask": {"i": "7"}, "new_axis_mask": {"i": "0"}, "shrink_axis_mask": {"i": "0"}, "T": {"type": "DT_FLOAT"}, "Index": {"type": "DT_INT32"}, "end_mask": {"i": "1"}}}, {"name": "ExpandDims_1", "op": "ExpandDims", "input": ["strided_slice_7", "ExpandDims_1/dim"], "attr": {"T": {"type": "DT_FLOAT"}, "Tdim": {"type": "DT_INT32"}}}, {"name": "resize_1/ResizeNearestNeighbor", "op": "ResizeNearestNeighbor", "input": ["ExpandDims_1", "strided_slice"], "attr": {"align_corners": {"b": true}, "T": {"type": "DT_FLOAT"}, "half_pixel_centers": {"b": false}}}, {"name": "Squeeze_1", "op": "Squeeze", "input": ["resize_1/ResizeNearestNeighbor"], "attr": {"T": {"type": "DT_FLOAT"}, "squeeze_dims": {"list": {"i": ["3"]}}}}, {"name": "Cast_8", "op": "Cast", "input": ["Squeeze_1"], "attr": {"DstT": {"type": "DT_INT32"}, "SrcT": {"type": "DT_FLOAT"}, "Truncate": {"b": false}}}, {"name": "SemanticPredictions", "op": "Identity", "input": ["Cast_8"], "attr": {"T": {"type": "DT_INT32"}}}], "library": {}, "versions": {}}, "weightsManifest": [{"paths": ["group1-shard1of1.bin"], "weights": [{"name": "ResizeBilinear/size", "shape": [2], "dtype": "int32"}, {"name": "MobilenetEdgeTPU/expanded_conv_20/depthwise/depthwise/SpaceToBatchND/block_shape", "shape": [2], "dtype": "int32"}, {"name": "MobilenetEdgeTPU/expanded_conv_20/depthwise/depthwise/SpaceToBatchND/paddings", "shape": [2, 2], "dtype": "int32"}, {"name": "MobilenetEdgeTPU/expanded_conv_20/depthwise/depthwise_weights", "shape": [5, 5, 640, 1], "dtype": "float32", "quantization": {"dtype": "uint8", "min": -7.019691686069264, "scale": 0.04978504741893095, "original_dtype": "float32"}}, {"name": "MobilenetEdgeTPU/expanded_conv_20/depthwise/depthwise/BatchToSpaceND/block_shape", "shape": [2], "dtype": "int32"}, {"name": "MobilenetEdgeTPU/expanded_conv_20/depthwise/depthwise/BatchToSpaceND/crops", "shape": [2, 2], "dtype": "int32"}, {"name": "MobilenetEdgeTPU/expanded_conv_19/depthwise/depthwise/SpaceToBatchND/block_shape", "shape": [2], "dtype": "int32"}, {"name": "MobilenetEdgeTPU/expanded_conv_19/depthwise/depthwise/SpaceToBatchND/paddings", "shape": [2, 2], "dtype": "int32"}, {"name": "MobilenetEdgeTPU/expanded_conv_19/depthwise/depthwise_weights", "shape": [5, 5, 640, 1], "dtype": "float32", "quantization": {"dtype": "uint8", "min": -7.391197193370146, "scale": 0.0524198382508521, "original_dtype": "float32"}}, {"name": "MobilenetEdgeTPU/expanded_conv_19/depthwise/depthwise/BatchToSpaceND/block_shape", "shape": [2], "dtype": "int32"}, {"name": "MobilenetEdgeTPU/expanded_conv_19/depthwise/depthwise/BatchToSpaceND/crops", "shape": [2, 2], "dtype": "int32"}, {"name": "MobilenetEdgeTPU/expanded_conv_18/depthwise/depthwise/SpaceToBatchND/block_shape", "shape": [2], "dtype": "int32"}, {"name": "MobilenetEdgeTPU/expanded_conv_18/depthwise/depthwise/SpaceToBatchND/paddings", "shape": [2, 2], "dtype": "int32"}, {"name": "MobilenetEdgeTPU/expanded_conv_18/depthwise/depthwise_weights", "shape": [5, 5, 640, 1], "dtype": "float32", "quantization": {"dtype": "uint8", "min": -6.246026544009937, "scale": 0.04164017696006625, "original_dtype": "float32"}}, {"name": "MobilenetEdgeTPU/expanded_conv_18/depthwise/depthwise/BatchToSpaceND/block_shape", "shape": [2], "dtype": "int32"}, {"name": "MobilenetEdgeTPU/expanded_conv_18/depthwise/depthwise/BatchToSpaceND/crops", "shape": [2, 2], "dtype": "int32"}, {"name": "mul_2/x", "shape": [], "dtype": "float32", "quantization": {"dtype": "uint8", "min": 0.007843137718737125, "scale": 1.0, "original_dtype": "float32"}}, {"name": "pad_to_bounding_box_1/stack", "shape": [2], "dtype": "int32"}, {"name": "pad_to_bounding_box_1/stack_1/0", "shape": [], "dtype": "int32"}, {"name": "pad_to_bounding_box_1/stack_2/0", "shape": [], "dtype": "int32"}, {"name": "pad_to_bounding_box/stack", "shape": [2], "dtype": "int32"}, {"name": "pad_to_bounding_box/stack_1/0", "shape": [], "dtype": "int32"}, {"name": "sub/x", "shape": [], "dtype": "int32"}, {"name": "Maximum/y", "shape": [], "dtype": "int32"}, {"name": "pad_to_bounding_box/stack_2/0", "shape": [], "dtype": "int32"}, {"name": "sub_1/x", "shape": [], "dtype": "int32"}, {"name": "Maximum_1/y", "shape": [], "dtype": "int32"}, {"name": "pad_to_bounding_box/ExpandDims/dim", "shape": [], "dtype": "int32"}, {"name": "pad_to_bounding_box/stack_3", "shape": [2], "dtype": "int32"}, {"name": "resize/ExpandDims/dim", "shape": [], "dtype": "int32"}, {"name": "Cast_1", "shape": [], "dtype": "float32", "quantization": {"dtype": "uint8", "min": 257.0, "scale": 1.0, "original_dtype": "float32"}}, {"name": "strided_slice_1/stack", "shape": [1], "dtype": "int32"}, {"name": "strided_slice_1/stack_1", "shape": [1], "dtype": "int32"}, {"name": "strided_slice_1/stack_2", "shape": [1], "dtype": "int32"}, {"name": "Cast_3", "shape": [], "dtype": "float32", "quantization": {"dtype": "uint8", "min": 257.0, "scale": 1.0, "original_dtype": "float32"}}, {"name": "strided_slice_2/stack", "shape": [1], "dtype": "int32"}, {"name": "strided_slice_2/stack_1", "shape": [1], "dtype": "int32"}, {"name": "strided_slice_2/stack_2", "shape": [1], "dtype": "int32"}, {"name": "pad_to_bounding_box_1/ExpandDims/dim", "shape": [], "dtype": "int32"}, {"name": "pad_to_bounding_box_1/stack_3", "shape": [2], "dtype": "int32"}, {"name": "Reshape", "shape": [1, 1, 3], "dtype": "float32", "quantization": {"dtype": "uint8", "min": 127.5, "scale": 1.0, "original_dtype": "float32"}}, {"name": "ExpandDims/dim", "shape": [], "dtype": "int32"}, {"name": "sub_2/y", "shape": [], "dtype": "float32", "quantization": {"dtype": "uint8", "min": 1.0, "scale": 1.0, "original_dtype": "float32"}}, {"name": "MobilenetEdgeTPU/expanded_conv_21/depthwise/depthwise/SpaceToBatchND/block_shape", "shape": [2], "dtype": "int32"}, {"name": "MobilenetEdgeTPU/expanded_conv_21/depthwise/depthwise/SpaceToBatchND/paddings", "shape": [2, 2], "dtype": "int32"}, {"name": "MobilenetEdgeTPU/expanded_conv_21/depthwise/depthwise_weights", "shape": [3, 3, 1280, 1], "dtype": "float32", "quantization": {"dtype": "uint8", "min": -4.204997253417969, "scale": 0.041225463268803615, "original_dtype": "float32"}}, {"name": "MobilenetEdgeTPU/expanded_conv_21/depthwise/depthwise/BatchToSpaceND/block_shape", "shape": [2], "dtype": "int32"}, {"name": "MobilenetEdgeTPU/expanded_conv_21/depthwise/depthwise/BatchToSpaceND/crops", "shape": [2, 2], "dtype": "int32"}, {"name": "concat/axis", "shape": [], "dtype": "int32"}, {"name": "logits/semantic/weights", "shape": [1, 1, 256, 19], "dtype": "float32", "quantization": {"dtype": "uint8", "min": -0.5469743849015704, "scale": 0.003772237137252209, "original_dtype": "float32"}}, {"name": "logits/semantic/biases", "shape": [19], "dtype": "float32", "quantization": {"dtype": "uint8", "min": -0.5182468295097351, "scale": 0.006097021523643943, "original_dtype": "float32"}}, {"name": "ResizeBilinear_1/size", "shape": [2], "dtype": "int32"}, {"name": "strided_slice_4", "shape": [2], "dtype": "int32"}, {"name": "ArgMax/dimension", "shape": [], "dtype": "int32"}, {"name": "strided_slice_7/stack", "shape": [3], "dtype": "int32"}, {"name": "strided_slice_7/stack_1/0", "shape": [], "dtype": "int32"}, {"name": "strided_slice_5/stack", "shape": [1], "dtype": "int32"}, {"name": "strided_slice_5/stack_1", "shape": [1], "dtype": "int32"}, {"name": "strided_slice_5/stack_2", "shape": [1], "dtype": "int32"}, {"name": "strided_slice_3/stack", "shape": [1], "dtype": "int32"}, {"name": "strided_slice_3/stack_1", "shape": [1], "dtype": "int32"}, {"name": "strided_slice_3/stack_2", "shape": [1], "dtype": "int32"}, {"name": "strided_slice_6/stack", "shape": [1], "dtype": "int32"}, {"name": "strided_slice_6/stack_1", "shape": [1], "dtype": "int32"}, {"name": "strided_slice_6/stack_2", "shape": [1], "dtype": "int32"}, {"name": "strided_slice_7/stack_2", "shape": [3], "dtype": "int32"}, {"name": "ExpandDims_1/dim", "shape": [], "dtype": "int32"}, {"name": "strided_slice/stack", "shape": [1], "dtype": "int32"}, {"name": "strided_slice/stack_1", "shape": [1], "dtype": "int32"}, {"name": "strided_slice/stack_2", "shape": [1], "dtype": "int32"}, {"name": "MobilenetEdgeTPU/Conv/Conv2D_weights", "shape": [3, 3, 3, 32], "dtype": "float32", "quantization": {"dtype": "uint8", "min": -23.433716822605508, "scale": 0.16502617480708104, "original_dtype": "float32"}}, {"name": "MobilenetEdgeTPU/expanded_conv_21/expand/Conv2D_bn_offset", "shape": [1280], "dtype": "float32", "quantization": {"dtype": "uint8", "min": -3.7715255166970048, "scale": 0.031169632369396735, "original_dtype": "float32"}}, {"name": "MobilenetEdgeTPU/Conv/Conv2D_bn_offset", "shape": [32], "dtype": "float32", "quantization": {"dtype": "uint8", "min": -33.71866556803385, "scale": 0.17935460408528645, "original_dtype": "float32"}}, {"name": "MobilenetEdgeTPU/expanded_conv_19/depthwise/BatchNorm/FusedBatchNormV3/Scaled", "shape": [640], "dtype": "float32", "quantization": {"dtype": "uint8", "min": 0.09250888228416443, "scale": 0.032865050844117706, "original_dtype": "float32"}}, {"name": "MobilenetEdgeTPU/expanded_conv/project/Conv2D_weights", "shape": [1, 1, 32, 16], "dtype": "float32", "quantization": {"dtype": "uint8", "min": -3.5535696441052007, "scale": 0.031728300393796434, "original_dtype": "float32"}}, {"name": "MobilenetEdgeTPU/expanded_conv/project/Conv2D_bn_offset", "shape": [16], "dtype": "float32", "quantization": {"dtype": "uint8", "min": -26.85997262094535, "scale": 0.323614127963197, "original_dtype": "float32"}}, {"name": "MobilenetEdgeTPU/expanded_conv_1/expand/Conv2D_weights", "shape": [3, 3, 16, 128], "dtype": "float32", "quantization": {"dtype": "uint8", "min": -0.8341173936338986, "scale": 0.006271559350630816, "original_dtype": "float32"}}, {"name": "MobilenetEdgeTPU/expanded_conv_1/expand/Conv2D_bn_offset", "shape": [128], "dtype": "float32", "quantization": {"dtype": "uint8", "min": -12.231017991608265, "scale": 0.11119107265098423, "original_dtype": "float32"}}, {"name": "MobilenetEdgeTPU/expanded_conv_1/project/Conv2D_weights", "shape": [1, 1, 128, 32], "dtype": "float32", "quantization": {"dtype": "uint8", "min": -1.392434518477496, "scale": 0.010548746352102243, "original_dtype": "float32"}}, {"name": "MobilenetEdgeTPU/expanded_conv_1/project/Conv2D_bn_offset", "shape": [32], "dtype": "float32", "quantization": {"dtype": "uint8", "min": -15.709887167986702, "scale": 0.11141763948926739, "original_dtype": "float32"}}, {"name": "MobilenetEdgeTPU/expanded_conv_2/expand/Conv2D_weights", "shape": [3, 3, 32, 128], "dtype": "float32", "quantization": {"dtype": "uint8", "min": -0.18479385294166267, "scale": 0.0013488602404500925, "original_dtype": "float32"}}, {"name": "MobilenetEdgeTPU/expanded_conv_2/expand/Conv2D_bn_offset", "shape": [128], "dtype": "float32", "quantization": {"dtype": "uint8", "min": -7.385664188160615, "scale": 0.06366951886345358, "original_dtype": "float32"}}, {"name": "MobilenetEdgeTPU/expanded_conv_2/project/Conv2D_weights", "shape": [1, 1, 128, 32], "dtype": "float32", "quantization": {"dtype": "uint8", "min": -1.5546353480395148, "scale": 0.010871575860416188, "original_dtype": "float32"}}, {"name": "MobilenetEdgeTPU/expanded_conv_21/project/Conv2D_weights", "shape": [1, 1, 1280, 192], "dtype": "float32", "quantization": {"dtype": "uint8", "min": -0.39873837442959054, "scale": 0.0034977050388560575, "original_dtype": "float32"}}, {"name": "MobilenetEdgeTPU/expanded_conv_2/project/Conv2D_bn_offset", "shape": [32], "dtype": "float32", "quantization": {"dtype": "uint8", "min": -15.519898538028494, "scale": 0.1100702023973652, "original_dtype": "float32"}}, {"name": "MobilenetEdgeTPU/expanded_conv_3/expand/Conv2D_weights", "shape": [3, 3, 32, 128], "dtype": "float32", "quantization": {"dtype": "uint8", "min": -0.20678226842599756, "scale": 0.0018629033191531312, "original_dtype": "float32"}}, {"name": "MobilenetEdgeTPU/expanded_conv_3/expand/Conv2D_bn_offset", "shape": [128], "dtype": "float32", "quantization": {"dtype": "uint8", "min": -12.52813668344535, "scale": 0.06808769936655082, "original_dtype": "float32"}}, {"name": "MobilenetEdgeTPU/expanded_conv_21/project/Conv2D_bn_offset", "shape": [192], "dtype": "float32", "quantization": {"dtype": "uint8", "min": -11.340084648132324, "scale": 0.09529482897590189, "original_dtype": "float32"}}, {"name": "MobilenetEdgeTPU/expanded_conv_3/project/Conv2D_weights", "shape": [1, 1, 128, 32], "dtype": "float32", "quantization": {"dtype": "uint8", "min": -1.4824746122547223, "scale": 0.011403650863497865, "original_dtype": "float32"}}, {"name": "MobilenetEdgeTPU/expanded_conv_3/project/Conv2D_bn_offset", "shape": [32], "dtype": "float32", "quantization": {"dtype": "uint8", "min": -3.657904820348702, "scale": 0.041100054161221374, "original_dtype": "float32"}}, {"name": "MobilenetEdgeTPU/expanded_conv_4/expand/Conv2D_weights", "shape": [3, 3, 32, 128], "dtype": "float32", "quantization": {"dtype": "uint8", "min": -0.2862505527103648, "scale": 0.002120374464521221, "original_dtype": "float32"}}, {"name": "MobilenetEdgeTPU/Conv_1/Conv2D_weights", "shape": [1, 1, 192, 1280], "dtype": "float32", "quantization": {"dtype": "uint8", "min": -0.5104724061255361, "scale": 0.003988065672855751, "original_dtype": "float32"}}, {"name": "MobilenetEdgeTPU/expanded_conv_4/expand/Conv2D_bn_offset", "shape": [128], "dtype": "float32", "quantization": {"dtype": "uint8", "min": -8.478281492345474, "scale": 0.054347958284265856, "original_dtype": "float32"}}, {"name": "MobilenetEdgeTPU/expanded_conv_4/project/Conv2D_weights", "shape": [1, 1, 128, 32], "dtype": "float32", "quantization": {"dtype": "uint8", "min": -2.6177595774332683, "scale": 0.019248232187009325, "original_dtype": "float32"}}, {"name": "MobilenetEdgeTPU/Conv_1/Conv2D_bn_offset", "shape": [1280], "dtype": "float32", "quantization": {"dtype": "uint8", "min": -9.514843940734863, "scale": 0.028759166306140376, "original_dtype": "float32"}}, {"name": "MobilenetEdgeTPU/expanded_conv_4/project/Conv2D_bn_offset", "shape": [32], "dtype": "float32", "quantization": {"dtype": "uint8", "min": -6.070884109945858, "scale": 0.05569618449491613, "original_dtype": "float32"}}, {"name": "MobilenetEdgeTPU/expanded_conv_5/expand/Conv2D_weights", "shape": [3, 3, 32, 256], "dtype": "float32", "quantization": {"dtype": "uint8", "min": -0.18211141158552732, "scale": 0.001445328663377201, "original_dtype": "float32"}}, {"name": "MobilenetEdgeTPU/expanded_conv_19/depthwise/BatchNorm/FusedBatchNormV3/Offset", "shape": [640], "dtype": "float32", "quantization": {"dtype": "uint8", "min": -21.989766588398055, "scale": 0.11886360318053002, "original_dtype": "float32"}}, {"name": "MobilenetEdgeTPU/expanded_conv_5/expand/Conv2D_bn_offset", "shape": [256], "dtype": "float32", "quantization": {"dtype": "uint8", "min": -3.3028345528770897, "scale": 0.03551435003093645, "original_dtype": "float32"}}, {"name": "MobilenetEdgeTPU/expanded_conv_5/project/Conv2D_weights", "shape": [1, 1, 256, 48], "dtype": "float32", "quantization": {"dtype": "uint8", "min": -0.9523989546532725, "scale": 0.008503562095118504, "original_dtype": "float32"}}, {"name": "MobilenetEdgeTPU/expanded_conv_5/project/Conv2D_bn_offset", "shape": [48], "dtype": "float32", "quantization": {"dtype": "uint8", "min": -14.394392649332683, "scale": 0.10281709035237631, "original_dtype": "float32"}}, {"name": "MobilenetEdgeTPU/expanded_conv_6/expand/Conv2D_weights", "shape": [3, 3, 48, 192], "dtype": "float32", "quantization": {"dtype": "uint8", "min": -0.16533283965260373, "scale": 0.0012068090485591514, "original_dtype": "float32"}}, {"name": "aspp0/Conv2D_weights", "shape": [1, 1, 1280, 256], "dtype": "float32", "quantization": {"dtype": "uint8", "min": -0.09981223572702969, "scale": 0.0007921606010081721, "original_dtype": "float32"}}, {"name": "MobilenetEdgeTPU/expanded_conv_6/expand/Conv2D_bn_offset", "shape": [192], "dtype": "float32", "quantization": {"dtype": "uint8", "min": -7.765002963122199, "scale": 0.04462645381104712, "original_dtype": "float32"}}, {"name": "MobilenetEdgeTPU/expanded_conv_6/project/Conv2D_weights", "shape": [1, 1, 192, 48], "dtype": "float32", "quantization": {"dtype": "uint8", "min": -1.4296960157506606, "scale": 0.01254119312061983, "original_dtype": "float32"}}, {"name": "aspp0/Conv2D_bn_offset", "shape": [256], "dtype": "float32", "quantization": {"dtype": "uint8", "min": -0.4905854283594618, "scale": 0.00476296532387827, "original_dtype": "float32"}}, {"name": "MobilenetEdgeTPU/expanded_conv_6/project/Conv2D_bn_offset", "shape": [48], "dtype": "float32", "quantization": {"dtype": "uint8", "min": -9.169831461064955, "scale": 0.06072736066930434, "original_dtype": "float32"}}, {"name": "MobilenetEdgeTPU/expanded_conv_7/expand/Conv2D_weights", "shape": [3, 3, 48, 192], "dtype": "float32", "quantization": {"dtype": "uint8", "min": -0.11455333720819623, "scale": 0.0009019947811668994, "original_dtype": "float32"}}, {"name": "MobilenetEdgeTPU/expanded_conv_7/expand/Conv2D_bn_offset", "shape": [192], "dtype": "float32", "quantization": {"dtype": "uint8", "min": -10.155859666712143, "scale": 0.07522859012379365, "original_dtype": "float32"}}, {"name": "MobilenetEdgeTPU/expanded_conv_7/project/Conv2D_weights", "shape": [1, 1, 192, 48], "dtype": "float32", "quantization": {"dtype": "uint8", "min": -2.859426610610064, "scale": 0.0178714163163129, "original_dtype": "float32"}}, {"name": "image_pooling/Conv2D_weights", "shape": [1, 1, 1280, 256], "dtype": "float32", "quantization": {"dtype": "uint8", "min": -0.6093355662682477, "scale": 0.004513596787172205, "original_dtype": "float32"}}, {"name": "MobilenetEdgeTPU/expanded_conv_7/project/Conv2D_bn_offset", "shape": [48], "dtype": "float32", "quantization": {"dtype": "uint8", "min": -4.754086592618156, "scale": 0.030671526403988108, "original_dtype": "float32"}}, {"name": "MobilenetEdgeTPU/expanded_conv_8/expand/Conv2D_weights", "shape": [3, 3, 48, 192], "dtype": "float32", "quantization": {"dtype": "uint8", "min": -0.16210842173473508, "scale": 0.0011103316557173636, "original_dtype": "float32"}}, {"name": "MobilenetEdgeTPU/expanded_conv_8/expand/Conv2D_bn_offset", "shape": [192], "dtype": "float32", "quantization": {"dtype": "uint8", "min": -6.735659489912146, "scale": 0.041323064355289235, "original_dtype": "float32"}}, {"name": "image_pooling/Conv2D_bn_offset", "shape": [256], "dtype": "float32", "quantization": {"dtype": "uint8", "min": -1.3191816171010335, "scale": 0.011085559807571711, "original_dtype": "float32"}}, {"name": "MobilenetEdgeTPU/expanded_conv_8/project/Conv2D_weights", "shape": [1, 1, 192, 48], "dtype": "float32", "quantization": {"dtype": "uint8", "min": -2.6492579291848575, "scale": 0.02007013582715801, "original_dtype": "float32"}}, {"name": "MobilenetEdgeTPU/expanded_conv_18/depthwise/BatchNorm/FusedBatchNormV3/Scaled", "shape": [640], "dtype": "float32", "quantization": {"dtype": "uint8", "min": 0.1566346287727356, "scale": 0.02113259329515345, "original_dtype": "float32"}}, {"name": "MobilenetEdgeTPU/expanded_conv_8/project/Conv2D_bn_offset", "shape": [48], "dtype": "float32", "quantization": {"dtype": "uint8", "min": -12.377250824722589, "scale": 0.06800687266331093, "original_dtype": "float32"}}, {"name": "MobilenetEdgeTPU/expanded_conv_9/expand/Conv2D_weights", "shape": [1, 1, 48, 384], "dtype": "float32", "quantization": {"dtype": "uint8", "min": -0.29626100203570194, "scale": 0.0026451875181759104, "original_dtype": "float32"}}, {"name": "MobilenetEdgeTPU/expanded_conv_9/expand/Conv2D_bn_offset", "shape": [384], "dtype": "float32", "quantization": {"dtype": "uint8", "min": -4.939098692875282, "scale": 0.035533084121404906, "original_dtype": "float32"}}, {"name": "MobilenetEdgeTPU/expanded_conv_9/depthwise/depthwise_weights", "shape": [3, 3, 384, 1], "dtype": "float32", "quantization": {"dtype": "uint8", "min": -3.486110532985014, "scale": 0.02788888426388011, "original_dtype": "float32"}}, {"name": "MobilenetEdgeTPU/expanded_conv_9/depthwise/depthwise_bn_offset", "shape": [384], "dtype": "float32", "quantization": {"dtype": "uint8", "min": -3.830355685364966, "scale": 0.06839920866723154, "original_dtype": "float32"}}, {"name": "MobilenetEdgeTPU/expanded_conv_9/project/Conv2D_weights", "shape": [1, 1, 384, 96], "dtype": "float32", "quantization": {"dtype": "uint8", "min": -0.782600694544175, "scale": 0.005928793140486175, "original_dtype": "float32"}}, {"name": "MobilenetEdgeTPU/expanded_conv_9/project/Conv2D_bn_offset", "shape": [96], "dtype": "float32", "quantization": {"dtype": "uint8", "min": -19.719402780719832, "scale": 0.13789792154349534, "original_dtype": "float32"}}, {"name": "MobilenetEdgeTPU/expanded_conv_10/expand/Conv2D_weights", "shape": [1, 1, 96, 384], "dtype": "float32", "quantization": {"dtype": "uint8", "min": -0.17535260565140667, "scale": 0.0013916873464397356, "original_dtype": "float32"}}, {"name": "concat_projection/Conv2D_weights", "shape": [1, 1, 512, 256], "dtype": "float32", "quantization": {"dtype": "uint8", "min": -0.35740593753609, "scale": 0.0027282895995121375, "original_dtype": "float32"}}, {"name": "MobilenetEdgeTPU/expanded_conv_10/expand/Conv2D_bn_offset", "shape": [384], "dtype": "float32", "quantization": {"dtype": "uint8", "min": -2.5682903065400966, "scale": 0.02293116345125086, "original_dtype": "float32"}}, {"name": "MobilenetEdgeTPU/expanded_conv_10/depthwise/depthwise_weights", "shape": [3, 3, 384, 1], "dtype": "float32", "quantization": {"dtype": "uint8", "min": -6.976887467328241, "scale": 0.19380242964800667, "original_dtype": "float32"}}, {"name": "MobilenetEdgeTPU/expanded_conv_10/depthwise/depthwise_bn_offset", "shape": [384], "dtype": "float32", "quantization": {"dtype": "uint8", "min": -16.333146989111807, "scale": 0.10605939603319355, "original_dtype": "float32"}}, {"name": "MobilenetEdgeTPU/expanded_conv_10/project/Conv2D_weights", "shape": [1, 1, 384, 96], "dtype": "float32", "quantization": {"dtype": "uint8", "min": -1.6218146885142608, "scale": 0.010958207354826086, "original_dtype": "float32"}}, {"name": "concat_projection/Conv2D_bn_offset", "shape": [256], "dtype": "float32", "quantization": {"dtype": "uint8", "min": -0.6741352137397317, "scale": 0.009362989079718496, "original_dtype": "float32"}}, {"name": "MobilenetEdgeTPU/expanded_conv_10/project/Conv2D_bn_offset", "shape": [96], "dtype": "float32", "quantization": {"dtype": "uint8", "min": -5.900460703232709, "scale": 0.05960061316396676, "original_dtype": "float32"}}, {"name": "MobilenetEdgeTPU/expanded_conv_11/expand/Conv2D_weights", "shape": [1, 1, 96, 384], "dtype": "float32", "quantization": {"dtype": "uint8", "min": -0.12544489593482483, "scale": 0.0010035591674785987, "original_dtype": "float32"}}, {"name": "MobilenetEdgeTPU/expanded_conv_11/expand/Conv2D_bn_offset", "shape": [384], "dtype": "float32", "quantization": {"dtype": "uint8", "min": -2.819418862286736, "scale": 0.021855960172765396, "original_dtype": "float32"}}, {"name": "MobilenetEdgeTPU/expanded_conv_11/depthwise/depthwise_weights", "shape": [3, 3, 384, 1], "dtype": "float32", "quantization": {"dtype": "uint8", "min": -9.134635334388882, "scale": 0.08868577994552312, "original_dtype": "float32"}}, {"name": "MobilenetEdgeTPU/expanded_conv_11/depthwise/depthwise_bn_offset", "shape": [384], "dtype": "float32", "quantization": {"dtype": "uint8", "min": -7.00924924962661, "scale": 0.06258258258595187, "original_dtype": "float32"}}, {"name": "MobilenetEdgeTPU/expanded_conv_11/project/Conv2D_weights", "shape": [1, 1, 384, 96], "dtype": "float32", "quantization": {"dtype": "uint8", "min": -1.4711920373580034, "scale": 0.011316861825830795, "original_dtype": "float32"}}, {"name": "MobilenetEdgeTPU/expanded_conv_18/depthwise/BatchNorm/FusedBatchNormV3/Offset", "shape": [640], "dtype": "float32", "quantization": {"dtype": "uint8", "min": -14.674462587693158, "scale": 0.11201879837933709, "original_dtype": "float32"}}, {"name": "MobilenetEdgeTPU/expanded_conv_11/project/Conv2D_bn_offset", "shape": [96], "dtype": "float32", "quantization": {"dtype": "uint8", "min": -8.095128863465552, "scale": 0.06476103090772442, "original_dtype": "float32"}}, {"name": "MobilenetEdgeTPU/expanded_conv_12/expand/Conv2D_weights", "shape": [1, 1, 96, 384], "dtype": "float32", "quantization": {"dtype": "uint8", "min": -0.11700670421123505, "scale": 0.0008797496557235718, "original_dtype": "float32"}}, {"name": "MobilenetEdgeTPU/expanded_conv_12/expand/Conv2D_bn_offset", "shape": [384], "dtype": "float32", "quantization": {"dtype": "uint8", "min": -2.0771477278541117, "scale": 0.016101920370962107, "original_dtype": "float32"}}, {"name": "MobilenetEdgeTPU/expanded_conv_12/depthwise/depthwise_weights", "shape": [3, 3, 384, 1], "dtype": "float32", "quantization": {"dtype": "uint8", "min": -8.213486555510876, "scale": 0.050389488070618875, "original_dtype": "float32"}}, {"name": "MobilenetEdgeTPU/expanded_conv_12/depthwise/depthwise_bn_offset", "shape": [384], "dtype": "float32", "quantization": {"dtype": "uint8", "min": -12.415468200982787, "scale": 0.07616851657044654, "original_dtype": "float32"}}, {"name": "MobilenetEdgeTPU/expanded_conv_12/project/Conv2D_weights", "shape": [1, 1, 384, 96], "dtype": "float32", "quantization": {"dtype": "uint8", "min": -1.4521737678378235, "scale": 0.011434439116833256, "original_dtype": "float32"}}, {"name": "MobilenetEdgeTPU/expanded_conv_12/project/Conv2D_bn_offset", "shape": [96], "dtype": "float32", "quantization": {"dtype": "uint8", "min": -6.965929854149912, "scale": 0.06965929854149912, "original_dtype": "float32"}}, {"name": "MobilenetEdgeTPU/expanded_conv_13/expand/Conv2D_weights", "shape": [1, 1, 96, 768], "dtype": "float32", "quantization": {"dtype": "uint8", "min": -0.16837843586416804, "scale": 0.0014515382402083452, "original_dtype": "float32"}}, {"name": "MobilenetEdgeTPU/expanded_conv_13/expand/Conv2D_bn_offset", "shape": [768], "dtype": "float32", "quantization": {"dtype": "uint8", "min": -2.0328821967629827, "scale": 0.021858948352290134, "original_dtype": "float32"}}, {"name": "MobilenetEdgeTPU/expanded_conv_13/depthwise/depthwise_weights", "shape": [3, 3, 768, 1], "dtype": "float32", "quantization": {"dtype": "uint8", "min": -8.581227117426256, "scale": 0.057592128304874195, "original_dtype": "float32"}}, {"name": "MobilenetEdgeTPU/expanded_conv_13/depthwise/depthwise_bn_offset", "shape": [768], "dtype": "float32", "quantization": {"dtype": "uint8", "min": -8.10249817792107, "scale": 0.09645831164191751, "original_dtype": "float32"}}, {"name": "MobilenetEdgeTPU/expanded_conv_13/project/Conv2D_weights", "shape": [1, 1, 768, 96], "dtype": "float32", "quantization": {"dtype": "uint8", "min": -0.7291351598851821, "scale": 0.005482219247257008, "original_dtype": "float32"}}, {"name": "MobilenetEdgeTPU/expanded_conv_13/project/Conv2D_bn_offset", "shape": [96], "dtype": "float32", "quantization": {"dtype": "uint8", "min": -13.593458085901597, "scale": 0.11519879733814913, "original_dtype": "float32"}}, {"name": "MobilenetEdgeTPU/expanded_conv_14/expand/Conv2D_weights", "shape": [1, 1, 96, 384], "dtype": "float32", "quantization": {"dtype": "uint8", "min": -0.1428826973134396, "scale": 0.0010743059948378918, "original_dtype": "float32"}}, {"name": "MobilenetEdgeTPU/expanded_conv_14/expand/Conv2D_bn_offset", "shape": [384], "dtype": "float32", "quantization": {"dtype": "uint8", "min": -2.6097826873554903, "scale": 0.021217745425654393, "original_dtype": "float32"}}, {"name": "MobilenetEdgeTPU/expanded_conv_14/depthwise/depthwise_weights", "shape": [3, 3, 384, 1], "dtype": "float32", "quantization": {"dtype": "uint8", "min": -5.8427068654228655, "scale": 0.04750168183270623, "original_dtype": "float32"}}, {"name": "MobilenetEdgeTPU/expanded_conv_14/depthwise/depthwise_bn_offset", "shape": [384], "dtype": "float32", "quantization": {"dtype": "uint8", "min": -8.163934595444625, "scale": 0.07161346136354933, "original_dtype": "float32"}}, {"name": "MobilenetEdgeTPU/expanded_conv_14/project/Conv2D_weights", "shape": [1, 1, 384, 96], "dtype": "float32", "quantization": {"dtype": "uint8", "min": -0.8882567945648642, "scale": 0.006885711585774141, "original_dtype": "float32"}}, {"name": "MobilenetEdgeTPU/expanded_conv_14/project/Conv2D_bn_offset", "shape": [96], "dtype": "float32", "quantization": {"dtype": "uint8", "min": -10.960964032715442, "scale": 0.06055781233544443, "original_dtype": "float32"}}, {"name": "MobilenetEdgeTPU/expanded_conv_15/expand/Conv2D_weights", "shape": [1, 1, 96, 384], "dtype": "float32", "quantization": {"dtype": "uint8", "min": -0.13499414500068216, "scale": 0.0011841591666726505, "original_dtype": "float32"}}, {"name": "MobilenetEdgeTPU/expanded_conv_15/expand/Conv2D_bn_offset", "shape": [384], "dtype": "float32", "quantization": {"dtype": "uint8", "min": -2.5474178884543623, "scale": 0.02215145989960315, "original_dtype": "float32"}}, {"name": "MobilenetEdgeTPU/expanded_conv_15/depthwise/depthwise_weights", "shape": [3, 3, 384, 1], "dtype": "float32", "quantization": {"dtype": "uint8", "min": -24.057914644129138, "scale": 0.1909358305089614, "original_dtype": "float32"}}, {"name": "MobilenetEdgeTPU/expanded_conv_15/depthwise/depthwise_bn_offset", "shape": [384], "dtype": "float32", "quantization": {"dtype": "uint8", "min": -10.924101500417672, "scale": 0.09028183058196423, "original_dtype": "float32"}}, {"name": "MobilenetEdgeTPU/expanded_conv_15/project/Conv2D_weights", "shape": [1, 1, 384, 96], "dtype": "float32", "quantization": {"dtype": "uint8", "min": -1.1840238458970014, "scale": 0.010963183758305569, "original_dtype": "float32"}}, {"name": "MobilenetEdgeTPU/expanded_conv_15/project/Conv2D_bn_offset", "shape": [96], "dtype": "float32", "quantization": {"dtype": "uint8", "min": -24.327662524055032, "scale": 0.16777698292451745, "original_dtype": "float32"}}, {"name": "MobilenetEdgeTPU/expanded_conv_16/expand/Conv2D_weights", "shape": [1, 1, 96, 384], "dtype": "float32", "quantization": {"dtype": "uint8", "min": -0.1346352219581604, "scale": 0.0009899648673394148, "original_dtype": "float32"}}, {"name": "MobilenetEdgeTPU/expanded_conv_16/expand/Conv2D_bn_offset", "shape": [384], "dtype": "float32", "quantization": {"dtype": "uint8", "min": -2.5207855916490742, "scale": 0.02083293877395929, "original_dtype": "float32"}}, {"name": "MobilenetEdgeTPU/expanded_conv_16/depthwise/depthwise_weights", "shape": [3, 3, 384, 1], "dtype": "float32", "quantization": {"dtype": "uint8", "min": -31.0855448105756, "scale": 0.2878291186164407, "original_dtype": "float32"}}, {"name": "MobilenetEdgeTPU/expanded_conv_16/depthwise/depthwise_bn_offset", "shape": [384], "dtype": "float32", "quantization": {"dtype": "uint8", "min": -10.617866235620836, "scale": 0.09075099346684475, "original_dtype": "float32"}}, {"name": "MobilenetEdgeTPU/expanded_conv_16/project/Conv2D_weights", "shape": [1, 1, 384, 96], "dtype": "float32", "quantization": {"dtype": "uint8", "min": -1.162165847011641, "scale": 0.008738089075275495, "original_dtype": "float32"}}, {"name": "MobilenetEdgeTPU/expanded_conv_21/depthwise/BatchNorm/FusedBatchNormV3/Scaled", "shape": [1280], "dtype": "float32", "quantization": {"dtype": "uint8", "min": 0.12277797609567642, "scale": 0.2662646198681757, "original_dtype": "float32"}}, {"name": "MobilenetEdgeTPU/expanded_conv_16/project/Conv2D_bn_offset", "shape": [96], "dtype": "float32", "quantization": {"dtype": "uint8", "min": -19.223348191205194, "scale": 0.13929962457395068, "original_dtype": "float32"}}, {"name": "MobilenetEdgeTPU/expanded_conv_17/expand/Conv2D_weights", "shape": [1, 1, 96, 768], "dtype": "float32", "quantization": {"dtype": "uint8", "min": -0.18318558306086297, "scale": 0.0014424061658335667, "original_dtype": "float32"}}, {"name": "MobilenetEdgeTPU/expanded_conv_17/expand/Conv2D_bn_offset", "shape": [768], "dtype": "float32", "quantization": {"dtype": "uint8", "min": -3.712989537856158, "scale": 0.03437953275792739, "original_dtype": "float32"}}, {"name": "MobilenetEdgeTPU/expanded_conv_17/depthwise/depthwise_weights", "shape": [5, 5, 768, 1], "dtype": "float32", "quantization": {"dtype": "uint8", "min": -18.345114606969496, "scale": 0.16527130276549096, "original_dtype": "float32"}}, {"name": "MobilenetEdgeTPU/expanded_conv_17/depthwise/depthwise_bn_offset", "shape": [768], "dtype": "float32", "quantization": {"dtype": "uint8", "min": -7.4054205576578775, "scale": 0.10890324349496878, "original_dtype": "float32"}}, {"name": "MobilenetEdgeTPU/expanded_conv_17/project/Conv2D_weights", "shape": [1, 1, 768, 160], "dtype": "float32", "quantization": {"dtype": "uint8", "min": -0.664038849811928, "scale": 0.004955513804566627, "original_dtype": "float32"}}, {"name": "MobilenetEdgeTPU/expanded_conv_21/depthwise/BatchNorm/FusedBatchNormV3/Offset", "shape": [1280], "dtype": "float32", "quantization": {"dtype": "uint8", "min": -9.836162454941695, "scale": 0.09367773766611137, "original_dtype": "float32"}}, {"name": "MobilenetEdgeTPU/expanded_conv_17/project/Conv2D_bn_offset", "shape": [160], "dtype": "float32", "quantization": {"dtype": "uint8", "min": -16.63399969362745, "scale": 0.12995312260646447, "original_dtype": "float32"}}, {"name": "MobilenetEdgeTPU/expanded_conv_18/expand/Conv2D_weights", "shape": [1, 1, 160, 640], "dtype": "float32", "quantization": {"dtype": "uint8", "min": -0.15945954463061165, "scale": 0.0012080268532622094, "original_dtype": "float32"}}, {"name": "MobilenetEdgeTPU/expanded_conv_18/expand/Conv2D_bn_offset", "shape": [640], "dtype": "float32", "quantization": {"dtype": "uint8", "min": -4.71472141789455, "scale": 0.03251532012341069, "original_dtype": "float32"}}, {"name": "MobilenetEdgeTPU/expanded_conv_18/project/Conv2D_weights", "shape": [1, 1, 640, 160], "dtype": "float32", "quantization": {"dtype": "uint8", "min": -1.256759953031353, "scale": 0.01065050807653689, "original_dtype": "float32"}}, {"name": "MobilenetEdgeTPU/expanded_conv_18/project/Conv2D_bn_offset", "shape": [160], "dtype": "float32", "quantization": {"dtype": "uint8", "min": -10.796568754607556, "scale": 0.07550048080145144, "original_dtype": "float32"}}, {"name": "MobilenetEdgeTPU/expanded_conv_19/expand/Conv2D_weights", "shape": [1, 1, 160, 640], "dtype": "float32", "quantization": {"dtype": "uint8", "min": -0.18198263247807822, "scale": 0.0011972541610399882, "original_dtype": "float32"}}, {"name": "MobilenetEdgeTPU/expanded_conv_20/depthwise/BatchNorm/FusedBatchNormV3/Scaled", "shape": [640], "dtype": "float32", "quantization": {"dtype": "uint8", "min": 0.11519769579172134, "scale": 0.18356111736274233, "original_dtype": "float32"}}, {"name": "MobilenetEdgeTPU/expanded_conv_19/expand/Conv2D_bn_offset", "shape": [640], "dtype": "float32", "quantization": {"dtype": "uint8", "min": -3.7693424804537905, "scale": 0.024008550830915864, "original_dtype": "float32"}}, {"name": "MobilenetEdgeTPU/expanded_conv_19/project/Conv2D_weights", "shape": [1, 1, 640, 160], "dtype": "float32", "quantization": {"dtype": "uint8", "min": -2.788973104252535, "scale": 0.018110214962678797, "original_dtype": "float32"}}, {"name": "MobilenetEdgeTPU/expanded_conv_19/project/Conv2D_bn_offset", "shape": [160], "dtype": "float32", "quantization": {"dtype": "uint8", "min": -19.603758194867304, "scale": 0.1333588992848116, "original_dtype": "float32"}}, {"name": "MobilenetEdgeTPU/expanded_conv_20/expand/Conv2D_weights", "shape": [1, 1, 160, 640], "dtype": "float32", "quantization": {"dtype": "uint8", "min": -0.17421178899559323, "scale": 0.0015148851217008106, "original_dtype": "float32"}}, {"name": "MobilenetEdgeTPU/expanded_conv_20/depthwise/BatchNorm/FusedBatchNormV3/Offset", "shape": [640], "dtype": "float32", "quantization": {"dtype": "uint8", "min": -16.333526611328125, "scale": 0.09607956830193015, "original_dtype": "float32"}}, {"name": "MobilenetEdgeTPU/expanded_conv_20/expand/Conv2D_bn_offset", "shape": [640], "dtype": "float32", "quantization": {"dtype": "uint8", "min": -2.2417467912038167, "scale": 0.01883820832944384, "original_dtype": "float32"}}, {"name": "MobilenetEdgeTPU/expanded_conv_20/project/Conv2D_weights", "shape": [1, 1, 640, 160], "dtype": "float32", "quantization": {"dtype": "uint8", "min": -2.3266757516299976, "scale": 0.018763514126048368, "original_dtype": "float32"}}, {"name": "MobilenetEdgeTPU/expanded_conv_20/project/Conv2D_bn_offset", "shape": [160], "dtype": "float32", "quantization": {"dtype": "uint8", "min": -18.839888329599418, "scale": 0.12993026434206495, "original_dtype": "float32"}}, {"name": "MobilenetEdgeTPU/expanded_conv_21/expand/Conv2D_weights", "shape": [1, 1, 160, 1280], "dtype": "float32", "quantization": {"dtype": "uint8", "min": -0.14715637401038525, "scale": 0.0012161683802511178, "original_dtype": "float32"}}, {"name": "pad_to_bounding_box_1/sub_2/x", "shape": [], "dtype": "int32"}, {"name": "pad_to_bounding_box_1/sub_1/x", "shape": [], "dtype": "int32"}]}]}