{"format": "graph-model", "generatedBy": "2.7.0-dev20210923", "convertedBy": "TensorFlow.js Converter v3.9.0", "signature": {"outputs": {"SemanticPredictions": {"name": "SemanticPredictions"}}}, "modelTopology": {"node": [{"name": "ResizeBilinear/size", "op": "Const", "attr": {"dtype": {"type": "DT_INT32"}, "value": {"tensor": {"dtype": "DT_INT32", "tensorShape": {"dim": [{"size": "2"}]}}}}}, {"name": "MobilenetV2/expanded_conv_15/depthwise/depthwise/SpaceToBatchND/block_shape", "op": "Const", "attr": {"dtype": {"type": "DT_INT32"}, "value": {"tensor": {"dtype": "DT_INT32", "tensorShape": {"dim": [{"size": "2"}]}}}}}, {"name": "MobilenetV2/expanded_conv_15/depthwise/depthwise/SpaceToBatchND/paddings", "op": "Const", "attr": {"dtype": {"type": "DT_INT32"}, "value": {"tensor": {"dtype": "DT_INT32", "tensorShape": {"dim": [{"size": "2"}, {"size": "2"}]}}}}}, {"name": "MobilenetV2/expanded_conv_15/depthwise/depthwise_weights", "op": "Const", "attr": {"dtype": {"type": "DT_FLOAT"}, "value": {"tensor": {"dtype": "DT_FLOAT", "tensorShape": {"dim": [{"size": "3"}, {"size": "3"}, {"size": "960"}, {"size": "1"}]}}}}}, {"name": "MobilenetV2/expanded_conv_15/depthwise/depthwise/BatchToSpaceND/block_shape", "op": "Const", "attr": {"dtype": {"type": "DT_INT32"}, "value": {"tensor": {"dtype": "DT_INT32", "tensorShape": {"dim": [{"size": "2"}]}}}}}, {"name": "MobilenetV2/expanded_conv_15/depthwise/depthwise/BatchToSpaceND/crops", "op": "Const", "attr": {"dtype": {"type": "DT_INT32"}, "value": {"tensor": {"dtype": "DT_INT32", "tensorShape": {"dim": [{"size": "2"}, {"size": "2"}]}}}}}, {"name": "MobilenetV2/expanded_conv_14/depthwise/depthwise/SpaceToBatchND/block_shape", "op": "Const", "attr": {"dtype": {"type": "DT_INT32"}, "value": {"tensor": {"dtype": "DT_INT32", "tensorShape": {"dim": [{"size": "2"}]}}}}}, {"name": "MobilenetV2/expanded_conv_14/depthwise/depthwise/SpaceToBatchND/paddings", "op": "Const", "attr": {"dtype": {"type": "DT_INT32"}, "value": {"tensor": {"dtype": "DT_INT32", "tensorShape": {"dim": [{"size": "2"}, {"size": "2"}]}}}}}, {"name": "MobilenetV2/expanded_conv_14/depthwise/depthwise_weights", "op": "Const", "attr": {"dtype": {"type": "DT_FLOAT"}, "value": {"tensor": {"dtype": "DT_FLOAT", "tensorShape": {"dim": [{"size": "3"}, {"size": "3"}, {"size": "960"}, {"size": "1"}]}}}}}, {"name": "MobilenetV2/expanded_conv_14/depthwise/depthwise/BatchToSpaceND/block_shape", "op": "Const", "attr": {"dtype": {"type": "DT_INT32"}, "value": {"tensor": {"dtype": "DT_INT32", "tensorShape": {"dim": [{"size": "2"}]}}}}}, {"name": "MobilenetV2/expanded_conv_14/depthwise/depthwise/BatchToSpaceND/crops", "op": "Const", "attr": {"dtype": {"type": "DT_INT32"}, "value": {"tensor": {"dtype": "DT_INT32", "tensorShape": {"dim": [{"size": "2"}, {"size": "2"}]}}}}}, {"name": "MobilenetV2/expanded_conv_16/depthwise/depthwise/SpaceToBatchND/block_shape", "op": "Const", "attr": {"dtype": {"type": "DT_INT32"}, "value": {"tensor": {"dtype": "DT_INT32", "tensorShape": {"dim": [{"size": "2"}]}}}}}, {"name": "MobilenetV2/expanded_conv_16/depthwise/depthwise/SpaceToBatchND/paddings", "op": "Const", "attr": {"dtype": {"type": "DT_INT32"}, "value": {"tensor": {"dtype": "DT_INT32", "tensorShape": {"dim": [{"size": "2"}, {"size": "2"}]}}}}}, {"name": "MobilenetV2/expanded_conv_16/depthwise/depthwise_weights", "op": "Const", "attr": {"dtype": {"type": "DT_FLOAT"}, "value": {"tensor": {"dtype": "DT_FLOAT", "tensorShape": {"dim": [{"size": "3"}, {"size": "3"}, {"size": "960"}, {"size": "1"}]}}}}}, {"name": "MobilenetV2/expanded_conv_16/depthwise/depthwise/BatchToSpaceND/block_shape", "op": "Const", "attr": {"dtype": {"type": "DT_INT32"}, "value": {"tensor": {"dtype": "DT_INT32", "tensorShape": {"dim": [{"size": "2"}]}}}}}, {"name": "MobilenetV2/expanded_conv_16/depthwise/depthwise/BatchToSpaceND/crops", "op": "Const", "attr": {"dtype": {"type": "DT_INT32"}, "value": {"tensor": {"dtype": "DT_INT32", "tensorShape": {"dim": [{"size": "2"}, {"size": "2"}]}}}}}, {"name": "concat/axis", "op": "Const", "attr": {"value": {"tensor": {"dtype": "DT_INT32", "tensorShape": {}}}, "dtype": {"type": "DT_INT32"}}}, {"name": "decoder/ResizeBilinear/size", "op": "Const", "attr": {"dtype": {"type": "DT_INT32"}, "value": {"tensor": {"dtype": "DT_INT32", "tensorShape": {"dim": [{"size": "2"}]}}}}}, {"name": "mul_2/x", "op": "Const", "attr": {"value": {"tensor": {"dtype": "DT_FLOAT", "tensorShape": {}}}, "dtype": {"type": "DT_FLOAT"}}}, {"name": "pad_to_bounding_box_1/stack", "op": "Const", "attr": {"dtype": {"type": "DT_INT32"}, "value": {"tensor": {"dtype": "DT_INT32", "tensorShape": {"dim": [{"size": "2"}]}}}}}, {"name": "pad_to_bounding_box_1/stack_1/0", "op": "Const", "attr": {"dtype": {"type": "DT_INT32"}, "value": {"tensor": {"dtype": "DT_INT32", "tensorShape": {}}}}}, {"name": "pad_to_bounding_box_1/stack_2/0", "op": "Const", "attr": {"value": {"tensor": {"dtype": "DT_INT32", "tensorShape": {}}}, "dtype": {"type": "DT_INT32"}}}, {"name": "pad_to_bounding_box/stack", "op": "Const", "attr": {"value": {"tensor": {"dtype": "DT_INT32", "tensorShape": {"dim": [{"size": "2"}]}}}, "dtype": {"type": "DT_INT32"}}}, {"name": "pad_to_bounding_box/stack_1/0", "op": "Const", "attr": {"dtype": {"type": "DT_INT32"}, "value": {"tensor": {"dtype": "DT_INT32", "tensorShape": {}}}}}, {"name": "sub/x", "op": "Const", "attr": {"value": {"tensor": {"dtype": "DT_INT32", "tensorShape": {}}}, "dtype": {"type": "DT_INT32"}}}, {"name": "Maximum/y", "op": "Const", "attr": {"dtype": {"type": "DT_INT32"}, "value": {"tensor": {"dtype": "DT_INT32", "tensorShape": {}}}}}, {"name": "pad_to_bounding_box/stack_2/0", "op": "Const", "attr": {"dtype": {"type": "DT_INT32"}, "value": {"tensor": {"dtype": "DT_INT32", "tensorShape": {}}}}}, {"name": "sub_1/x", "op": "Const", "attr": {"value": {"tensor": {"dtype": "DT_INT32", "tensorShape": {}}}, "dtype": {"type": "DT_INT32"}}}, {"name": "Maximum_1/y", "op": "Const", "attr": {"value": {"tensor": {"dtype": "DT_INT32", "tensorShape": {}}}, "dtype": {"type": "DT_INT32"}}}, {"name": "pad_to_bounding_box/ExpandDims/dim", "op": "Const", "attr": {"dtype": {"type": "DT_INT32"}, "value": {"tensor": {"dtype": "DT_INT32", "tensorShape": {}}}}}, {"name": "pad_to_bounding_box/stack_3", "op": "Const", "attr": {"dtype": {"type": "DT_INT32"}, "value": {"tensor": {"dtype": "DT_INT32", "tensorShape": {"dim": [{"size": "2"}]}}}}}, {"name": "resize/ExpandDims/dim", "op": "Const", "attr": {"value": {"tensor": {"dtype": "DT_INT32", "tensorShape": {}}}, "dtype": {"type": "DT_INT32"}}}, {"name": "Cast_1", "op": "Const", "attr": {"dtype": {"type": "DT_FLOAT"}, "value": {"tensor": {"dtype": "DT_FLOAT", "tensorShape": {}}}}}, {"name": "strided_slice_1/stack", "op": "Const", "attr": {"dtype": {"type": "DT_INT32"}, "value": {"tensor": {"dtype": "DT_INT32", "tensorShape": {"dim": [{"size": "1"}]}}}}}, {"name": "strided_slice_1/stack_1", "op": "Const", "attr": {"value": {"tensor": {"dtype": "DT_INT32", "tensorShape": {"dim": [{"size": "1"}]}}}, "dtype": {"type": "DT_INT32"}}}, {"name": "strided_slice_1/stack_2", "op": "Const", "attr": {"dtype": {"type": "DT_INT32"}, "value": {"tensor": {"dtype": "DT_INT32", "tensorShape": {"dim": [{"size": "1"}]}}}}}, {"name": "Cast_3", "op": "Const", "attr": {"value": {"tensor": {"dtype": "DT_FLOAT", "tensorShape": {}}}, "dtype": {"type": "DT_FLOAT"}}}, {"name": "strided_slice_2/stack", "op": "Const", "attr": {"dtype": {"type": "DT_INT32"}, "value": {"tensor": {"dtype": "DT_INT32", "tensorShape": {"dim": [{"size": "1"}]}}}}}, {"name": "strided_slice_2/stack_1", "op": "Const", "attr": {"dtype": {"type": "DT_INT32"}, "value": {"tensor": {"dtype": "DT_INT32", "tensorShape": {"dim": [{"size": "1"}]}}}}}, {"name": "strided_slice_2/stack_2", "op": "Const", "attr": {"dtype": {"type": "DT_INT32"}, "value": {"tensor": {"dtype": "DT_INT32", "tensorShape": {"dim": [{"size": "1"}]}}}}}, {"name": "pad_to_bounding_box_1/ExpandDims/dim", "op": "Const", "attr": {"value": {"tensor": {"dtype": "DT_INT32", "tensorShape": {}}}, "dtype": {"type": "DT_INT32"}}}, {"name": "pad_to_bounding_box_1/stack_3", "op": "Const", "attr": {"dtype": {"type": "DT_INT32"}, "value": {"tensor": {"dtype": "DT_INT32", "tensorShape": {"dim": [{"size": "2"}]}}}}}, {"name": "Reshape", "op": "Const", "attr": {"value": {"tensor": {"dtype": "DT_FLOAT", "tensorShape": {"dim": [{"size": "1"}, {"size": "1"}, {"size": "3"}]}}}, "dtype": {"type": "DT_FLOAT"}}}, {"name": "ExpandDims/dim", "op": "Const", "attr": {"value": {"tensor": {"dtype": "DT_INT32", "tensorShape": {}}}, "dtype": {"type": "DT_INT32"}}}, {"name": "sub_2/y", "op": "Const", "attr": {"dtype": {"type": "DT_FLOAT"}, "value": {"tensor": {"dtype": "DT_FLOAT", "tensorShape": {}}}}}, {"name": "decoder/ResizeBilinear_1/size", "op": "Const", "attr": {"value": {"tensor": {"dtype": "DT_INT32", "tensorShape": {"dim": [{"size": "2"}]}}}, "dtype": {"type": "DT_INT32"}}}, {"name": "decoder/concat/axis", "op": "Const", "attr": {"value": {"tensor": {"dtype": "DT_INT32", "tensorShape": {}}}, "dtype": {"type": "DT_INT32"}}}, {"name": "logits/semantic/weights", "op": "Const", "attr": {"dtype": {"type": "DT_FLOAT"}, "value": {"tensor": {"dtype": "DT_FLOAT", "tensorShape": {"dim": [{"size": "1"}, {"size": "1"}, {"size": "256"}, {"size": "19"}]}}}}}, {"name": "logits/semantic/biases", "op": "Const", "attr": {"value": {"tensor": {"dtype": "DT_FLOAT", "tensorShape": {"dim": [{"size": "19"}]}}}, "dtype": {"type": "DT_FLOAT"}}}, {"name": "ResizeBilinear_1/size", "op": "Const", "attr": {"value": {"tensor": {"dtype": "DT_INT32", "tensorShape": {"dim": [{"size": "2"}]}}}, "dtype": {"type": "DT_INT32"}}}, {"name": "strided_slice_4", "op": "Const", "attr": {"value": {"tensor": {"dtype": "DT_INT32", "tensorShape": {"dim": [{"size": "2"}]}}}, "dtype": {"type": "DT_INT32"}}}, {"name": "ArgMax/dimension", "op": "Const", "attr": {"dtype": {"type": "DT_INT32"}, "value": {"tensor": {"dtype": "DT_INT32", "tensorShape": {}}}}}, {"name": "strided_slice_7/stack", "op": "Const", "attr": {"dtype": {"type": "DT_INT32"}, "value": {"tensor": {"dtype": "DT_INT32", "tensorShape": {"dim": [{"size": "3"}]}}}}}, {"name": "strided_slice_7/stack_1/0", "op": "Const", "attr": {"value": {"tensor": {"dtype": "DT_INT32", "tensorShape": {}}}, "dtype": {"type": "DT_INT32"}}}, {"name": "strided_slice_5/stack", "op": "Const", "attr": {"value": {"tensor": {"dtype": "DT_INT32", "tensorShape": {"dim": [{"size": "1"}]}}}, "dtype": {"type": "DT_INT32"}}}, {"name": "strided_slice_5/stack_1", "op": "Const", "attr": {"value": {"tensor": {"dtype": "DT_INT32", "tensorShape": {"dim": [{"size": "1"}]}}}, "dtype": {"type": "DT_INT32"}}}, {"name": "strided_slice_5/stack_2", "op": "Const", "attr": {"value": {"tensor": {"dtype": "DT_INT32", "tensorShape": {"dim": [{"size": "1"}]}}}, "dtype": {"type": "DT_INT32"}}}, {"name": "strided_slice_3/stack", "op": "Const", "attr": {"dtype": {"type": "DT_INT32"}, "value": {"tensor": {"dtype": "DT_INT32", "tensorShape": {"dim": [{"size": "1"}]}}}}}, {"name": "strided_slice_3/stack_1", "op": "Const", "attr": {"value": {"tensor": {"dtype": "DT_INT32", "tensorShape": {"dim": [{"size": "1"}]}}}, "dtype": {"type": "DT_INT32"}}}, {"name": "strided_slice_3/stack_2", "op": "Const", "attr": {"dtype": {"type": "DT_INT32"}, "value": {"tensor": {"dtype": "DT_INT32", "tensorShape": {"dim": [{"size": "1"}]}}}}}, {"name": "strided_slice_6/stack", "op": "Const", "attr": {"value": {"tensor": {"dtype": "DT_INT32", "tensorShape": {"dim": [{"size": "1"}]}}}, "dtype": {"type": "DT_INT32"}}}, {"name": "strided_slice_6/stack_1", "op": "Const", "attr": {"dtype": {"type": "DT_INT32"}, "value": {"tensor": {"dtype": "DT_INT32", "tensorShape": {"dim": [{"size": "1"}]}}}}}, {"name": "strided_slice_6/stack_2", "op": "Const", "attr": {"value": {"tensor": {"dtype": "DT_INT32", "tensorShape": {"dim": [{"size": "1"}]}}}, "dtype": {"type": "DT_INT32"}}}, {"name": "strided_slice_7/stack_2", "op": "Const", "attr": {"value": {"tensor": {"dtype": "DT_INT32", "tensorShape": {"dim": [{"size": "3"}]}}}, "dtype": {"type": "DT_INT32"}}}, {"name": "ExpandDims_1/dim", "op": "Const", "attr": {"dtype": {"type": "DT_INT32"}, "value": {"tensor": {"dtype": "DT_INT32", "tensorShape": {}}}}}, {"name": "ImageTensor", "op": "Placeholder", "attr": {"dtype": {"type": "DT_UINT8"}, "shape": {"shape": {"dim": [{"size": "1"}, {"size": "-1"}, {"size": "-1"}, {"size": "3"}]}}}}, {"name": "strided_slice/stack", "op": "Const", "attr": {"dtype": {"type": "DT_INT32"}, "value": {"tensor": {"dtype": "DT_INT32", "tensorShape": {"dim": [{"size": "1"}]}}}}}, {"name": "strided_slice/stack_1", "op": "Const", "attr": {"dtype": {"type": "DT_INT32"}, "value": {"tensor": {"dtype": "DT_INT32", "tensorShape": {"dim": [{"size": "1"}]}}}}}, {"name": "strided_slice/stack_2", "op": "Const", "attr": {"dtype": {"type": "DT_INT32"}, "value": {"tensor": {"dtype": "DT_INT32", "tensorShape": {"dim": [{"size": "1"}]}}}}}, {"name": "MobilenetV2/Conv/Conv2D_weights", "op": "Const", "attr": {"dtype": {"type": "DT_FLOAT"}, "value": {"tensor": {"dtype": "DT_FLOAT", "tensorShape": {"dim": [{"size": "3"}, {"size": "3"}, {"size": "3"}, {"size": "32"}]}}}}}, {"name": "MobilenetV2/expanded_conv_15/depthwise/BatchNorm/FusedBatchNormV3/Offset", "op": "Const", "attr": {"dtype": {"type": "DT_FLOAT"}, "value": {"tensor": {"dtype": "DT_FLOAT", "tensorShape": {"dim": [{"size": "960"}]}}}}}, {"name": "MobilenetV2/Conv/Conv2D_bn_offset", "op": "Const", "attr": {"value": {"tensor": {"dtype": "DT_FLOAT", "tensorShape": {"dim": [{"size": "32"}]}}}, "dtype": {"type": "DT_FLOAT"}}}, {"name": "MobilenetV2/expanded_conv/depthwise/depthwise_weights", "op": "Const", "attr": {"value": {"tensor": {"dtype": "DT_FLOAT", "tensorShape": {"dim": [{"size": "3"}, {"size": "3"}, {"size": "32"}, {"size": "1"}]}}}, "dtype": {"type": "DT_FLOAT"}}}, {"name": "MobilenetV2/expanded_conv/depthwise/depthwise_bn_offset", "op": "Const", "attr": {"dtype": {"type": "DT_FLOAT"}, "value": {"tensor": {"dtype": "DT_FLOAT", "tensorShape": {"dim": [{"size": "32"}]}}}}}, {"name": "MobilenetV2/expanded_conv/project/Conv2D_weights", "op": "Const", "attr": {"value": {"tensor": {"dtype": "DT_FLOAT", "tensorShape": {"dim": [{"size": "1"}, {"size": "1"}, {"size": "32"}, {"size": "16"}]}}}, "dtype": {"type": "DT_FLOAT"}}}, {"name": "MobilenetV2/expanded_conv/project/Conv2D_bn_offset", "op": "Const", "attr": {"value": {"tensor": {"dtype": "DT_FLOAT", "tensorShape": {"dim": [{"size": "16"}]}}}, "dtype": {"type": "DT_FLOAT"}}}, {"name": "MobilenetV2/expanded_conv_1/expand/Conv2D_weights", "op": "Const", "attr": {"value": {"tensor": {"dtype": "DT_FLOAT", "tensorShape": {"dim": [{"size": "1"}, {"size": "1"}, {"size": "16"}, {"size": "96"}]}}}, "dtype": {"type": "DT_FLOAT"}}}, {"name": "MobilenetV2/expanded_conv_1/expand/Conv2D_bn_offset", "op": "Const", "attr": {"value": {"tensor": {"dtype": "DT_FLOAT", "tensorShape": {"dim": [{"size": "96"}]}}}, "dtype": {"type": "DT_FLOAT"}}}, {"name": "concat_projection/Conv2D_weights", "op": "Const", "attr": {"value": {"tensor": {"dtype": "DT_FLOAT", "tensorShape": {"dim": [{"size": "1"}, {"size": "1"}, {"size": "512"}, {"size": "256"}]}}}, "dtype": {"type": "DT_FLOAT"}}}, {"name": "MobilenetV2/expanded_conv_1/depthwise/depthwise_weights", "op": "Const", "attr": {"dtype": {"type": "DT_FLOAT"}, "value": {"tensor": {"dtype": "DT_FLOAT", "tensorShape": {"dim": [{"size": "3"}, {"size": "3"}, {"size": "96"}, {"size": "1"}]}}}}}, {"name": "MobilenetV2/expanded_conv_1/depthwise/depthwise_bn_offset", "op": "Const", "attr": {"dtype": {"type": "DT_FLOAT"}, "value": {"tensor": {"dtype": "DT_FLOAT", "tensorShape": {"dim": [{"size": "96"}]}}}}}, {"name": "MobilenetV2/expanded_conv_1/project/Conv2D_weights", "op": "Const", "attr": {"dtype": {"type": "DT_FLOAT"}, "value": {"tensor": {"dtype": "DT_FLOAT", "tensorShape": {"dim": [{"size": "1"}, {"size": "1"}, {"size": "96"}, {"size": "24"}]}}}}}, {"name": "MobilenetV2/expanded_conv_1/project/Conv2D_bn_offset", "op": "Const", "attr": {"dtype": {"type": "DT_FLOAT"}, "value": {"tensor": {"dtype": "DT_FLOAT", "tensorShape": {"dim": [{"size": "24"}]}}}}}, {"name": "MobilenetV2/expanded_conv_2/expand/Conv2D_weights", "op": "Const", "attr": {"dtype": {"type": "DT_FLOAT"}, "value": {"tensor": {"dtype": "DT_FLOAT", "tensorShape": {"dim": [{"size": "1"}, {"size": "1"}, {"size": "24"}, {"size": "144"}]}}}}}, {"name": "concat_projection/Conv2D_bn_offset", "op": "Const", "attr": {"value": {"tensor": {"dtype": "DT_FLOAT", "tensorShape": {"dim": [{"size": "256"}]}}}, "dtype": {"type": "DT_FLOAT"}}}, {"name": "MobilenetV2/expanded_conv_2/expand/Conv2D_bn_offset", "op": "Const", "attr": {"value": {"tensor": {"dtype": "DT_FLOAT", "tensorShape": {"dim": [{"size": "144"}]}}}, "dtype": {"type": "DT_FLOAT"}}}, {"name": "MobilenetV2/expanded_conv_2/depthwise/depthwise_weights", "op": "Const", "attr": {"dtype": {"type": "DT_FLOAT"}, "value": {"tensor": {"dtype": "DT_FLOAT", "tensorShape": {"dim": [{"size": "3"}, {"size": "3"}, {"size": "144"}, {"size": "1"}]}}}}}, {"name": "MobilenetV2/expanded_conv_2/depthwise/depthwise_bn_offset", "op": "Const", "attr": {"dtype": {"type": "DT_FLOAT"}, "value": {"tensor": {"dtype": "DT_FLOAT", "tensorShape": {"dim": [{"size": "144"}]}}}}}, {"name": "MobilenetV2/expanded_conv_2/project/Conv2D_weights", "op": "Const", "attr": {"value": {"tensor": {"dtype": "DT_FLOAT", "tensorShape": {"dim": [{"size": "1"}, {"size": "1"}, {"size": "144"}, {"size": "24"}]}}}, "dtype": {"type": "DT_FLOAT"}}}, {"name": "MobilenetV2/expanded_conv_2/project/Conv2D_bn_offset", "op": "Const", "attr": {"dtype": {"type": "DT_FLOAT"}, "value": {"tensor": {"dtype": "DT_FLOAT", "tensorShape": {"dim": [{"size": "24"}]}}}}}, {"name": "decoder/feature_projection0/Conv2D_weights", "op": "Const", "attr": {"dtype": {"type": "DT_FLOAT"}, "value": {"tensor": {"dtype": "DT_FLOAT", "tensorShape": {"dim": [{"size": "1"}, {"size": "1"}, {"size": "144"}, {"size": "48"}]}}}}}, {"name": "decoder/feature_projection0/Conv2D_bn_offset", "op": "Const", "attr": {"value": {"tensor": {"dtype": "DT_FLOAT", "tensorShape": {"dim": [{"size": "48"}]}}}, "dtype": {"type": "DT_FLOAT"}}}, {"name": "MobilenetV2/expanded_conv_3/expand/Conv2D_weights", "op": "Const", "attr": {"value": {"tensor": {"dtype": "DT_FLOAT", "tensorShape": {"dim": [{"size": "1"}, {"size": "1"}, {"size": "24"}, {"size": "144"}]}}}, "dtype": {"type": "DT_FLOAT"}}}, {"name": "decoder/decoder_conv0_depthwise/depthwise_weights", "op": "Const", "attr": {"dtype": {"type": "DT_FLOAT"}, "value": {"tensor": {"dtype": "DT_FLOAT", "tensorShape": {"dim": [{"size": "3"}, {"size": "3"}, {"size": "304"}, {"size": "1"}]}}}}}, {"name": "MobilenetV2/expanded_conv_3/expand/Conv2D_bn_offset", "op": "Const", "attr": {"dtype": {"type": "DT_FLOAT"}, "value": {"tensor": {"dtype": "DT_FLOAT", "tensorShape": {"dim": [{"size": "144"}]}}}}}, {"name": "MobilenetV2/expanded_conv_3/depthwise/depthwise_weights", "op": "Const", "attr": {"value": {"tensor": {"dtype": "DT_FLOAT", "tensorShape": {"dim": [{"size": "3"}, {"size": "3"}, {"size": "144"}, {"size": "1"}]}}}, "dtype": {"type": "DT_FLOAT"}}}, {"name": "MobilenetV2/expanded_conv_3/depthwise/depthwise_bn_offset", "op": "Const", "attr": {"value": {"tensor": {"dtype": "DT_FLOAT", "tensorShape": {"dim": [{"size": "144"}]}}}, "dtype": {"type": "DT_FLOAT"}}}, {"name": "MobilenetV2/expanded_conv_3/project/Conv2D_weights", "op": "Const", "attr": {"dtype": {"type": "DT_FLOAT"}, "value": {"tensor": {"dtype": "DT_FLOAT", "tensorShape": {"dim": [{"size": "1"}, {"size": "1"}, {"size": "144"}, {"size": "32"}]}}}}}, {"name": "decoder/decoder_conv0_depthwise/depthwise_bn_offset", "op": "Const", "attr": {"dtype": {"type": "DT_FLOAT"}, "value": {"tensor": {"dtype": "DT_FLOAT", "tensorShape": {"dim": [{"size": "304"}]}}}}}, {"name": "MobilenetV2/expanded_conv_3/project/Conv2D_bn_offset", "op": "Const", "attr": {"dtype": {"type": "DT_FLOAT"}, "value": {"tensor": {"dtype": "DT_FLOAT", "tensorShape": {"dim": [{"size": "32"}]}}}}}, {"name": "MobilenetV2/expanded_conv_4/expand/Conv2D_weights", "op": "Const", "attr": {"dtype": {"type": "DT_FLOAT"}, "value": {"tensor": {"dtype": "DT_FLOAT", "tensorShape": {"dim": [{"size": "1"}, {"size": "1"}, {"size": "32"}, {"size": "192"}]}}}}}, {"name": "MobilenetV2/expanded_conv_4/expand/Conv2D_bn_offset", "op": "Const", "attr": {"dtype": {"type": "DT_FLOAT"}, "value": {"tensor": {"dtype": "DT_FLOAT", "tensorShape": {"dim": [{"size": "192"}]}}}}}, {"name": "MobilenetV2/expanded_conv_4/depthwise/depthwise_weights", "op": "Const", "attr": {"dtype": {"type": "DT_FLOAT"}, "value": {"tensor": {"dtype": "DT_FLOAT", "tensorShape": {"dim": [{"size": "3"}, {"size": "3"}, {"size": "192"}, {"size": "1"}]}}}}}, {"name": "MobilenetV2/expanded_conv_4/depthwise/depthwise_bn_offset", "op": "Const", "attr": {"dtype": {"type": "DT_FLOAT"}, "value": {"tensor": {"dtype": "DT_FLOAT", "tensorShape": {"dim": [{"size": "192"}]}}}}}, {"name": "MobilenetV2/expanded_conv_4/project/Conv2D_weights", "op": "Const", "attr": {"dtype": {"type": "DT_FLOAT"}, "value": {"tensor": {"dtype": "DT_FLOAT", "tensorShape": {"dim": [{"size": "1"}, {"size": "1"}, {"size": "192"}, {"size": "32"}]}}}}}, {"name": "decoder/decoder_conv0_pointwise/Conv2D_weights", "op": "Const", "attr": {"dtype": {"type": "DT_FLOAT"}, "value": {"tensor": {"dtype": "DT_FLOAT", "tensorShape": {"dim": [{"size": "1"}, {"size": "1"}, {"size": "304"}, {"size": "256"}]}}}}}, {"name": "MobilenetV2/expanded_conv_4/project/Conv2D_bn_offset", "op": "Const", "attr": {"value": {"tensor": {"dtype": "DT_FLOAT", "tensorShape": {"dim": [{"size": "32"}]}}}, "dtype": {"type": "DT_FLOAT"}}}, {"name": "MobilenetV2/expanded_conv_5/expand/Conv2D_weights", "op": "Const", "attr": {"dtype": {"type": "DT_FLOAT"}, "value": {"tensor": {"dtype": "DT_FLOAT", "tensorShape": {"dim": [{"size": "1"}, {"size": "1"}, {"size": "32"}, {"size": "192"}]}}}}}, {"name": "MobilenetV2/expanded_conv_5/expand/Conv2D_bn_offset", "op": "Const", "attr": {"value": {"tensor": {"dtype": "DT_FLOAT", "tensorShape": {"dim": [{"size": "192"}]}}}, "dtype": {"type": "DT_FLOAT"}}}, {"name": "decoder/decoder_conv0_pointwise/Conv2D_bn_offset", "op": "Const", "attr": {"dtype": {"type": "DT_FLOAT"}, "value": {"tensor": {"dtype": "DT_FLOAT", "tensorShape": {"dim": [{"size": "256"}]}}}}}, {"name": "MobilenetV2/expanded_conv_5/depthwise/depthwise_weights", "op": "Const", "attr": {"dtype": {"type": "DT_FLOAT"}, "value": {"tensor": {"dtype": "DT_FLOAT", "tensorShape": {"dim": [{"size": "3"}, {"size": "3"}, {"size": "192"}, {"size": "1"}]}}}}}, {"name": "MobilenetV2/expanded_conv_5/depthwise/depthwise_bn_offset", "op": "Const", "attr": {"dtype": {"type": "DT_FLOAT"}, "value": {"tensor": {"dtype": "DT_FLOAT", "tensorShape": {"dim": [{"size": "192"}]}}}}}, {"name": "MobilenetV2/expanded_conv_5/project/Conv2D_weights", "op": "Const", "attr": {"dtype": {"type": "DT_FLOAT"}, "value": {"tensor": {"dtype": "DT_FLOAT", "tensorShape": {"dim": [{"size": "1"}, {"size": "1"}, {"size": "192"}, {"size": "32"}]}}}}}, {"name": "MobilenetV2/expanded_conv_14/depthwise/BatchNorm/FusedBatchNormV3/Scaled", "op": "Const", "attr": {"value": {"tensor": {"dtype": "DT_FLOAT", "tensorShape": {"dim": [{"size": "960"}]}}}, "dtype": {"type": "DT_FLOAT"}}}, {"name": "MobilenetV2/expanded_conv_5/project/Conv2D_bn_offset", "op": "Const", "attr": {"dtype": {"type": "DT_FLOAT"}, "value": {"tensor": {"dtype": "DT_FLOAT", "tensorShape": {"dim": [{"size": "32"}]}}}}}, {"name": "MobilenetV2/expanded_conv_6/expand/Conv2D_weights", "op": "Const", "attr": {"dtype": {"type": "DT_FLOAT"}, "value": {"tensor": {"dtype": "DT_FLOAT", "tensorShape": {"dim": [{"size": "1"}, {"size": "1"}, {"size": "32"}, {"size": "192"}]}}}}}, {"name": "MobilenetV2/expanded_conv_6/expand/Conv2D_bn_offset", "op": "Const", "attr": {"dtype": {"type": "DT_FLOAT"}, "value": {"tensor": {"dtype": "DT_FLOAT", "tensorShape": {"dim": [{"size": "192"}]}}}}}, {"name": "decoder/decoder_conv1_depthwise/depthwise_weights", "op": "Const", "attr": {"dtype": {"type": "DT_FLOAT"}, "value": {"tensor": {"dtype": "DT_FLOAT", "tensorShape": {"dim": [{"size": "3"}, {"size": "3"}, {"size": "256"}, {"size": "1"}]}}}}}, {"name": "MobilenetV2/expanded_conv_6/depthwise/depthwise_weights", "op": "Const", "attr": {"dtype": {"type": "DT_FLOAT"}, "value": {"tensor": {"dtype": "DT_FLOAT", "tensorShape": {"dim": [{"size": "3"}, {"size": "3"}, {"size": "192"}, {"size": "1"}]}}}}}, {"name": "MobilenetV2/expanded_conv_6/depthwise/depthwise_bn_offset", "op": "Const", "attr": {"dtype": {"type": "DT_FLOAT"}, "value": {"tensor": {"dtype": "DT_FLOAT", "tensorShape": {"dim": [{"size": "192"}]}}}}}, {"name": "MobilenetV2/expanded_conv_6/project/Conv2D_weights", "op": "Const", "attr": {"dtype": {"type": "DT_FLOAT"}, "value": {"tensor": {"dtype": "DT_FLOAT", "tensorShape": {"dim": [{"size": "1"}, {"size": "1"}, {"size": "192"}, {"size": "64"}]}}}}}, {"name": "MobilenetV2/expanded_conv_6/project/Conv2D_bn_offset", "op": "Const", "attr": {"dtype": {"type": "DT_FLOAT"}, "value": {"tensor": {"dtype": "DT_FLOAT", "tensorShape": {"dim": [{"size": "64"}]}}}}}, {"name": "MobilenetV2/expanded_conv_7/expand/Conv2D_weights", "op": "Const", "attr": {"dtype": {"type": "DT_FLOAT"}, "value": {"tensor": {"dtype": "DT_FLOAT", "tensorShape": {"dim": [{"size": "1"}, {"size": "1"}, {"size": "64"}, {"size": "384"}]}}}}}, {"name": "decoder/decoder_conv1_depthwise/depthwise_bn_offset", "op": "Const", "attr": {"value": {"tensor": {"dtype": "DT_FLOAT", "tensorShape": {"dim": [{"size": "256"}]}}}, "dtype": {"type": "DT_FLOAT"}}}, {"name": "MobilenetV2/expanded_conv_7/expand/Conv2D_bn_offset", "op": "Const", "attr": {"value": {"tensor": {"dtype": "DT_FLOAT", "tensorShape": {"dim": [{"size": "384"}]}}}, "dtype": {"type": "DT_FLOAT"}}}, {"name": "MobilenetV2/expanded_conv_7/depthwise/depthwise_weights", "op": "Const", "attr": {"dtype": {"type": "DT_FLOAT"}, "value": {"tensor": {"dtype": "DT_FLOAT", "tensorShape": {"dim": [{"size": "3"}, {"size": "3"}, {"size": "384"}, {"size": "1"}]}}}}}, {"name": "MobilenetV2/expanded_conv_7/depthwise/depthwise_bn_offset", "op": "Const", "attr": {"dtype": {"type": "DT_FLOAT"}, "value": {"tensor": {"dtype": "DT_FLOAT", "tensorShape": {"dim": [{"size": "384"}]}}}}}, {"name": "MobilenetV2/expanded_conv_7/project/Conv2D_weights", "op": "Const", "attr": {"dtype": {"type": "DT_FLOAT"}, "value": {"tensor": {"dtype": "DT_FLOAT", "tensorShape": {"dim": [{"size": "1"}, {"size": "1"}, {"size": "384"}, {"size": "64"}]}}}}}, {"name": "MobilenetV2/expanded_conv_7/project/Conv2D_bn_offset", "op": "Const", "attr": {"dtype": {"type": "DT_FLOAT"}, "value": {"tensor": {"dtype": "DT_FLOAT", "tensorShape": {"dim": [{"size": "64"}]}}}}}, {"name": "MobilenetV2/expanded_conv_8/expand/Conv2D_weights", "op": "Const", "attr": {"value": {"tensor": {"dtype": "DT_FLOAT", "tensorShape": {"dim": [{"size": "1"}, {"size": "1"}, {"size": "64"}, {"size": "384"}]}}}, "dtype": {"type": "DT_FLOAT"}}}, {"name": "decoder/decoder_conv1_pointwise/Conv2D_weights", "op": "Const", "attr": {"value": {"tensor": {"dtype": "DT_FLOAT", "tensorShape": {"dim": [{"size": "1"}, {"size": "1"}, {"size": "256"}, {"size": "256"}]}}}, "dtype": {"type": "DT_FLOAT"}}}, {"name": "MobilenetV2/expanded_conv_8/expand/Conv2D_bn_offset", "op": "Const", "attr": {"dtype": {"type": "DT_FLOAT"}, "value": {"tensor": {"dtype": "DT_FLOAT", "tensorShape": {"dim": [{"size": "384"}]}}}}}, {"name": "MobilenetV2/expanded_conv_8/depthwise/depthwise_weights", "op": "Const", "attr": {"dtype": {"type": "DT_FLOAT"}, "value": {"tensor": {"dtype": "DT_FLOAT", "tensorShape": {"dim": [{"size": "3"}, {"size": "3"}, {"size": "384"}, {"size": "1"}]}}}}}, {"name": "MobilenetV2/expanded_conv_8/depthwise/depthwise_bn_offset", "op": "Const", "attr": {"dtype": {"type": "DT_FLOAT"}, "value": {"tensor": {"dtype": "DT_FLOAT", "tensorShape": {"dim": [{"size": "384"}]}}}}}, {"name": "MobilenetV2/expanded_conv_8/project/Conv2D_weights", "op": "Const", "attr": {"dtype": {"type": "DT_FLOAT"}, "value": {"tensor": {"dtype": "DT_FLOAT", "tensorShape": {"dim": [{"size": "1"}, {"size": "1"}, {"size": "384"}, {"size": "64"}]}}}}}, {"name": "decoder/decoder_conv1_pointwise/Conv2D_bn_offset", "op": "Const", "attr": {"dtype": {"type": "DT_FLOAT"}, "value": {"tensor": {"dtype": "DT_FLOAT", "tensorShape": {"dim": [{"size": "256"}]}}}}}, {"name": "MobilenetV2/expanded_conv_8/project/Conv2D_bn_offset", "op": "Const", "attr": {"dtype": {"type": "DT_FLOAT"}, "value": {"tensor": {"dtype": "DT_FLOAT", "tensorShape": {"dim": [{"size": "64"}]}}}}}, {"name": "MobilenetV2/expanded_conv_9/expand/Conv2D_weights", "op": "Const", "attr": {"dtype": {"type": "DT_FLOAT"}, "value": {"tensor": {"dtype": "DT_FLOAT", "tensorShape": {"dim": [{"size": "1"}, {"size": "1"}, {"size": "64"}, {"size": "384"}]}}}}}, {"name": "MobilenetV2/expanded_conv_9/expand/Conv2D_bn_offset", "op": "Const", "attr": {"value": {"tensor": {"dtype": "DT_FLOAT", "tensorShape": {"dim": [{"size": "384"}]}}}, "dtype": {"type": "DT_FLOAT"}}}, {"name": "MobilenetV2/expanded_conv_9/depthwise/depthwise_weights", "op": "Const", "attr": {"value": {"tensor": {"dtype": "DT_FLOAT", "tensorShape": {"dim": [{"size": "3"}, {"size": "3"}, {"size": "384"}, {"size": "1"}]}}}, "dtype": {"type": "DT_FLOAT"}}}, {"name": "MobilenetV2/expanded_conv_9/depthwise/depthwise_bn_offset", "op": "Const", "attr": {"dtype": {"type": "DT_FLOAT"}, "value": {"tensor": {"dtype": "DT_FLOAT", "tensorShape": {"dim": [{"size": "384"}]}}}}}, {"name": "MobilenetV2/expanded_conv_9/project/Conv2D_weights", "op": "Const", "attr": {"dtype": {"type": "DT_FLOAT"}, "value": {"tensor": {"dtype": "DT_FLOAT", "tensorShape": {"dim": [{"size": "1"}, {"size": "1"}, {"size": "384"}, {"size": "64"}]}}}}}, {"name": "MobilenetV2/expanded_conv_14/depthwise/BatchNorm/FusedBatchNormV3/Offset", "op": "Const", "attr": {"dtype": {"type": "DT_FLOAT"}, "value": {"tensor": {"dtype": "DT_FLOAT", "tensorShape": {"dim": [{"size": "960"}]}}}}}, {"name": "MobilenetV2/expanded_conv_9/project/Conv2D_bn_offset", "op": "Const", "attr": {"value": {"tensor": {"dtype": "DT_FLOAT", "tensorShape": {"dim": [{"size": "64"}]}}}, "dtype": {"type": "DT_FLOAT"}}}, {"name": "MobilenetV2/expanded_conv_10/expand/Conv2D_weights", "op": "Const", "attr": {"value": {"tensor": {"dtype": "DT_FLOAT", "tensorShape": {"dim": [{"size": "1"}, {"size": "1"}, {"size": "64"}, {"size": "384"}]}}}, "dtype": {"type": "DT_FLOAT"}}}, {"name": "MobilenetV2/expanded_conv_10/expand/Conv2D_bn_offset", "op": "Const", "attr": {"dtype": {"type": "DT_FLOAT"}, "value": {"tensor": {"dtype": "DT_FLOAT", "tensorShape": {"dim": [{"size": "384"}]}}}}}, {"name": "MobilenetV2/expanded_conv_10/depthwise/depthwise_weights", "op": "Const", "attr": {"value": {"tensor": {"dtype": "DT_FLOAT", "tensorShape": {"dim": [{"size": "3"}, {"size": "3"}, {"size": "384"}, {"size": "1"}]}}}, "dtype": {"type": "DT_FLOAT"}}}, {"name": "MobilenetV2/expanded_conv_10/depthwise/depthwise_bn_offset", "op": "Const", "attr": {"dtype": {"type": "DT_FLOAT"}, "value": {"tensor": {"dtype": "DT_FLOAT", "tensorShape": {"dim": [{"size": "384"}]}}}}}, {"name": "MobilenetV2/expanded_conv_10/project/Conv2D_weights", "op": "Const", "attr": {"value": {"tensor": {"dtype": "DT_FLOAT", "tensorShape": {"dim": [{"size": "1"}, {"size": "1"}, {"size": "384"}, {"size": "96"}]}}}, "dtype": {"type": "DT_FLOAT"}}}, {"name": "MobilenetV2/expanded_conv_10/project/Conv2D_bn_offset", "op": "Const", "attr": {"dtype": {"type": "DT_FLOAT"}, "value": {"tensor": {"dtype": "DT_FLOAT", "tensorShape": {"dim": [{"size": "96"}]}}}}}, {"name": "MobilenetV2/expanded_conv_11/expand/Conv2D_weights", "op": "Const", "attr": {"dtype": {"type": "DT_FLOAT"}, "value": {"tensor": {"dtype": "DT_FLOAT", "tensorShape": {"dim": [{"size": "1"}, {"size": "1"}, {"size": "96"}, {"size": "576"}]}}}}}, {"name": "MobilenetV2/expanded_conv_11/expand/Conv2D_bn_offset", "op": "Const", "attr": {"dtype": {"type": "DT_FLOAT"}, "value": {"tensor": {"dtype": "DT_FLOAT", "tensorShape": {"dim": [{"size": "576"}]}}}}}, {"name": "MobilenetV2/expanded_conv_11/depthwise/depthwise_weights", "op": "Const", "attr": {"dtype": {"type": "DT_FLOAT"}, "value": {"tensor": {"dtype": "DT_FLOAT", "tensorShape": {"dim": [{"size": "3"}, {"size": "3"}, {"size": "576"}, {"size": "1"}]}}}}}, {"name": "MobilenetV2/expanded_conv_11/depthwise/depthwise_bn_offset", "op": "Const", "attr": {"dtype": {"type": "DT_FLOAT"}, "value": {"tensor": {"dtype": "DT_FLOAT", "tensorShape": {"dim": [{"size": "576"}]}}}}}, {"name": "MobilenetV2/expanded_conv_11/project/Conv2D_weights", "op": "Const", "attr": {"dtype": {"type": "DT_FLOAT"}, "value": {"tensor": {"dtype": "DT_FLOAT", "tensorShape": {"dim": [{"size": "1"}, {"size": "1"}, {"size": "576"}, {"size": "96"}]}}}}}, {"name": "MobilenetV2/expanded_conv_11/project/Conv2D_bn_offset", "op": "Const", "attr": {"dtype": {"type": "DT_FLOAT"}, "value": {"tensor": {"dtype": "DT_FLOAT", "tensorShape": {"dim": [{"size": "96"}]}}}}}, {"name": "MobilenetV2/expanded_conv_12/expand/Conv2D_weights", "op": "Const", "attr": {"dtype": {"type": "DT_FLOAT"}, "value": {"tensor": {"dtype": "DT_FLOAT", "tensorShape": {"dim": [{"size": "1"}, {"size": "1"}, {"size": "96"}, {"size": "576"}]}}}}}, {"name": "MobilenetV2/expanded_conv_12/expand/Conv2D_bn_offset", "op": "Const", "attr": {"dtype": {"type": "DT_FLOAT"}, "value": {"tensor": {"dtype": "DT_FLOAT", "tensorShape": {"dim": [{"size": "576"}]}}}}}, {"name": "MobilenetV2/expanded_conv_12/depthwise/depthwise_weights", "op": "Const", "attr": {"dtype": {"type": "DT_FLOAT"}, "value": {"tensor": {"dtype": "DT_FLOAT", "tensorShape": {"dim": [{"size": "3"}, {"size": "3"}, {"size": "576"}, {"size": "1"}]}}}}}, {"name": "MobilenetV2/expanded_conv_12/depthwise/depthwise_bn_offset", "op": "Const", "attr": {"dtype": {"type": "DT_FLOAT"}, "value": {"tensor": {"dtype": "DT_FLOAT", "tensorShape": {"dim": [{"size": "576"}]}}}}}, {"name": "MobilenetV2/expanded_conv_12/project/Conv2D_weights", "op": "Const", "attr": {"value": {"tensor": {"dtype": "DT_FLOAT", "tensorShape": {"dim": [{"size": "1"}, {"size": "1"}, {"size": "576"}, {"size": "96"}]}}}, "dtype": {"type": "DT_FLOAT"}}}, {"name": "MobilenetV2/expanded_conv_12/project/Conv2D_bn_offset", "op": "Const", "attr": {"value": {"tensor": {"dtype": "DT_FLOAT", "tensorShape": {"dim": [{"size": "96"}]}}}, "dtype": {"type": "DT_FLOAT"}}}, {"name": "MobilenetV2/expanded_conv_13/expand/Conv2D_weights", "op": "Const", "attr": {"value": {"tensor": {"dtype": "DT_FLOAT", "tensorShape": {"dim": [{"size": "1"}, {"size": "1"}, {"size": "96"}, {"size": "576"}]}}}, "dtype": {"type": "DT_FLOAT"}}}, {"name": "MobilenetV2/expanded_conv_13/expand/Conv2D_bn_offset", "op": "Const", "attr": {"value": {"tensor": {"dtype": "DT_FLOAT", "tensorShape": {"dim": [{"size": "576"}]}}}, "dtype": {"type": "DT_FLOAT"}}}, {"name": "MobilenetV2/expanded_conv_13/depthwise/depthwise_weights", "op": "Const", "attr": {"value": {"tensor": {"dtype": "DT_FLOAT", "tensorShape": {"dim": [{"size": "3"}, {"size": "3"}, {"size": "576"}, {"size": "1"}]}}}, "dtype": {"type": "DT_FLOAT"}}}, {"name": "MobilenetV2/expanded_conv_13/depthwise/depthwise_bn_offset", "op": "Const", "attr": {"value": {"tensor": {"dtype": "DT_FLOAT", "tensorShape": {"dim": [{"size": "576"}]}}}, "dtype": {"type": "DT_FLOAT"}}}, {"name": "MobilenetV2/expanded_conv_13/project/Conv2D_weights", "op": "Const", "attr": {"dtype": {"type": "DT_FLOAT"}, "value": {"tensor": {"dtype": "DT_FLOAT", "tensorShape": {"dim": [{"size": "1"}, {"size": "1"}, {"size": "576"}, {"size": "160"}]}}}}}, {"name": "MobilenetV2/expanded_conv_13/project/Conv2D_bn_offset", "op": "Const", "attr": {"value": {"tensor": {"dtype": "DT_FLOAT", "tensorShape": {"dim": [{"size": "160"}]}}}, "dtype": {"type": "DT_FLOAT"}}}, {"name": "MobilenetV2/expanded_conv_14/expand/Conv2D_weights", "op": "Const", "attr": {"dtype": {"type": "DT_FLOAT"}, "value": {"tensor": {"dtype": "DT_FLOAT", "tensorShape": {"dim": [{"size": "1"}, {"size": "1"}, {"size": "160"}, {"size": "960"}]}}}}}, {"name": "MobilenetV2/expanded_conv_14/expand/Conv2D_bn_offset", "op": "Const", "attr": {"value": {"tensor": {"dtype": "DT_FLOAT", "tensorShape": {"dim": [{"size": "960"}]}}}, "dtype": {"type": "DT_FLOAT"}}}, {"name": "MobilenetV2/expanded_conv_14/project/Conv2D_weights", "op": "Const", "attr": {"dtype": {"type": "DT_FLOAT"}, "value": {"tensor": {"dtype": "DT_FLOAT", "tensorShape": {"dim": [{"size": "1"}, {"size": "1"}, {"size": "960"}, {"size": "160"}]}}}}}, {"name": "MobilenetV2/expanded_conv_16/depthwise/BatchNorm/FusedBatchNormV3/Scaled", "op": "Const", "attr": {"value": {"tensor": {"dtype": "DT_FLOAT", "tensorShape": {"dim": [{"size": "960"}]}}}, "dtype": {"type": "DT_FLOAT"}}}, {"name": "MobilenetV2/expanded_conv_14/project/Conv2D_bn_offset", "op": "Const", "attr": {"dtype": {"type": "DT_FLOAT"}, "value": {"tensor": {"dtype": "DT_FLOAT", "tensorShape": {"dim": [{"size": "160"}]}}}}}, {"name": "MobilenetV2/expanded_conv_15/expand/Conv2D_weights", "op": "Const", "attr": {"dtype": {"type": "DT_FLOAT"}, "value": {"tensor": {"dtype": "DT_FLOAT", "tensorShape": {"dim": [{"size": "1"}, {"size": "1"}, {"size": "160"}, {"size": "960"}]}}}}}, {"name": "MobilenetV2/expanded_conv_15/expand/Conv2D_bn_offset", "op": "Const", "attr": {"dtype": {"type": "DT_FLOAT"}, "value": {"tensor": {"dtype": "DT_FLOAT", "tensorShape": {"dim": [{"size": "960"}]}}}}}, {"name": "MobilenetV2/expanded_conv_15/project/Conv2D_weights", "op": "Const", "attr": {"value": {"tensor": {"dtype": "DT_FLOAT", "tensorShape": {"dim": [{"size": "1"}, {"size": "1"}, {"size": "960"}, {"size": "160"}]}}}, "dtype": {"type": "DT_FLOAT"}}}, {"name": "MobilenetV2/expanded_conv_16/depthwise/BatchNorm/FusedBatchNormV3/Offset", "op": "Const", "attr": {"dtype": {"type": "DT_FLOAT"}, "value": {"tensor": {"dtype": "DT_FLOAT", "tensorShape": {"dim": [{"size": "960"}]}}}}}, {"name": "MobilenetV2/expanded_conv_15/project/Conv2D_bn_offset", "op": "Const", "attr": {"dtype": {"type": "DT_FLOAT"}, "value": {"tensor": {"dtype": "DT_FLOAT", "tensorShape": {"dim": [{"size": "160"}]}}}}}, {"name": "MobilenetV2/expanded_conv_16/expand/Conv2D_weights", "op": "Const", "attr": {"dtype": {"type": "DT_FLOAT"}, "value": {"tensor": {"dtype": "DT_FLOAT", "tensorShape": {"dim": [{"size": "1"}, {"size": "1"}, {"size": "160"}, {"size": "960"}]}}}}}, {"name": "MobilenetV2/expanded_conv_16/expand/Conv2D_bn_offset", "op": "Const", "attr": {"dtype": {"type": "DT_FLOAT"}, "value": {"tensor": {"dtype": "DT_FLOAT", "tensorShape": {"dim": [{"size": "960"}]}}}}}, {"name": "MobilenetV2/expanded_conv_16/project/Conv2D_weights", "op": "Const", "attr": {"value": {"tensor": {"dtype": "DT_FLOAT", "tensorShape": {"dim": [{"size": "1"}, {"size": "1"}, {"size": "960"}, {"size": "320"}]}}}, "dtype": {"type": "DT_FLOAT"}}}, {"name": "MobilenetV2/expanded_conv_16/project/Conv2D_bn_offset", "op": "Const", "attr": {"value": {"tensor": {"dtype": "DT_FLOAT", "tensorShape": {"dim": [{"size": "320"}]}}}, "dtype": {"type": "DT_FLOAT"}}}, {"name": "aspp0/Conv2D_weights", "op": "Const", "attr": {"value": {"tensor": {"dtype": "DT_FLOAT", "tensorShape": {"dim": [{"size": "1"}, {"size": "1"}, {"size": "320"}, {"size": "256"}]}}}, "dtype": {"type": "DT_FLOAT"}}}, {"name": "MobilenetV2/expanded_conv_15/depthwise/BatchNorm/FusedBatchNormV3/Scaled", "op": "Const", "attr": {"dtype": {"type": "DT_FLOAT"}, "value": {"tensor": {"dtype": "DT_FLOAT", "tensorShape": {"dim": [{"size": "960"}]}}}}}, {"name": "aspp0/Conv2D_bn_offset", "op": "Const", "attr": {"value": {"tensor": {"dtype": "DT_FLOAT", "tensorShape": {"dim": [{"size": "256"}]}}}, "dtype": {"type": "DT_FLOAT"}}}, {"name": "image_pooling/Conv2D_weights", "op": "Const", "attr": {"dtype": {"type": "DT_FLOAT"}, "value": {"tensor": {"dtype": "DT_FLOAT", "tensorShape": {"dim": [{"size": "1"}, {"size": "1"}, {"size": "320"}, {"size": "256"}]}}}}}, {"name": "image_pooling/Conv2D_bn_offset", "op": "Const", "attr": {"dtype": {"type": "DT_FLOAT"}, "value": {"tensor": {"dtype": "DT_FLOAT", "tensorShape": {"dim": [{"size": "256"}]}}}}}, {"name": "Squeeze", "op": "Squeeze", "input": ["ImageTensor"], "attr": {"T": {"type": "DT_UINT8"}, "squeeze_dims": {"list": {"i": ["0"]}}}}, {"name": "Shape", "op": "Shape", "input": ["ImageTensor"], "attr": {"out_type": {"type": "DT_INT32"}, "T": {"type": "DT_UINT8"}}}, {"name": "Cast", "op": "Cast", "input": ["Squeeze"], "attr": {"SrcT": {"type": "DT_UINT8"}, "DstT": {"type": "DT_FLOAT"}, "Truncate": {"b": false}}}, {"name": "Shape_2", "op": "Shape", "input": ["Squeeze"], "attr": {"out_type": {"type": "DT_INT32"}, "T": {"type": "DT_UINT8"}}}, {"name": "strided_slice", "op": "StridedSlice", "input": ["Shape", "strided_slice/stack", "strided_slice/stack_1", "strided_slice/stack_2"], "attr": {"end_mask": {"i": "0"}, "begin_mask": {"i": "0"}, "T": {"type": "DT_INT32"}, "ellipsis_mask": {"i": "0"}, "Index": {"type": "DT_INT32"}, "shrink_axis_mask": {"i": "0"}, "new_axis_mask": {"i": "0"}}}, {"name": "pad_to_bounding_box/sub", "op": "Sub", "input": ["Cast", "Reshape"], "attr": {"T": {"type": "DT_FLOAT"}}}, {"name": "Shape_1", "op": "Shape", "input": ["Cast"], "attr": {"out_type": {"type": "DT_INT32"}, "T": {"type": "DT_FLOAT"}}}, {"name": "strided_slice_3", "op": "StridedSlice", "input": ["Shape_2", "strided_slice_3/stack", "strided_slice_3/stack_1", "strided_slice_3/stack_2"], "attr": {"end_mask": {"i": "0"}, "begin_mask": {"i": "1"}, "T": {"type": "DT_INT32"}, "shrink_axis_mask": {"i": "0"}, "ellipsis_mask": {"i": "0"}, "Index": {"type": "DT_INT32"}, "new_axis_mask": {"i": "0"}}}, {"name": "pad_to_bounding_box/ExpandDims", "op": "ExpandDims", "input": ["pad_to_bounding_box/sub", "pad_to_bounding_box/ExpandDims/dim"], "attr": {"T": {"type": "DT_FLOAT"}, "Tdim": {"type": "DT_INT32"}}}, {"name": "strided_slice_1", "op": "StridedSlice", "input": ["Shape_1", "strided_slice_1/stack", "strided_slice_1/stack_1", "strided_slice_1/stack_2"], "attr": {"end_mask": {"i": "0"}, "begin_mask": {"i": "0"}, "T": {"type": "DT_INT32"}, "shrink_axis_mask": {"i": "1"}, "ellipsis_mask": {"i": "0"}, "Index": {"type": "DT_INT32"}, "new_axis_mask": {"i": "0"}}}, {"name": "strided_slice_2", "op": "StridedSlice", "input": ["Shape_1", "strided_slice_2/stack", "strided_slice_2/stack_1", "strided_slice_2/stack_2"], "attr": {"end_mask": {"i": "0"}, "begin_mask": {"i": "0"}, "Index": {"type": "DT_INT32"}, "new_axis_mask": {"i": "0"}, "shrink_axis_mask": {"i": "1"}, "T": {"type": "DT_INT32"}, "ellipsis_mask": {"i": "0"}}}, {"name": "strided_slice_5", "op": "StridedSlice", "input": ["strided_slice_3", "strided_slice_5/stack", "strided_slice_5/stack_1", "strided_slice_5/stack_2"], "attr": {"end_mask": {"i": "0"}, "begin_mask": {"i": "0"}, "T": {"type": "DT_INT32"}, "shrink_axis_mask": {"i": "1"}, "ellipsis_mask": {"i": "0"}, "Index": {"type": "DT_INT32"}, "new_axis_mask": {"i": "0"}}}, {"name": "strided_slice_6", "op": "StridedSlice", "input": ["strided_slice_3", "strided_slice_6/stack", "strided_slice_6/stack_1", "strided_slice_6/stack_2"], "attr": {"new_axis_mask": {"i": "0"}, "begin_mask": {"i": "0"}, "Index": {"type": "DT_INT32"}, "shrink_axis_mask": {"i": "1"}, "T": {"type": "DT_INT32"}, "ellipsis_mask": {"i": "0"}, "end_mask": {"i": "0"}}}, {"name": "pad_to_bounding_box/Shape", "op": "Shape", "input": ["pad_to_bounding_box/ExpandDims"], "attr": {"out_type": {"type": "DT_INT32"}, "T": {"type": "DT_FLOAT"}}}, {"name": "sub", "op": "Sub", "input": ["sub/x", "strided_slice_1"], "attr": {"T": {"type": "DT_INT32"}}}, {"name": "Cast_5", "op": "Cast", "input": ["strided_slice_1"], "attr": {"SrcT": {"type": "DT_INT32"}, "DstT": {"type": "DT_FLOAT"}, "Truncate": {"b": false}}}, {"name": "Cast_2", "op": "Cast", "input": ["strided_slice_1"], "attr": {"DstT": {"type": "DT_FLOAT"}, "Truncate": {"b": false}, "SrcT": {"type": "DT_INT32"}}}, {"name": "sub_1", "op": "Sub", "input": ["sub_1/x", "strided_slice_2"], "attr": {"T": {"type": "DT_INT32"}}}, {"name": "Cast_6", "op": "Cast", "input": ["strided_slice_2"], "attr": {"Truncate": {"b": false}, "DstT": {"type": "DT_FLOAT"}, "SrcT": {"type": "DT_INT32"}}}, {"name": "Cast_4", "op": "Cast", "input": ["strided_slice_2"], "attr": {"DstT": {"type": "DT_FLOAT"}, "Truncate": {"b": false}, "SrcT": {"type": "DT_INT32"}}}, {"name": "strided_slice_7/stack_1", "op": "Pack", "input": ["strided_slice_7/stack_1/0", "strided_slice_5", "strided_slice_6"], "attr": {"T": {"type": "DT_INT32"}, "N": {"i": "3"}, "axis": {"i": "0"}}}, {"name": "pad_to_bounding_box/unstack", "op": "Unpack", "input": ["pad_to_bounding_box/Shape"], "attr": {"num": {"i": "4"}, "T": {"type": "DT_INT32"}, "axis": {"i": "0"}}}, {"name": "Maximum", "op": "Maximum", "input": ["sub", "Maximum/y"], "attr": {"T": {"type": "DT_INT32"}}}, {"name": "truediv", "op": "RealDiv", "input": ["Cast_1", "Cast_2"], "attr": {"T": {"type": "DT_FLOAT"}}}, {"name": "Maximum_1", "op": "Maximum", "input": ["sub_1", "Maximum_1/y"], "attr": {"T": {"type": "DT_INT32"}}}, {"name": "truediv_1", "op": "RealDiv", "input": ["Cast_3", "Cast_4"], "attr": {"T": {"type": "DT_FLOAT"}}}, {"name": "add", "op": "AddV2", "input": ["strided_slice_1", "Maximum"], "attr": {"T": {"type": "DT_INT32"}}}, {"name": "add_1", "op": "AddV2", "input": ["strided_slice_2", "Maximum_1"], "attr": {"T": {"type": "DT_INT32"}}}, {"name": "Minimum", "op": "Minimum", "input": ["truediv", "truediv_1"], "attr": {"T": {"type": "DT_FLOAT"}}}, {"name": "pad_to_bounding_box/sub_4", "op": "Sub", "input": ["add", "pad_to_bounding_box/unstack:1"], "attr": {"T": {"type": "DT_INT32"}}}, {"name": "pad_to_bounding_box/sub_2", "op": "Sub", "input": ["add_1", "pad_to_bounding_box/unstack:2"], "attr": {"T": {"type": "DT_INT32"}}}, {"name": "mul", "op": "Mul", "input": ["Cast_5", "Minimum"], "attr": {"T": {"type": "DT_FLOAT"}}}, {"name": "mul_1", "op": "Mul", "input": ["Cast_6", "Minimum"], "attr": {"T": {"type": "DT_FLOAT"}}}, {"name": "pad_to_bounding_box/stack_1", "op": "Pack", "input": ["pad_to_bounding_box/stack_1/0", "pad_to_bounding_box/sub_4"], "attr": {"N": {"i": "2"}, "axis": {"i": "0"}, "T": {"type": "DT_INT32"}}}, {"name": "pad_to_bounding_box/stack_2", "op": "Pack", "input": ["pad_to_bounding_box/stack_2/0", "pad_to_bounding_box/sub_2"], "attr": {"N": {"i": "2"}, "axis": {"i": "0"}, "T": {"type": "DT_INT32"}}}, {"name": "resize/Cast", "op": "Cast", "input": ["mul"], "attr": {"Truncate": {"b": false}, "DstT": {"type": "DT_INT32"}, "SrcT": {"type": "DT_FLOAT"}}}, {"name": "resize/Cast_1", "op": "Cast", "input": ["mul_1"], "attr": {"SrcT": {"type": "DT_FLOAT"}, "DstT": {"type": "DT_INT32"}, "Truncate": {"b": false}}}, {"name": "pad_to_bounding_box/stack_4", "op": "Pack", "input": ["pad_to_bounding_box/stack", "pad_to_bounding_box/stack_1", "pad_to_bounding_box/stack_2", "pad_to_bounding_box/stack_3"], "attr": {"axis": {"i": "0"}, "T": {"type": "DT_INT32"}, "N": {"i": "4"}}}, {"name": "resize/size", "op": "Pack", "input": ["resize/Cast", "resize/Cast_1"], "attr": {"axis": {"i": "0"}, "T": {"type": "DT_INT32"}, "N": {"i": "2"}}}, {"name": "pad_to_bounding_box/Pad", "op": "Pad", "input": ["pad_to_bounding_box/ExpandDims", "pad_to_bounding_box/stack_4"], "attr": {"Tpaddings": {"type": "DT_INT32"}, "T": {"type": "DT_FLOAT"}}}, {"name": "pad_to_bounding_box/Squeeze", "op": "Squeeze", "input": ["pad_to_bounding_box/Pad"], "attr": {"squeeze_dims": {"list": {"i": ["0"]}}, "T": {"type": "DT_FLOAT"}}}, {"name": "pad_to_bounding_box/add", "op": "AddV2", "input": ["pad_to_bounding_box/Squeeze", "Reshape"], "attr": {"T": {"type": "DT_FLOAT"}}}, {"name": "resize/ExpandDims", "op": "ExpandDims", "input": ["pad_to_bounding_box/add", "resize/ExpandDims/dim"], "attr": {"T": {"type": "DT_FLOAT"}, "Tdim": {"type": "DT_INT32"}}}, {"name": "resize/ResizeBilinear", "op": "ResizeBilinear", "input": ["resize/ExpandDims", "resize/size"], "attr": {"align_corners": {"b": true}, "T": {"type": "DT_FLOAT"}, "half_pixel_centers": {"b": false}}}, {"name": "resize/Squeeze", "op": "Squeeze", "input": ["resize/ResizeBilinear"], "attr": {"squeeze_dims": {"list": {"i": ["0"]}}, "T": {"type": "DT_FLOAT"}}}, {"name": "pad_to_bounding_box_1/sub", "op": "Sub", "input": ["resize/Squeeze", "Reshape"], "attr": {"T": {"type": "DT_FLOAT"}}}, {"name": "pad_to_bounding_box_1/ExpandDims", "op": "ExpandDims", "input": ["pad_to_bounding_box_1/sub", "pad_to_bounding_box_1/ExpandDims/dim"], "attr": {"T": {"type": "DT_FLOAT"}, "Tdim": {"type": "DT_INT32"}}}, {"name": "pad_to_bounding_box_1/Shape", "op": "Shape", "input": ["pad_to_bounding_box_1/ExpandDims"], "attr": {"out_type": {"type": "DT_INT32"}, "T": {"type": "DT_FLOAT"}}}, {"name": "pad_to_bounding_box_1/unstack", "op": "Unpack", "input": ["pad_to_bounding_box_1/Shape"], "attr": {"num": {"i": "4"}, "T": {"type": "DT_INT32"}, "axis": {"i": "0"}}}, {"name": "pad_to_bounding_box_1/sub_2/x", "op": "Const", "input": ["^pad_to_bounding_box_1/unstack"], "attr": {"value": {"tensor": {"dtype": "DT_INT32", "tensorShape": {}}}, "dtype": {"type": "DT_INT32"}}}, {"name": "pad_to_bounding_box_1/sub_1/x", "op": "Const", "input": ["^pad_to_bounding_box_1/unstack"], "attr": {"value": {"tensor": {"dtype": "DT_INT32", "tensorShape": {}}}, "dtype": {"type": "DT_INT32"}}}, {"name": "pad_to_bounding_box_1/sub_2", "op": "Sub", "input": ["pad_to_bounding_box_1/sub_2/x", "pad_to_bounding_box_1/unstack:1"], "attr": {"T": {"type": "DT_INT32"}}}, {"name": "pad_to_bounding_box_1/sub_1", "op": "Sub", "input": ["pad_to_bounding_box_1/sub_1/x", "pad_to_bounding_box_1/unstack:2"], "attr": {"T": {"type": "DT_INT32"}}}, {"name": "pad_to_bounding_box_1/stack_1", "op": "Pack", "input": ["pad_to_bounding_box_1/stack_1/0", "pad_to_bounding_box_1/sub_2"], "attr": {"T": {"type": "DT_INT32"}, "N": {"i": "2"}, "axis": {"i": "0"}}}, {"name": "pad_to_bounding_box_1/stack_2", "op": "Pack", "input": ["pad_to_bounding_box_1/stack_2/0", "pad_to_bounding_box_1/sub_1"], "attr": {"T": {"type": "DT_INT32"}, "N": {"i": "2"}, "axis": {"i": "0"}}}, {"name": "pad_to_bounding_box_1/stack_4", "op": "Pack", "input": ["pad_to_bounding_box_1/stack", "pad_to_bounding_box_1/stack_1", "pad_to_bounding_box_1/stack_2", "pad_to_bounding_box_1/stack_3"], "attr": {"T": {"type": "DT_INT32"}, "axis": {"i": "0"}, "N": {"i": "4"}}}, {"name": "pad_to_bounding_box_1/Pad", "op": "Pad", "input": ["pad_to_bounding_box_1/ExpandDims", "pad_to_bounding_box_1/stack_4"], "attr": {"T": {"type": "DT_FLOAT"}, "Tpaddings": {"type": "DT_INT32"}}}, {"name": "pad_to_bounding_box_1/Squeeze", "op": "Squeeze", "input": ["pad_to_bounding_box_1/Pad"], "attr": {"squeeze_dims": {"list": {"i": ["0"]}}, "T": {"type": "DT_FLOAT"}}}, {"name": "pad_to_bounding_box_1/add", "op": "AddV2", "input": ["pad_to_bounding_box_1/Squeeze", "Reshape"], "attr": {"T": {"type": "DT_FLOAT"}}}, {"name": "ExpandDims", "op": "ExpandDims", "input": ["pad_to_bounding_box_1/add", "ExpandDims/dim"], "attr": {"T": {"type": "DT_FLOAT"}, "Tdim": {"type": "DT_INT32"}}}, {"name": "mul_2", "op": "Mul", "input": ["mul_2/x", "ExpandDims"], "attr": {"T": {"type": "DT_FLOAT"}}}, {"name": "sub_2", "op": "Sub", "input": ["mul_2", "sub_2/y"], "attr": {"T": {"type": "DT_FLOAT"}}}, {"name": "MobilenetV2/Conv/Relu6", "op": "_FusedConv2D", "input": ["sub_2", "MobilenetV2/Conv/Conv2D_weights", "MobilenetV2/Conv/Conv2D_bn_offset"], "device": "/device:CPU:0", "attr": {"num_args": {"i": "1"}, "T": {"type": "DT_FLOAT"}, "explicit_paddings": {"list": {}}, "padding": {"s": "U0FNRQ=="}, "strides": {"list": {"i": ["1", "2", "2", "1"]}}, "data_format": {"s": "TkhXQw=="}, "epsilon": {"f": 0.0}, "dilations": {"list": {"i": ["1", "1", "1", "1"]}}, "fused_ops": {"list": {"s": ["Qmlhc0FkZA==", "UmVsdTY="]}}, "use_cudnn_on_gpu": {"b": true}}}, {"name": "MobilenetV2/expanded_conv/depthwise/depthwise", "op": "FusedDepthwiseConv2dNative", "input": ["MobilenetV2/Conv/Relu6", "MobilenetV2/expanded_conv/depthwise/depthwise_weights", "MobilenetV2/expanded_conv/depthwise/depthwise_bn_offset"], "attr": {"strides": {"list": {"i": ["1", "1", "1", "1"]}}, "dilations": {"list": {"i": ["1", "1", "1", "1"]}}, "data_format": {"s": "TkhXQw=="}, "fused_ops": {"list": {"s": ["Qmlhc0FkZA==", "UmVsdTY="]}}, "explicit_paddings": {"list": {}}, "num_args": {"i": "1"}, "T": {"type": "DT_FLOAT"}, "padding": {"s": "U0FNRQ=="}}}, {"name": "MobilenetV2/expanded_conv/project/BatchNorm/FusedBatchNormV3", "op": "_FusedConv2D", "input": ["MobilenetV2/expanded_conv/depthwise/depthwise", "MobilenetV2/expanded_conv/project/Conv2D_weights", "MobilenetV2/expanded_conv/project/Conv2D_bn_offset"], "device": "/device:CPU:0", "attr": {"explicit_paddings": {"list": {}}, "fused_ops": {"list": {"s": ["Qmlhc0FkZA=="]}}, "data_format": {"s": "TkhXQw=="}, "epsilon": {"f": 0.0}, "dilations": {"list": {"i": ["1", "1", "1", "1"]}}, "strides": {"list": {"i": ["1", "1", "1", "1"]}}, "padding": {"s": "U0FNRQ=="}, "T": {"type": "DT_FLOAT"}, "use_cudnn_on_gpu": {"b": true}, "num_args": {"i": "1"}}}, {"name": "MobilenetV2/expanded_conv_1/expand/Relu6", "op": "_FusedConv2D", "input": ["MobilenetV2/expanded_conv/project/BatchNorm/FusedBatchNormV3", "MobilenetV2/expanded_conv_1/expand/Conv2D_weights", "MobilenetV2/expanded_conv_1/expand/Conv2D_bn_offset"], "device": "/device:CPU:0", "attr": {"strides": {"list": {"i": ["1", "1", "1", "1"]}}, "dilations": {"list": {"i": ["1", "1", "1", "1"]}}, "epsilon": {"f": 0.0}, "use_cudnn_on_gpu": {"b": true}, "data_format": {"s": "TkhXQw=="}, "fused_ops": {"list": {"s": ["Qmlhc0FkZA==", "UmVsdTY="]}}, "num_args": {"i": "1"}, "explicit_paddings": {"list": {}}, "T": {"type": "DT_FLOAT"}, "padding": {"s": "U0FNRQ=="}}}, {"name": "MobilenetV2/expanded_conv_1/depthwise/depthwise", "op": "FusedDepthwiseConv2dNative", "input": ["MobilenetV2/expanded_conv_1/expand/Relu6", "MobilenetV2/expanded_conv_1/depthwise/depthwise_weights", "MobilenetV2/expanded_conv_1/depthwise/depthwise_bn_offset"], "attr": {"explicit_paddings": {"list": {}}, "fused_ops": {"list": {"s": ["Qmlhc0FkZA==", "UmVsdTY="]}}, "data_format": {"s": "TkhXQw=="}, "strides": {"list": {"i": ["1", "2", "2", "1"]}}, "dilations": {"list": {"i": ["1", "1", "1", "1"]}}, "padding": {"s": "U0FNRQ=="}, "T": {"type": "DT_FLOAT"}, "num_args": {"i": "1"}}}, {"name": "MobilenetV2/expanded_conv_1/project/BatchNorm/FusedBatchNormV3", "op": "_FusedConv2D", "input": ["MobilenetV2/expanded_conv_1/depthwise/depthwise", "MobilenetV2/expanded_conv_1/project/Conv2D_weights", "MobilenetV2/expanded_conv_1/project/Conv2D_bn_offset"], "device": "/device:CPU:0", "attr": {"strides": {"list": {"i": ["1", "1", "1", "1"]}}, "dilations": {"list": {"i": ["1", "1", "1", "1"]}}, "epsilon": {"f": 0.0}, "use_cudnn_on_gpu": {"b": true}, "data_format": {"s": "TkhXQw=="}, "fused_ops": {"list": {"s": ["Qmlhc0FkZA=="]}}, "num_args": {"i": "1"}, "explicit_paddings": {"list": {}}, "T": {"type": "DT_FLOAT"}, "padding": {"s": "U0FNRQ=="}}}, {"name": "MobilenetV2/expanded_conv_2/expand/Relu6", "op": "_FusedConv2D", "input": ["MobilenetV2/expanded_conv_1/project/BatchNorm/FusedBatchNormV3", "MobilenetV2/expanded_conv_2/expand/Conv2D_weights", "MobilenetV2/expanded_conv_2/expand/Conv2D_bn_offset"], "device": "/device:CPU:0", "attr": {"strides": {"list": {"i": ["1", "1", "1", "1"]}}, "dilations": {"list": {"i": ["1", "1", "1", "1"]}}, "epsilon": {"f": 0.0}, "use_cudnn_on_gpu": {"b": true}, "data_format": {"s": "TkhXQw=="}, "fused_ops": {"list": {"s": ["Qmlhc0FkZA==", "UmVsdTY="]}}, "num_args": {"i": "1"}, "explicit_paddings": {"list": {}}, "T": {"type": "DT_FLOAT"}, "padding": {"s": "U0FNRQ=="}}}, {"name": "MobilenetV2/expanded_conv_2/depthwise/depthwise", "op": "FusedDepthwiseConv2dNative", "input": ["MobilenetV2/expanded_conv_2/expand/Relu6", "MobilenetV2/expanded_conv_2/depthwise/depthwise_weights", "MobilenetV2/expanded_conv_2/depthwise/depthwise_bn_offset"], "attr": {"padding": {"s": "U0FNRQ=="}, "T": {"type": "DT_FLOAT"}, "num_args": {"i": "1"}, "explicit_paddings": {"list": {}}, "fused_ops": {"list": {"s": ["Qmlhc0FkZA==", "UmVsdTY="]}}, "dilations": {"list": {"i": ["1", "1", "1", "1"]}}, "data_format": {"s": "TkhXQw=="}, "strides": {"list": {"i": ["1", "1", "1", "1"]}}}}, {"name": "MobilenetV2/expanded_conv_2/project/BatchNorm/FusedBatchNormV3", "op": "_FusedConv2D", "input": ["MobilenetV2/expanded_conv_2/depthwise/depthwise", "MobilenetV2/expanded_conv_2/project/Conv2D_weights", "MobilenetV2/expanded_conv_2/project/Conv2D_bn_offset"], "device": "/device:CPU:0", "attr": {"strides": {"list": {"i": ["1", "1", "1", "1"]}}, "dilations": {"list": {"i": ["1", "1", "1", "1"]}}, "epsilon": {"f": 0.0}, "use_cudnn_on_gpu": {"b": true}, "data_format": {"s": "TkhXQw=="}, "fused_ops": {"list": {"s": ["Qmlhc0FkZA=="]}}, "num_args": {"i": "1"}, "explicit_paddings": {"list": {}}, "T": {"type": "DT_FLOAT"}, "padding": {"s": "U0FNRQ=="}}}, {"name": "decoder/feature_projection0/Relu", "op": "_FusedConv2D", "input": ["MobilenetV2/expanded_conv_2/depthwise/depthwise", "decoder/feature_projection0/Conv2D_weights", "decoder/feature_projection0/Conv2D_bn_offset"], "device": "/device:CPU:0", "attr": {"strides": {"list": {"i": ["1", "1", "1", "1"]}}, "dilations": {"list": {"i": ["1", "1", "1", "1"]}}, "epsilon": {"f": 0.0}, "use_cudnn_on_gpu": {"b": true}, "data_format": {"s": "TkhXQw=="}, "fused_ops": {"list": {"s": ["Qmlhc0FkZA==", "UmVsdQ=="]}}, "num_args": {"i": "1"}, "explicit_paddings": {"list": {}}, "T": {"type": "DT_FLOAT"}, "padding": {"s": "U0FNRQ=="}}}, {"name": "MobilenetV2/expanded_conv_2/add", "op": "AddV2", "input": ["MobilenetV2/expanded_conv_2/project/BatchNorm/FusedBatchNormV3", "MobilenetV2/expanded_conv_1/project/BatchNorm/FusedBatchNormV3"], "attr": {"T": {"type": "DT_FLOAT"}}}, {"name": "decoder/ResizeBilinear_1", "op": "ResizeBilinear", "input": ["decoder/feature_projection0/Relu", "decoder/ResizeBilinear_1/size"], "attr": {"align_corners": {"b": true}, "T": {"type": "DT_FLOAT"}, "half_pixel_centers": {"b": false}}}, {"name": "MobilenetV2/expanded_conv_3/expand/Relu6", "op": "_FusedConv2D", "input": ["MobilenetV2/expanded_conv_2/add", "MobilenetV2/expanded_conv_3/expand/Conv2D_weights", "MobilenetV2/expanded_conv_3/expand/Conv2D_bn_offset"], "device": "/device:CPU:0", "attr": {"num_args": {"i": "1"}, "T": {"type": "DT_FLOAT"}, "explicit_paddings": {"list": {}}, "padding": {"s": "U0FNRQ=="}, "strides": {"list": {"i": ["1", "1", "1", "1"]}}, "data_format": {"s": "TkhXQw=="}, "epsilon": {"f": 0.0}, "dilations": {"list": {"i": ["1", "1", "1", "1"]}}, "fused_ops": {"list": {"s": ["Qmlhc0FkZA==", "UmVsdTY="]}}, "use_cudnn_on_gpu": {"b": true}}}, {"name": "MobilenetV2/expanded_conv_3/depthwise/depthwise", "op": "FusedDepthwiseConv2dNative", "input": ["MobilenetV2/expanded_conv_3/expand/Relu6", "MobilenetV2/expanded_conv_3/depthwise/depthwise_weights", "MobilenetV2/expanded_conv_3/depthwise/depthwise_bn_offset"], "attr": {"data_format": {"s": "TkhXQw=="}, "strides": {"list": {"i": ["1", "2", "2", "1"]}}, "dilations": {"list": {"i": ["1", "1", "1", "1"]}}, "fused_ops": {"list": {"s": ["Qmlhc0FkZA==", "UmVsdTY="]}}, "num_args": {"i": "1"}, "padding": {"s": "U0FNRQ=="}, "T": {"type": "DT_FLOAT"}, "explicit_paddings": {"list": {}}}}, {"name": "MobilenetV2/expanded_conv_3/project/BatchNorm/FusedBatchNormV3", "op": "_FusedConv2D", "input": ["MobilenetV2/expanded_conv_3/depthwise/depthwise", "MobilenetV2/expanded_conv_3/project/Conv2D_weights", "MobilenetV2/expanded_conv_3/project/Conv2D_bn_offset"], "device": "/device:CPU:0", "attr": {"explicit_paddings": {"list": {}}, "fused_ops": {"list": {"s": ["Qmlhc0FkZA=="]}}, "data_format": {"s": "TkhXQw=="}, "epsilon": {"f": 0.0}, "dilations": {"list": {"i": ["1", "1", "1", "1"]}}, "strides": {"list": {"i": ["1", "1", "1", "1"]}}, "padding": {"s": "U0FNRQ=="}, "T": {"type": "DT_FLOAT"}, "use_cudnn_on_gpu": {"b": true}, "num_args": {"i": "1"}}}, {"name": "MobilenetV2/expanded_conv_4/expand/Relu6", "op": "_FusedConv2D", "input": ["MobilenetV2/expanded_conv_3/project/BatchNorm/FusedBatchNormV3", "MobilenetV2/expanded_conv_4/expand/Conv2D_weights", "MobilenetV2/expanded_conv_4/expand/Conv2D_bn_offset"], "device": "/device:CPU:0", "attr": {"strides": {"list": {"i": ["1", "1", "1", "1"]}}, "dilations": {"list": {"i": ["1", "1", "1", "1"]}}, "epsilon": {"f": 0.0}, "use_cudnn_on_gpu": {"b": true}, "data_format": {"s": "TkhXQw=="}, "fused_ops": {"list": {"s": ["Qmlhc0FkZA==", "UmVsdTY="]}}, "num_args": {"i": "1"}, "explicit_paddings": {"list": {}}, "T": {"type": "DT_FLOAT"}, "padding": {"s": "U0FNRQ=="}}}, {"name": "MobilenetV2/expanded_conv_4/depthwise/depthwise", "op": "FusedDepthwiseConv2dNative", "input": ["MobilenetV2/expanded_conv_4/expand/Relu6", "MobilenetV2/expanded_conv_4/depthwise/depthwise_weights", "MobilenetV2/expanded_conv_4/depthwise/depthwise_bn_offset"], "attr": {"padding": {"s": "U0FNRQ=="}, "T": {"type": "DT_FLOAT"}, "num_args": {"i": "1"}, "explicit_paddings": {"list": {}}, "dilations": {"list": {"i": ["1", "1", "1", "1"]}}, "fused_ops": {"list": {"s": ["Qmlhc0FkZA==", "UmVsdTY="]}}, "strides": {"list": {"i": ["1", "1", "1", "1"]}}, "data_format": {"s": "TkhXQw=="}}}, {"name": "MobilenetV2/expanded_conv_4/project/BatchNorm/FusedBatchNormV3", "op": "_FusedConv2D", "input": ["MobilenetV2/expanded_conv_4/depthwise/depthwise", "MobilenetV2/expanded_conv_4/project/Conv2D_weights", "MobilenetV2/expanded_conv_4/project/Conv2D_bn_offset"], "device": "/device:CPU:0", "attr": {"strides": {"list": {"i": ["1", "1", "1", "1"]}}, "dilations": {"list": {"i": ["1", "1", "1", "1"]}}, "epsilon": {"f": 0.0}, "use_cudnn_on_gpu": {"b": true}, "data_format": {"s": "TkhXQw=="}, "fused_ops": {"list": {"s": ["Qmlhc0FkZA=="]}}, "num_args": {"i": "1"}, "explicit_paddings": {"list": {}}, "T": {"type": "DT_FLOAT"}, "padding": {"s": "U0FNRQ=="}}}, {"name": "MobilenetV2/expanded_conv_4/add", "op": "AddV2", "input": ["MobilenetV2/expanded_conv_4/project/BatchNorm/FusedBatchNormV3", "MobilenetV2/expanded_conv_3/project/BatchNorm/FusedBatchNormV3"], "attr": {"T": {"type": "DT_FLOAT"}}}, {"name": "MobilenetV2/expanded_conv_5/expand/Relu6", "op": "_FusedConv2D", "input": ["MobilenetV2/expanded_conv_4/add", "MobilenetV2/expanded_conv_5/expand/Conv2D_weights", "MobilenetV2/expanded_conv_5/expand/Conv2D_bn_offset"], "device": "/device:CPU:0", "attr": {"num_args": {"i": "1"}, "T": {"type": "DT_FLOAT"}, "explicit_paddings": {"list": {}}, "padding": {"s": "U0FNRQ=="}, "strides": {"list": {"i": ["1", "1", "1", "1"]}}, "data_format": {"s": "TkhXQw=="}, "epsilon": {"f": 0.0}, "dilations": {"list": {"i": ["1", "1", "1", "1"]}}, "fused_ops": {"list": {"s": ["Qmlhc0FkZA==", "UmVsdTY="]}}, "use_cudnn_on_gpu": {"b": true}}}, {"name": "MobilenetV2/expanded_conv_5/depthwise/depthwise", "op": "FusedDepthwiseConv2dNative", "input": ["MobilenetV2/expanded_conv_5/expand/Relu6", "MobilenetV2/expanded_conv_5/depthwise/depthwise_weights", "MobilenetV2/expanded_conv_5/depthwise/depthwise_bn_offset"], "attr": {"num_args": {"i": "1"}, "T": {"type": "DT_FLOAT"}, "explicit_paddings": {"list": {}}, "padding": {"s": "U0FNRQ=="}, "strides": {"list": {"i": ["1", "1", "1", "1"]}}, "data_format": {"s": "TkhXQw=="}, "dilations": {"list": {"i": ["1", "1", "1", "1"]}}, "fused_ops": {"list": {"s": ["Qmlhc0FkZA==", "UmVsdTY="]}}}}, {"name": "MobilenetV2/expanded_conv_5/project/BatchNorm/FusedBatchNormV3", "op": "_FusedConv2D", "input": ["MobilenetV2/expanded_conv_5/depthwise/depthwise", "MobilenetV2/expanded_conv_5/project/Conv2D_weights", "MobilenetV2/expanded_conv_5/project/Conv2D_bn_offset"], "device": "/device:CPU:0", "attr": {"num_args": {"i": "1"}, "T": {"type": "DT_FLOAT"}, "explicit_paddings": {"list": {}}, "padding": {"s": "U0FNRQ=="}, "strides": {"list": {"i": ["1", "1", "1", "1"]}}, "data_format": {"s": "TkhXQw=="}, "epsilon": {"f": 0.0}, "dilations": {"list": {"i": ["1", "1", "1", "1"]}}, "fused_ops": {"list": {"s": ["Qmlhc0FkZA=="]}}, "use_cudnn_on_gpu": {"b": true}}}, {"name": "MobilenetV2/expanded_conv_5/add", "op": "AddV2", "input": ["MobilenetV2/expanded_conv_5/project/BatchNorm/FusedBatchNormV3", "MobilenetV2/expanded_conv_4/add"], "attr": {"T": {"type": "DT_FLOAT"}}}, {"name": "MobilenetV2/expanded_conv_6/expand/Relu6", "op": "_FusedConv2D", "input": ["MobilenetV2/expanded_conv_5/add", "MobilenetV2/expanded_conv_6/expand/Conv2D_weights", "MobilenetV2/expanded_conv_6/expand/Conv2D_bn_offset"], "device": "/device:CPU:0", "attr": {"num_args": {"i": "1"}, "T": {"type": "DT_FLOAT"}, "explicit_paddings": {"list": {}}, "padding": {"s": "U0FNRQ=="}, "strides": {"list": {"i": ["1", "1", "1", "1"]}}, "data_format": {"s": "TkhXQw=="}, "epsilon": {"f": 0.0}, "dilations": {"list": {"i": ["1", "1", "1", "1"]}}, "fused_ops": {"list": {"s": ["Qmlhc0FkZA==", "UmVsdTY="]}}, "use_cudnn_on_gpu": {"b": true}}}, {"name": "MobilenetV2/expanded_conv_6/depthwise/depthwise", "op": "FusedDepthwiseConv2dNative", "input": ["MobilenetV2/expanded_conv_6/expand/Relu6", "MobilenetV2/expanded_conv_6/depthwise/depthwise_weights", "MobilenetV2/expanded_conv_6/depthwise/depthwise_bn_offset"], "attr": {"num_args": {"i": "1"}, "T": {"type": "DT_FLOAT"}, "explicit_paddings": {"list": {}}, "padding": {"s": "U0FNRQ=="}, "strides": {"list": {"i": ["1", "2", "2", "1"]}}, "data_format": {"s": "TkhXQw=="}, "dilations": {"list": {"i": ["1", "1", "1", "1"]}}, "fused_ops": {"list": {"s": ["Qmlhc0FkZA==", "UmVsdTY="]}}}}, {"name": "MobilenetV2/expanded_conv_6/project/BatchNorm/FusedBatchNormV3", "op": "_FusedConv2D", "input": ["MobilenetV2/expanded_conv_6/depthwise/depthwise", "MobilenetV2/expanded_conv_6/project/Conv2D_weights", "MobilenetV2/expanded_conv_6/project/Conv2D_bn_offset"], "device": "/device:CPU:0", "attr": {"strides": {"list": {"i": ["1", "1", "1", "1"]}}, "fused_ops": {"list": {"s": ["Qmlhc0FkZA=="]}}, "dilations": {"list": {"i": ["1", "1", "1", "1"]}}, "epsilon": {"f": 0.0}, "use_cudnn_on_gpu": {"b": true}, "data_format": {"s": "TkhXQw=="}, "T": {"type": "DT_FLOAT"}, "padding": {"s": "U0FNRQ=="}, "num_args": {"i": "1"}, "explicit_paddings": {"list": {}}}}, {"name": "MobilenetV2/expanded_conv_7/expand/Relu6", "op": "_FusedConv2D", "input": ["MobilenetV2/expanded_conv_6/project/BatchNorm/FusedBatchNormV3", "MobilenetV2/expanded_conv_7/expand/Conv2D_weights", "MobilenetV2/expanded_conv_7/expand/Conv2D_bn_offset"], "device": "/device:CPU:0", "attr": {"num_args": {"i": "1"}, "T": {"type": "DT_FLOAT"}, "explicit_paddings": {"list": {}}, "padding": {"s": "U0FNRQ=="}, "strides": {"list": {"i": ["1", "1", "1", "1"]}}, "data_format": {"s": "TkhXQw=="}, "epsilon": {"f": 0.0}, "dilations": {"list": {"i": ["1", "1", "1", "1"]}}, "fused_ops": {"list": {"s": ["Qmlhc0FkZA==", "UmVsdTY="]}}, "use_cudnn_on_gpu": {"b": true}}}, {"name": "MobilenetV2/expanded_conv_7/depthwise/depthwise", "op": "FusedDepthwiseConv2dNative", "input": ["MobilenetV2/expanded_conv_7/expand/Relu6", "MobilenetV2/expanded_conv_7/depthwise/depthwise_weights", "MobilenetV2/expanded_conv_7/depthwise/depthwise_bn_offset"], "attr": {"padding": {"s": "U0FNRQ=="}, "T": {"type": "DT_FLOAT"}, "explicit_paddings": {"list": {}}, "num_args": {"i": "1"}, "dilations": {"list": {"i": ["1", "1", "1", "1"]}}, "fused_ops": {"list": {"s": ["Qmlhc0FkZA==", "UmVsdTY="]}}, "data_format": {"s": "TkhXQw=="}, "strides": {"list": {"i": ["1", "1", "1", "1"]}}}}, {"name": "MobilenetV2/expanded_conv_7/project/BatchNorm/FusedBatchNormV3", "op": "_FusedConv2D", "input": ["MobilenetV2/expanded_conv_7/depthwise/depthwise", "MobilenetV2/expanded_conv_7/project/Conv2D_weights", "MobilenetV2/expanded_conv_7/project/Conv2D_bn_offset"], "device": "/device:CPU:0", "attr": {"explicit_paddings": {"list": {}}, "fused_ops": {"list": {"s": ["Qmlhc0FkZA=="]}}, "data_format": {"s": "TkhXQw=="}, "epsilon": {"f": 0.0}, "dilations": {"list": {"i": ["1", "1", "1", "1"]}}, "strides": {"list": {"i": ["1", "1", "1", "1"]}}, "padding": {"s": "U0FNRQ=="}, "T": {"type": "DT_FLOAT"}, "use_cudnn_on_gpu": {"b": true}, "num_args": {"i": "1"}}}, {"name": "MobilenetV2/expanded_conv_7/add", "op": "AddV2", "input": ["MobilenetV2/expanded_conv_7/project/BatchNorm/FusedBatchNormV3", "MobilenetV2/expanded_conv_6/project/BatchNorm/FusedBatchNormV3"], "attr": {"T": {"type": "DT_FLOAT"}}}, {"name": "MobilenetV2/expanded_conv_8/expand/Relu6", "op": "_FusedConv2D", "input": ["MobilenetV2/expanded_conv_7/add", "MobilenetV2/expanded_conv_8/expand/Conv2D_weights", "MobilenetV2/expanded_conv_8/expand/Conv2D_bn_offset"], "device": "/device:CPU:0", "attr": {"data_format": {"s": "TkhXQw=="}, "epsilon": {"f": 0.0}, "dilations": {"list": {"i": ["1", "1", "1", "1"]}}, "strides": {"list": {"i": ["1", "1", "1", "1"]}}, "fused_ops": {"list": {"s": ["Qmlhc0FkZA==", "UmVsdTY="]}}, "use_cudnn_on_gpu": {"b": true}, "num_args": {"i": "1"}, "padding": {"s": "U0FNRQ=="}, "T": {"type": "DT_FLOAT"}, "explicit_paddings": {"list": {}}}}, {"name": "MobilenetV2/expanded_conv_8/depthwise/depthwise", "op": "FusedDepthwiseConv2dNative", "input": ["MobilenetV2/expanded_conv_8/expand/Relu6", "MobilenetV2/expanded_conv_8/depthwise/depthwise_weights", "MobilenetV2/expanded_conv_8/depthwise/depthwise_bn_offset"], "attr": {"explicit_paddings": {"list": {}}, "fused_ops": {"list": {"s": ["Qmlhc0FkZA==", "UmVsdTY="]}}, "data_format": {"s": "TkhXQw=="}, "strides": {"list": {"i": ["1", "1", "1", "1"]}}, "dilations": {"list": {"i": ["1", "1", "1", "1"]}}, "padding": {"s": "U0FNRQ=="}, "T": {"type": "DT_FLOAT"}, "num_args": {"i": "1"}}}, {"name": "MobilenetV2/expanded_conv_8/project/BatchNorm/FusedBatchNormV3", "op": "_FusedConv2D", "input": ["MobilenetV2/expanded_conv_8/depthwise/depthwise", "MobilenetV2/expanded_conv_8/project/Conv2D_weights", "MobilenetV2/expanded_conv_8/project/Conv2D_bn_offset"], "device": "/device:CPU:0", "attr": {"padding": {"s": "U0FNRQ=="}, "use_cudnn_on_gpu": {"b": true}, "T": {"type": "DT_FLOAT"}, "num_args": {"i": "1"}, "explicit_paddings": {"list": {}}, "fused_ops": {"list": {"s": ["Qmlhc0FkZA=="]}}, "dilations": {"list": {"i": ["1", "1", "1", "1"]}}, "epsilon": {"f": 0.0}, "data_format": {"s": "TkhXQw=="}, "strides": {"list": {"i": ["1", "1", "1", "1"]}}}}, {"name": "MobilenetV2/expanded_conv_8/add", "op": "AddV2", "input": ["MobilenetV2/expanded_conv_8/project/BatchNorm/FusedBatchNormV3", "MobilenetV2/expanded_conv_7/add"], "attr": {"T": {"type": "DT_FLOAT"}}}, {"name": "MobilenetV2/expanded_conv_9/expand/Relu6", "op": "_FusedConv2D", "input": ["MobilenetV2/expanded_conv_8/add", "MobilenetV2/expanded_conv_9/expand/Conv2D_weights", "MobilenetV2/expanded_conv_9/expand/Conv2D_bn_offset"], "device": "/device:CPU:0", "attr": {"explicit_paddings": {"list": {}}, "fused_ops": {"list": {"s": ["Qmlhc0FkZA==", "UmVsdTY="]}}, "data_format": {"s": "TkhXQw=="}, "epsilon": {"f": 0.0}, "dilations": {"list": {"i": ["1", "1", "1", "1"]}}, "strides": {"list": {"i": ["1", "1", "1", "1"]}}, "padding": {"s": "U0FNRQ=="}, "T": {"type": "DT_FLOAT"}, "use_cudnn_on_gpu": {"b": true}, "num_args": {"i": "1"}}}, {"name": "MobilenetV2/expanded_conv_9/depthwise/depthwise", "op": "FusedDepthwiseConv2dNative", "input": ["MobilenetV2/expanded_conv_9/expand/Relu6", "MobilenetV2/expanded_conv_9/depthwise/depthwise_weights", "MobilenetV2/expanded_conv_9/depthwise/depthwise_bn_offset"], "attr": {"padding": {"s": "U0FNRQ=="}, "T": {"type": "DT_FLOAT"}, "num_args": {"i": "1"}, "explicit_paddings": {"list": {}}, "fused_ops": {"list": {"s": ["Qmlhc0FkZA==", "UmVsdTY="]}}, "dilations": {"list": {"i": ["1", "1", "1", "1"]}}, "data_format": {"s": "TkhXQw=="}, "strides": {"list": {"i": ["1", "1", "1", "1"]}}}}, {"name": "MobilenetV2/expanded_conv_9/project/BatchNorm/FusedBatchNormV3", "op": "_FusedConv2D", "input": ["MobilenetV2/expanded_conv_9/depthwise/depthwise", "MobilenetV2/expanded_conv_9/project/Conv2D_weights", "MobilenetV2/expanded_conv_9/project/Conv2D_bn_offset"], "device": "/device:CPU:0", "attr": {"padding": {"s": "U0FNRQ=="}, "use_cudnn_on_gpu": {"b": true}, "T": {"type": "DT_FLOAT"}, "num_args": {"i": "1"}, "explicit_paddings": {"list": {}}, "fused_ops": {"list": {"s": ["Qmlhc0FkZA=="]}}, "dilations": {"list": {"i": ["1", "1", "1", "1"]}}, "epsilon": {"f": 0.0}, "data_format": {"s": "TkhXQw=="}, "strides": {"list": {"i": ["1", "1", "1", "1"]}}}}, {"name": "MobilenetV2/expanded_conv_9/add", "op": "AddV2", "input": ["MobilenetV2/expanded_conv_9/project/BatchNorm/FusedBatchNormV3", "MobilenetV2/expanded_conv_8/add"], "attr": {"T": {"type": "DT_FLOAT"}}}, {"name": "MobilenetV2/expanded_conv_10/expand/Relu6", "op": "_FusedConv2D", "input": ["MobilenetV2/expanded_conv_9/add", "MobilenetV2/expanded_conv_10/expand/Conv2D_weights", "MobilenetV2/expanded_conv_10/expand/Conv2D_bn_offset"], "device": "/device:CPU:0", "attr": {"explicit_paddings": {"list": {}}, "fused_ops": {"list": {"s": ["Qmlhc0FkZA==", "UmVsdTY="]}}, "data_format": {"s": "TkhXQw=="}, "epsilon": {"f": 0.0}, "dilations": {"list": {"i": ["1", "1", "1", "1"]}}, "strides": {"list": {"i": ["1", "1", "1", "1"]}}, "padding": {"s": "U0FNRQ=="}, "T": {"type": "DT_FLOAT"}, "use_cudnn_on_gpu": {"b": true}, "num_args": {"i": "1"}}}, {"name": "MobilenetV2/expanded_conv_10/depthwise/depthwise", "op": "FusedDepthwiseConv2dNative", "input": ["MobilenetV2/expanded_conv_10/expand/Relu6", "MobilenetV2/expanded_conv_10/depthwise/depthwise_weights", "MobilenetV2/expanded_conv_10/depthwise/depthwise_bn_offset"], "attr": {"padding": {"s": "U0FNRQ=="}, "T": {"type": "DT_FLOAT"}, "explicit_paddings": {"list": {}}, "num_args": {"i": "1"}, "fused_ops": {"list": {"s": ["Qmlhc0FkZA==", "UmVsdTY="]}}, "dilations": {"list": {"i": ["1", "1", "1", "1"]}}, "strides": {"list": {"i": ["1", "1", "1", "1"]}}, "data_format": {"s": "TkhXQw=="}}}, {"name": "MobilenetV2/expanded_conv_10/project/BatchNorm/FusedBatchNormV3", "op": "_FusedConv2D", "input": ["MobilenetV2/expanded_conv_10/depthwise/depthwise", "MobilenetV2/expanded_conv_10/project/Conv2D_weights", "MobilenetV2/expanded_conv_10/project/Conv2D_bn_offset"], "device": "/device:CPU:0", "attr": {"padding": {"s": "U0FNRQ=="}, "use_cudnn_on_gpu": {"b": true}, "T": {"type": "DT_FLOAT"}, "num_args": {"i": "1"}, "explicit_paddings": {"list": {}}, "fused_ops": {"list": {"s": ["Qmlhc0FkZA=="]}}, "dilations": {"list": {"i": ["1", "1", "1", "1"]}}, "epsilon": {"f": 0.0}, "data_format": {"s": "TkhXQw=="}, "strides": {"list": {"i": ["1", "1", "1", "1"]}}}}, {"name": "MobilenetV2/expanded_conv_11/expand/Relu6", "op": "_FusedConv2D", "input": ["MobilenetV2/expanded_conv_10/project/BatchNorm/FusedBatchNormV3", "MobilenetV2/expanded_conv_11/expand/Conv2D_weights", "MobilenetV2/expanded_conv_11/expand/Conv2D_bn_offset"], "device": "/device:CPU:0", "attr": {"padding": {"s": "U0FNRQ=="}, "use_cudnn_on_gpu": {"b": true}, "T": {"type": "DT_FLOAT"}, "num_args": {"i": "1"}, "explicit_paddings": {"list": {}}, "fused_ops": {"list": {"s": ["Qmlhc0FkZA==", "UmVsdTY="]}}, "dilations": {"list": {"i": ["1", "1", "1", "1"]}}, "epsilon": {"f": 0.0}, "data_format": {"s": "TkhXQw=="}, "strides": {"list": {"i": ["1", "1", "1", "1"]}}}}, {"name": "MobilenetV2/expanded_conv_11/depthwise/depthwise", "op": "FusedDepthwiseConv2dNative", "input": ["MobilenetV2/expanded_conv_11/expand/Relu6", "MobilenetV2/expanded_conv_11/depthwise/depthwise_weights", "MobilenetV2/expanded_conv_11/depthwise/depthwise_bn_offset"], "attr": {"explicit_paddings": {"list": {}}, "fused_ops": {"list": {"s": ["Qmlhc0FkZA==", "UmVsdTY="]}}, "data_format": {"s": "TkhXQw=="}, "dilations": {"list": {"i": ["1", "1", "1", "1"]}}, "strides": {"list": {"i": ["1", "1", "1", "1"]}}, "T": {"type": "DT_FLOAT"}, "padding": {"s": "U0FNRQ=="}, "num_args": {"i": "1"}}}, {"name": "MobilenetV2/expanded_conv_11/project/BatchNorm/FusedBatchNormV3", "op": "_FusedConv2D", "input": ["MobilenetV2/expanded_conv_11/depthwise/depthwise", "MobilenetV2/expanded_conv_11/project/Conv2D_weights", "MobilenetV2/expanded_conv_11/project/Conv2D_bn_offset"], "device": "/device:CPU:0", "attr": {"explicit_paddings": {"list": {}}, "fused_ops": {"list": {"s": ["Qmlhc0FkZA=="]}}, "data_format": {"s": "TkhXQw=="}, "epsilon": {"f": 0.0}, "dilations": {"list": {"i": ["1", "1", "1", "1"]}}, "strides": {"list": {"i": ["1", "1", "1", "1"]}}, "padding": {"s": "U0FNRQ=="}, "T": {"type": "DT_FLOAT"}, "use_cudnn_on_gpu": {"b": true}, "num_args": {"i": "1"}}}, {"name": "MobilenetV2/expanded_conv_11/add", "op": "AddV2", "input": ["MobilenetV2/expanded_conv_11/project/BatchNorm/FusedBatchNormV3", "MobilenetV2/expanded_conv_10/project/BatchNorm/FusedBatchNormV3"], "attr": {"T": {"type": "DT_FLOAT"}}}, {"name": "MobilenetV2/expanded_conv_12/expand/Relu6", "op": "_FusedConv2D", "input": ["MobilenetV2/expanded_conv_11/add", "MobilenetV2/expanded_conv_12/expand/Conv2D_weights", "MobilenetV2/expanded_conv_12/expand/Conv2D_bn_offset"], "device": "/device:CPU:0", "attr": {"strides": {"list": {"i": ["1", "1", "1", "1"]}}, "fused_ops": {"list": {"s": ["Qmlhc0FkZA==", "UmVsdTY="]}}, "dilations": {"list": {"i": ["1", "1", "1", "1"]}}, "epsilon": {"f": 0.0}, "use_cudnn_on_gpu": {"b": true}, "data_format": {"s": "TkhXQw=="}, "T": {"type": "DT_FLOAT"}, "padding": {"s": "U0FNRQ=="}, "num_args": {"i": "1"}, "explicit_paddings": {"list": {}}}}, {"name": "MobilenetV2/expanded_conv_12/depthwise/depthwise", "op": "FusedDepthwiseConv2dNative", "input": ["MobilenetV2/expanded_conv_12/expand/Relu6", "MobilenetV2/expanded_conv_12/depthwise/depthwise_weights", "MobilenetV2/expanded_conv_12/depthwise/depthwise_bn_offset"], "attr": {"T": {"type": "DT_FLOAT"}, "num_args": {"i": "1"}, "padding": {"s": "U0FNRQ=="}, "explicit_paddings": {"list": {}}, "fused_ops": {"list": {"s": ["Qmlhc0FkZA==", "UmVsdTY="]}}, "strides": {"list": {"i": ["1", "1", "1", "1"]}}, "data_format": {"s": "TkhXQw=="}, "dilations": {"list": {"i": ["1", "1", "1", "1"]}}}}, {"name": "MobilenetV2/expanded_conv_12/project/BatchNorm/FusedBatchNormV3", "op": "_FusedConv2D", "input": ["MobilenetV2/expanded_conv_12/depthwise/depthwise", "MobilenetV2/expanded_conv_12/project/Conv2D_weights", "MobilenetV2/expanded_conv_12/project/Conv2D_bn_offset"], "device": "/device:CPU:0", "attr": {"strides": {"list": {"i": ["1", "1", "1", "1"]}}, "fused_ops": {"list": {"s": ["Qmlhc0FkZA=="]}}, "dilations": {"list": {"i": ["1", "1", "1", "1"]}}, "epsilon": {"f": 0.0}, "use_cudnn_on_gpu": {"b": true}, "data_format": {"s": "TkhXQw=="}, "T": {"type": "DT_FLOAT"}, "padding": {"s": "U0FNRQ=="}, "num_args": {"i": "1"}, "explicit_paddings": {"list": {}}}}, {"name": "MobilenetV2/expanded_conv_12/add", "op": "AddV2", "input": ["MobilenetV2/expanded_conv_12/project/BatchNorm/FusedBatchNormV3", "MobilenetV2/expanded_conv_11/add"], "attr": {"T": {"type": "DT_FLOAT"}}}, {"name": "MobilenetV2/expanded_conv_13/expand/Relu6", "op": "_FusedConv2D", "input": ["MobilenetV2/expanded_conv_12/add", "MobilenetV2/expanded_conv_13/expand/Conv2D_weights", "MobilenetV2/expanded_conv_13/expand/Conv2D_bn_offset"], "device": "/device:CPU:0", "attr": {"T": {"type": "DT_FLOAT"}, "use_cudnn_on_gpu": {"b": true}, "num_args": {"i": "1"}, "padding": {"s": "U0FNRQ=="}, "explicit_paddings": {"list": {}}, "fused_ops": {"list": {"s": ["Qmlhc0FkZA==", "UmVsdTY="]}}, "strides": {"list": {"i": ["1", "1", "1", "1"]}}, "data_format": {"s": "TkhXQw=="}, "epsilon": {"f": 0.0}, "dilations": {"list": {"i": ["1", "1", "1", "1"]}}}}, {"name": "MobilenetV2/expanded_conv_13/depthwise/depthwise", "op": "FusedDepthwiseConv2dNative", "input": ["MobilenetV2/expanded_conv_13/expand/Relu6", "MobilenetV2/expanded_conv_13/depthwise/depthwise_weights", "MobilenetV2/expanded_conv_13/depthwise/depthwise_bn_offset"], "attr": {"padding": {"s": "U0FNRQ=="}, "T": {"type": "DT_FLOAT"}, "fused_ops": {"list": {"s": ["Qmlhc0FkZA==", "UmVsdTY="]}}, "strides": {"list": {"i": ["1", "1", "1", "1"]}}, "explicit_paddings": {"list": {}}, "num_args": {"i": "1"}, "dilations": {"list": {"i": ["1", "1", "1", "1"]}}, "data_format": {"s": "TkhXQw=="}}}, {"name": "MobilenetV2/expanded_conv_13/project/BatchNorm/FusedBatchNormV3", "op": "_FusedConv2D", "input": ["MobilenetV2/expanded_conv_13/depthwise/depthwise", "MobilenetV2/expanded_conv_13/project/Conv2D_weights", "MobilenetV2/expanded_conv_13/project/Conv2D_bn_offset"], "device": "/device:CPU:0", "attr": {"T": {"type": "DT_FLOAT"}, "use_cudnn_on_gpu": {"b": true}, "num_args": {"i": "1"}, "padding": {"s": "U0FNRQ=="}, "explicit_paddings": {"list": {}}, "fused_ops": {"list": {"s": ["Qmlhc0FkZA=="]}}, "strides": {"list": {"i": ["1", "1", "1", "1"]}}, "data_format": {"s": "TkhXQw=="}, "epsilon": {"f": 0.0}, "dilations": {"list": {"i": ["1", "1", "1", "1"]}}}}, {"name": "MobilenetV2/expanded_conv_14/expand/Relu6", "op": "_FusedConv2D", "input": ["MobilenetV2/expanded_conv_13/project/BatchNorm/FusedBatchNormV3", "MobilenetV2/expanded_conv_14/expand/Conv2D_weights", "MobilenetV2/expanded_conv_14/expand/Conv2D_bn_offset"], "device": "/device:CPU:0", "attr": {"padding": {"s": "U0FNRQ=="}, "fused_ops": {"list": {"s": ["Qmlhc0FkZA==", "UmVsdTY="]}}, "T": {"type": "DT_FLOAT"}, "use_cudnn_on_gpu": {"b": true}, "strides": {"list": {"i": ["1", "1", "1", "1"]}}, "num_args": {"i": "1"}, "explicit_paddings": {"list": {}}, "dilations": {"list": {"i": ["1", "1", "1", "1"]}}, "epsilon": {"f": 0.0}, "data_format": {"s": "TkhXQw=="}}}, {"name": "MobilenetV2/expanded_conv_14/depthwise/depthwise/SpaceToBatchND", "op": "SpaceToBatchND", "input": ["MobilenetV2/expanded_conv_14/expand/Relu6", "MobilenetV2/expanded_conv_14/depthwise/depthwise/SpaceToBatchND/block_shape", "MobilenetV2/expanded_conv_14/depthwise/depthwise/SpaceToBatchND/paddings"], "attr": {"Tpaddings": {"type": "DT_INT32"}, "T": {"type": "DT_FLOAT"}, "Tblock_shape": {"type": "DT_INT32"}}}, {"name": "MobilenetV2/expanded_conv_14/depthwise/depthwise", "op": "DepthwiseConv2dNative", "input": ["MobilenetV2/expanded_conv_14/depthwise/depthwise/SpaceToBatchND", "MobilenetV2/expanded_conv_14/depthwise/depthwise_weights"], "attr": {"strides": {"list": {"i": ["1", "1", "1", "1"]}}, "dilations": {"list": {"i": ["1", "1", "1", "1"]}}, "data_format": {"s": "TkhXQw=="}, "T": {"type": "DT_FLOAT"}, "padding": {"s": "VkFMSUQ="}, "explicit_paddings": {"list": {}}}}, {"name": "MobilenetV2/expanded_conv_14/depthwise/depthwise/BatchToSpaceND", "op": "BatchToSpaceND", "input": ["MobilenetV2/expanded_conv_14/depthwise/depthwise", "MobilenetV2/expanded_conv_14/depthwise/depthwise/BatchToSpaceND/block_shape", "MobilenetV2/expanded_conv_14/depthwise/depthwise/BatchToSpaceND/crops"], "attr": {"T": {"type": "DT_FLOAT"}, "Tcrops": {"type": "DT_INT32"}, "Tblock_shape": {"type": "DT_INT32"}}}, {"name": "MobilenetV2/expanded_conv_14/depthwise/BatchNorm/FusedBatchNormV3/Mul", "op": "Mul", "input": ["MobilenetV2/expanded_conv_14/depthwise/depthwise/BatchToSpaceND", "MobilenetV2/expanded_conv_14/depthwise/BatchNorm/FusedBatchNormV3/Scaled"], "attr": {"T": {"type": "DT_FLOAT"}}}, {"name": "MobilenetV2/expanded_conv_14/depthwise/BatchNorm/FusedBatchNormV3", "op": "Add", "input": ["MobilenetV2/expanded_conv_14/depthwise/BatchNorm/FusedBatchNormV3/Mul", "MobilenetV2/expanded_conv_14/depthwise/BatchNorm/FusedBatchNormV3/Offset"], "attr": {"T": {"type": "DT_FLOAT"}}}, {"name": "MobilenetV2/expanded_conv_14/depthwise/Relu6", "op": "Relu6", "input": ["MobilenetV2/expanded_conv_14/depthwise/BatchNorm/FusedBatchNormV3"], "attr": {"T": {"type": "DT_FLOAT"}}}, {"name": "MobilenetV2/expanded_conv_14/project/BatchNorm/FusedBatchNormV3", "op": "_FusedConv2D", "input": ["MobilenetV2/expanded_conv_14/depthwise/Relu6", "MobilenetV2/expanded_conv_14/project/Conv2D_weights", "MobilenetV2/expanded_conv_14/project/Conv2D_bn_offset"], "device": "/device:CPU:0", "attr": {"padding": {"s": "U0FNRQ=="}, "fused_ops": {"list": {"s": ["Qmlhc0FkZA=="]}}, "T": {"type": "DT_FLOAT"}, "use_cudnn_on_gpu": {"b": true}, "strides": {"list": {"i": ["1", "1", "1", "1"]}}, "num_args": {"i": "1"}, "explicit_paddings": {"list": {}}, "dilations": {"list": {"i": ["1", "1", "1", "1"]}}, "epsilon": {"f": 0.0}, "data_format": {"s": "TkhXQw=="}}}, {"name": "MobilenetV2/expanded_conv_14/add", "op": "AddV2", "input": ["MobilenetV2/expanded_conv_14/project/BatchNorm/FusedBatchNormV3", "MobilenetV2/expanded_conv_13/project/BatchNorm/FusedBatchNormV3"], "attr": {"T": {"type": "DT_FLOAT"}}}, {"name": "MobilenetV2/expanded_conv_15/expand/Relu6", "op": "_FusedConv2D", "input": ["MobilenetV2/expanded_conv_14/add", "MobilenetV2/expanded_conv_15/expand/Conv2D_weights", "MobilenetV2/expanded_conv_15/expand/Conv2D_bn_offset"], "device": "/device:CPU:0", "attr": {"explicit_paddings": {"list": {}}, "data_format": {"s": "TkhXQw=="}, "epsilon": {"f": 0.0}, "dilations": {"list": {"i": ["1", "1", "1", "1"]}}, "fused_ops": {"list": {"s": ["Qmlhc0FkZA==", "UmVsdTY="]}}, "padding": {"s": "U0FNRQ=="}, "T": {"type": "DT_FLOAT"}, "use_cudnn_on_gpu": {"b": true}, "num_args": {"i": "1"}, "strides": {"list": {"i": ["1", "1", "1", "1"]}}}}, {"name": "MobilenetV2/expanded_conv_15/depthwise/depthwise/SpaceToBatchND", "op": "SpaceToBatchND", "input": ["MobilenetV2/expanded_conv_15/expand/Relu6", "MobilenetV2/expanded_conv_15/depthwise/depthwise/SpaceToBatchND/block_shape", "MobilenetV2/expanded_conv_15/depthwise/depthwise/SpaceToBatchND/paddings"], "attr": {"T": {"type": "DT_FLOAT"}, "Tblock_shape": {"type": "DT_INT32"}, "Tpaddings": {"type": "DT_INT32"}}}, {"name": "MobilenetV2/expanded_conv_15/depthwise/depthwise", "op": "DepthwiseConv2dNative", "input": ["MobilenetV2/expanded_conv_15/depthwise/depthwise/SpaceToBatchND", "MobilenetV2/expanded_conv_15/depthwise/depthwise_weights"], "attr": {"strides": {"list": {"i": ["1", "1", "1", "1"]}}, "dilations": {"list": {"i": ["1", "1", "1", "1"]}}, "data_format": {"s": "TkhXQw=="}, "T": {"type": "DT_FLOAT"}, "padding": {"s": "VkFMSUQ="}, "explicit_paddings": {"list": {}}}}, {"name": "MobilenetV2/expanded_conv_15/depthwise/depthwise/BatchToSpaceND", "op": "BatchToSpaceND", "input": ["MobilenetV2/expanded_conv_15/depthwise/depthwise", "MobilenetV2/expanded_conv_15/depthwise/depthwise/BatchToSpaceND/block_shape", "MobilenetV2/expanded_conv_15/depthwise/depthwise/BatchToSpaceND/crops"], "attr": {"T": {"type": "DT_FLOAT"}, "Tblock_shape": {"type": "DT_INT32"}, "Tcrops": {"type": "DT_INT32"}}}, {"name": "MobilenetV2/expanded_conv_15/depthwise/BatchNorm/FusedBatchNormV3/Mul", "op": "Mul", "input": ["MobilenetV2/expanded_conv_15/depthwise/depthwise/BatchToSpaceND", "MobilenetV2/expanded_conv_15/depthwise/BatchNorm/FusedBatchNormV3/Scaled"], "attr": {"T": {"type": "DT_FLOAT"}}}, {"name": "MobilenetV2/expanded_conv_15/depthwise/BatchNorm/FusedBatchNormV3", "op": "Add", "input": ["MobilenetV2/expanded_conv_15/depthwise/BatchNorm/FusedBatchNormV3/Mul", "MobilenetV2/expanded_conv_15/depthwise/BatchNorm/FusedBatchNormV3/Offset"], "attr": {"T": {"type": "DT_FLOAT"}}}, {"name": "MobilenetV2/expanded_conv_15/depthwise/Relu6", "op": "Relu6", "input": ["MobilenetV2/expanded_conv_15/depthwise/BatchNorm/FusedBatchNormV3"], "attr": {"T": {"type": "DT_FLOAT"}}}, {"name": "MobilenetV2/expanded_conv_15/project/BatchNorm/FusedBatchNormV3", "op": "_FusedConv2D", "input": ["MobilenetV2/expanded_conv_15/depthwise/Relu6", "MobilenetV2/expanded_conv_15/project/Conv2D_weights", "MobilenetV2/expanded_conv_15/project/Conv2D_bn_offset"], "device": "/device:CPU:0", "attr": {"explicit_paddings": {"list": {}}, "data_format": {"s": "TkhXQw=="}, "epsilon": {"f": 0.0}, "dilations": {"list": {"i": ["1", "1", "1", "1"]}}, "fused_ops": {"list": {"s": ["Qmlhc0FkZA=="]}}, "padding": {"s": "U0FNRQ=="}, "T": {"type": "DT_FLOAT"}, "use_cudnn_on_gpu": {"b": true}, "num_args": {"i": "1"}, "strides": {"list": {"i": ["1", "1", "1", "1"]}}}}, {"name": "MobilenetV2/expanded_conv_15/add", "op": "AddV2", "input": ["MobilenetV2/expanded_conv_15/project/BatchNorm/FusedBatchNormV3", "MobilenetV2/expanded_conv_14/add"], "attr": {"T": {"type": "DT_FLOAT"}}}, {"name": "MobilenetV2/expanded_conv_16/expand/Relu6", "op": "_FusedConv2D", "input": ["MobilenetV2/expanded_conv_15/add", "MobilenetV2/expanded_conv_16/expand/Conv2D_weights", "MobilenetV2/expanded_conv_16/expand/Conv2D_bn_offset"], "device": "/device:CPU:0", "attr": {"explicit_paddings": {"list": {}}, "data_format": {"s": "TkhXQw=="}, "epsilon": {"f": 0.0}, "dilations": {"list": {"i": ["1", "1", "1", "1"]}}, "fused_ops": {"list": {"s": ["Qmlhc0FkZA==", "UmVsdTY="]}}, "padding": {"s": "U0FNRQ=="}, "T": {"type": "DT_FLOAT"}, "use_cudnn_on_gpu": {"b": true}, "num_args": {"i": "1"}, "strides": {"list": {"i": ["1", "1", "1", "1"]}}}}, {"name": "MobilenetV2/expanded_conv_16/depthwise/depthwise/SpaceToBatchND", "op": "SpaceToBatchND", "input": ["MobilenetV2/expanded_conv_16/expand/Relu6", "MobilenetV2/expanded_conv_16/depthwise/depthwise/SpaceToBatchND/block_shape", "MobilenetV2/expanded_conv_16/depthwise/depthwise/SpaceToBatchND/paddings"], "attr": {"T": {"type": "DT_FLOAT"}, "Tpaddings": {"type": "DT_INT32"}, "Tblock_shape": {"type": "DT_INT32"}}}, {"name": "MobilenetV2/expanded_conv_16/depthwise/depthwise", "op": "DepthwiseConv2dNative", "input": ["MobilenetV2/expanded_conv_16/depthwise/depthwise/SpaceToBatchND", "MobilenetV2/expanded_conv_16/depthwise/depthwise_weights"], "attr": {"padding": {"s": "VkFMSUQ="}, "T": {"type": "DT_FLOAT"}, "strides": {"list": {"i": ["1", "1", "1", "1"]}}, "explicit_paddings": {"list": {}}, "dilations": {"list": {"i": ["1", "1", "1", "1"]}}, "data_format": {"s": "TkhXQw=="}}}, {"name": "MobilenetV2/expanded_conv_16/depthwise/depthwise/BatchToSpaceND", "op": "BatchToSpaceND", "input": ["MobilenetV2/expanded_conv_16/depthwise/depthwise", "MobilenetV2/expanded_conv_16/depthwise/depthwise/BatchToSpaceND/block_shape", "MobilenetV2/expanded_conv_16/depthwise/depthwise/BatchToSpaceND/crops"], "attr": {"T": {"type": "DT_FLOAT"}, "Tcrops": {"type": "DT_INT32"}, "Tblock_shape": {"type": "DT_INT32"}}}, {"name": "MobilenetV2/expanded_conv_16/depthwise/BatchNorm/FusedBatchNormV3/Mul", "op": "Mul", "input": ["MobilenetV2/expanded_conv_16/depthwise/depthwise/BatchToSpaceND", "MobilenetV2/expanded_conv_16/depthwise/BatchNorm/FusedBatchNormV3/Scaled"], "attr": {"T": {"type": "DT_FLOAT"}}}, {"name": "MobilenetV2/expanded_conv_16/depthwise/BatchNorm/FusedBatchNormV3", "op": "Add", "input": ["MobilenetV2/expanded_conv_16/depthwise/BatchNorm/FusedBatchNormV3/Mul", "MobilenetV2/expanded_conv_16/depthwise/BatchNorm/FusedBatchNormV3/Offset"], "attr": {"T": {"type": "DT_FLOAT"}}}, {"name": "MobilenetV2/expanded_conv_16/depthwise/Relu6", "op": "Relu6", "input": ["MobilenetV2/expanded_conv_16/depthwise/BatchNorm/FusedBatchNormV3"], "attr": {"T": {"type": "DT_FLOAT"}}}, {"name": "MobilenetV2/expanded_conv_16/project/BatchNorm/FusedBatchNormV3", "op": "_FusedConv2D", "input": ["MobilenetV2/expanded_conv_16/depthwise/Relu6", "MobilenetV2/expanded_conv_16/project/Conv2D_weights", "MobilenetV2/expanded_conv_16/project/Conv2D_bn_offset"], "device": "/device:CPU:0", "attr": {"strides": {"list": {"i": ["1", "1", "1", "1"]}}, "fused_ops": {"list": {"s": ["Qmlhc0FkZA=="]}}, "dilations": {"list": {"i": ["1", "1", "1", "1"]}}, "epsilon": {"f": 0.0}, "use_cudnn_on_gpu": {"b": true}, "data_format": {"s": "TkhXQw=="}, "T": {"type": "DT_FLOAT"}, "padding": {"s": "U0FNRQ=="}, "num_args": {"i": "1"}, "explicit_paddings": {"list": {}}}}, {"name": "AvgPool2D/AvgPool", "op": "AvgPool", "input": ["MobilenetV2/expanded_conv_16/project/BatchNorm/FusedBatchNormV3"], "attr": {"data_format": {"s": "TkhXQw=="}, "T": {"type": "DT_FLOAT"}, "padding": {"s": "VkFMSUQ="}, "strides": {"list": {"i": ["1", "1", "1", "1"]}}, "ksize": {"list": {"i": ["1", "33", "33", "1"]}}}}, {"name": "aspp0/Relu", "op": "_FusedConv2D", "input": ["MobilenetV2/expanded_conv_16/project/BatchNorm/FusedBatchNormV3", "aspp0/Conv2D_weights", "aspp0/Conv2D_bn_offset"], "device": "/device:CPU:0", "attr": {"strides": {"list": {"i": ["1", "1", "1", "1"]}}, "fused_ops": {"list": {"s": ["Qmlhc0FkZA==", "UmVsdQ=="]}}, "dilations": {"list": {"i": ["1", "1", "1", "1"]}}, "epsilon": {"f": 0.0}, "use_cudnn_on_gpu": {"b": true}, "data_format": {"s": "TkhXQw=="}, "T": {"type": "DT_FLOAT"}, "padding": {"s": "U0FNRQ=="}, "num_args": {"i": "1"}, "explicit_paddings": {"list": {}}}}, {"name": "image_pooling/Relu", "op": "_FusedConv2D", "input": ["AvgPool2D/AvgPool", "image_pooling/Conv2D_weights", "image_pooling/Conv2D_bn_offset"], "device": "/device:CPU:0", "attr": {"T": {"type": "DT_FLOAT"}, "use_cudnn_on_gpu": {"b": true}, "num_args": {"i": "1"}, "padding": {"s": "U0FNRQ=="}, "explicit_paddings": {"list": {}}, "fused_ops": {"list": {"s": ["Qmlhc0FkZA==", "UmVsdQ=="]}}, "strides": {"list": {"i": ["1", "1", "1", "1"]}}, "data_format": {"s": "TkhXQw=="}, "epsilon": {"f": 0.0}, "dilations": {"list": {"i": ["1", "1", "1", "1"]}}}}, {"name": "ResizeBilinear", "op": "ResizeBilinear", "input": ["image_pooling/Relu", "ResizeBilinear/size"], "attr": {"half_pixel_centers": {"b": false}, "align_corners": {"b": true}, "T": {"type": "DT_FLOAT"}}}, {"name": "concat", "op": "ConcatV2", "input": ["ResizeBilinear", "aspp0/Relu", "concat/axis"], "attr": {"T": {"type": "DT_FLOAT"}, "N": {"i": "2"}, "Tidx": {"type": "DT_INT32"}}}, {"name": "concat_projection/Relu", "op": "_FusedConv2D", "input": ["concat", "concat_projection/Conv2D_weights", "concat_projection/Conv2D_bn_offset"], "device": "/device:CPU:0", "attr": {"explicit_paddings": {"list": {}}, "data_format": {"s": "TkhXQw=="}, "epsilon": {"f": 0.0}, "dilations": {"list": {"i": ["1", "1", "1", "1"]}}, "fused_ops": {"list": {"s": ["Qmlhc0FkZA==", "UmVsdQ=="]}}, "padding": {"s": "U0FNRQ=="}, "T": {"type": "DT_FLOAT"}, "use_cudnn_on_gpu": {"b": true}, "num_args": {"i": "1"}, "strides": {"list": {"i": ["1", "1", "1", "1"]}}}}, {"name": "decoder/ResizeBilinear", "op": "ResizeBilinear", "input": ["concat_projection/Relu", "decoder/ResizeBilinear/size"], "attr": {"align_corners": {"b": true}, "T": {"type": "DT_FLOAT"}, "half_pixel_centers": {"b": false}}}, {"name": "decoder/concat", "op": "ConcatV2", "input": ["decoder/ResizeBilinear", "decoder/ResizeBilinear_1", "decoder/concat/axis"], "attr": {"T": {"type": "DT_FLOAT"}, "N": {"i": "2"}, "Tidx": {"type": "DT_INT32"}}}, {"name": "decoder/decoder_conv0_depthwise/depthwise", "op": "FusedDepthwiseConv2dNative", "input": ["decoder/concat", "decoder/decoder_conv0_depthwise/depthwise_weights", "decoder/decoder_conv0_depthwise/depthwise_bn_offset"], "attr": {"explicit_paddings": {"list": {}}, "data_format": {"s": "TkhXQw=="}, "dilations": {"list": {"i": ["1", "1", "1", "1"]}}, "fused_ops": {"list": {"s": ["Qmlhc0FkZA==", "UmVsdQ=="]}}, "T": {"type": "DT_FLOAT"}, "padding": {"s": "U0FNRQ=="}, "strides": {"list": {"i": ["1", "1", "1", "1"]}}, "num_args": {"i": "1"}}}, {"name": "decoder/decoder_conv0_pointwise/Relu", "op": "_FusedConv2D", "input": ["decoder/decoder_conv0_depthwise/depthwise", "decoder/decoder_conv0_pointwise/Conv2D_weights", "decoder/decoder_conv0_pointwise/Conv2D_bn_offset"], "device": "/device:CPU:0", "attr": {"T": {"type": "DT_FLOAT"}, "use_cudnn_on_gpu": {"b": true}, "num_args": {"i": "1"}, "padding": {"s": "U0FNRQ=="}, "explicit_paddings": {"list": {}}, "fused_ops": {"list": {"s": ["Qmlhc0FkZA==", "UmVsdQ=="]}}, "strides": {"list": {"i": ["1", "1", "1", "1"]}}, "data_format": {"s": "TkhXQw=="}, "epsilon": {"f": 0.0}, "dilations": {"list": {"i": ["1", "1", "1", "1"]}}}}, {"name": "decoder/decoder_conv1_depthwise/depthwise", "op": "FusedDepthwiseConv2dNative", "input": ["decoder/decoder_conv0_pointwise/Relu", "decoder/decoder_conv1_depthwise/depthwise_weights", "decoder/decoder_conv1_depthwise/depthwise_bn_offset"], "attr": {"data_format": {"s": "TkhXQw=="}, "strides": {"list": {"i": ["1", "1", "1", "1"]}}, "num_args": {"i": "1"}, "explicit_paddings": {"list": {}}, "padding": {"s": "U0FNRQ=="}, "fused_ops": {"list": {"s": ["Qmlhc0FkZA==", "UmVsdQ=="]}}, "dilations": {"list": {"i": ["1", "1", "1", "1"]}}, "T": {"type": "DT_FLOAT"}}}, {"name": "decoder/decoder_conv1_pointwise/Relu", "op": "_FusedConv2D", "input": ["decoder/decoder_conv1_depthwise/depthwise", "decoder/decoder_conv1_pointwise/Conv2D_weights", "decoder/decoder_conv1_pointwise/Conv2D_bn_offset"], "device": "/device:CPU:0", "attr": {"padding": {"s": "U0FNRQ=="}, "fused_ops": {"list": {"s": ["Qmlhc0FkZA==", "UmVsdQ=="]}}, "T": {"type": "DT_FLOAT"}, "use_cudnn_on_gpu": {"b": true}, "strides": {"list": {"i": ["1", "1", "1", "1"]}}, "num_args": {"i": "1"}, "explicit_paddings": {"list": {}}, "dilations": {"list": {"i": ["1", "1", "1", "1"]}}, "epsilon": {"f": 0.0}, "data_format": {"s": "TkhXQw=="}}}, {"name": "logits/semantic/BiasAdd", "op": "_FusedConv2D", "input": ["decoder/decoder_conv1_pointwise/Relu", "logits/semantic/weights", "logits/semantic/biases"], "device": "/device:CPU:0", "attr": {"explicit_paddings": {"list": {}}, "data_format": {"s": "TkhXQw=="}, "epsilon": {"f": 0.0}, "dilations": {"list": {"i": ["1", "1", "1", "1"]}}, "fused_ops": {"list": {"s": ["Qmlhc0FkZA=="]}}, "padding": {"s": "U0FNRQ=="}, "T": {"type": "DT_FLOAT"}, "use_cudnn_on_gpu": {"b": true}, "num_args": {"i": "1"}, "strides": {"list": {"i": ["1", "1", "1", "1"]}}}}, {"name": "ResizeBilinear_1", "op": "ResizeBilinear", "input": ["logits/semantic/BiasAdd", "ResizeBilinear_1/size"], "attr": {"T": {"type": "DT_FLOAT"}, "half_pixel_centers": {"b": false}, "align_corners": {"b": true}}}, {"name": "ResizeBilinear_2", "op": "ResizeBilinear", "input": ["ResizeBilinear_1", "strided_slice_4"], "attr": {"T": {"type": "DT_FLOAT"}, "half_pixel_centers": {"b": false}, "align_corners": {"b": true}}}, {"name": "ArgMax", "op": "ArgMax", "input": ["ResizeBilinear_2", "ArgMax/dimension"], "attr": {"T": {"type": "DT_FLOAT"}, "Tidx": {"type": "DT_INT32"}, "output_type": {"type": "DT_INT64"}}}, {"name": "Cast_7", "op": "Cast", "input": ["ArgMax"], "attr": {"SrcT": {"type": "DT_INT64"}, "Truncate": {"b": false}, "DstT": {"type": "DT_FLOAT"}}}, {"name": "strided_slice_7", "op": "StridedSlice", "input": ["Cast_7", "strided_slice_7/stack", "strided_slice_7/stack_1", "strided_slice_7/stack_2"], "attr": {"shrink_axis_mask": {"i": "0"}, "T": {"type": "DT_FLOAT"}, "ellipsis_mask": {"i": "0"}, "new_axis_mask": {"i": "0"}, "Index": {"type": "DT_INT32"}, "end_mask": {"i": "1"}, "begin_mask": {"i": "7"}}}, {"name": "ExpandDims_1", "op": "ExpandDims", "input": ["strided_slice_7", "ExpandDims_1/dim"], "attr": {"T": {"type": "DT_FLOAT"}, "Tdim": {"type": "DT_INT32"}}}, {"name": "resize_1/ResizeNearestNeighbor", "op": "ResizeNearestNeighbor", "input": ["ExpandDims_1", "strided_slice"], "attr": {"align_corners": {"b": true}, "T": {"type": "DT_FLOAT"}, "half_pixel_centers": {"b": false}}}, {"name": "Squeeze_1", "op": "Squeeze", "input": ["resize_1/ResizeNearestNeighbor"], "attr": {"T": {"type": "DT_FLOAT"}, "squeeze_dims": {"list": {"i": ["3"]}}}}, {"name": "Cast_8", "op": "Cast", "input": ["Squeeze_1"], "attr": {"SrcT": {"type": "DT_FLOAT"}, "Truncate": {"b": false}, "DstT": {"type": "DT_INT32"}}}, {"name": "SemanticPredictions", "op": "Identity", "input": ["Cast_8"], "attr": {"T": {"type": "DT_INT32"}}}], "library": {}, "versions": {}}, "weightsManifest": [{"paths": ["group1-shard1of1.bin"], "weights": [{"name": "ResizeBilinear/size", "shape": [2], "dtype": "int32"}, {"name": "MobilenetV2/expanded_conv_15/depthwise/depthwise/SpaceToBatchND/block_shape", "shape": [2], "dtype": "int32"}, {"name": "MobilenetV2/expanded_conv_15/depthwise/depthwise/SpaceToBatchND/paddings", "shape": [2, 2], "dtype": "int32"}, {"name": "MobilenetV2/expanded_conv_15/depthwise/depthwise_weights", "shape": [3, 3, 960, 1], "dtype": "float32", "quantization": {"dtype": "uint8", "min": -3.177547132267671, "scale": 0.023537386164945714, "original_dtype": "float32"}}, {"name": "MobilenetV2/expanded_conv_15/depthwise/depthwise/BatchToSpaceND/block_shape", "shape": [2], "dtype": "int32"}, {"name": "MobilenetV2/expanded_conv_15/depthwise/depthwise/BatchToSpaceND/crops", "shape": [2, 2], "dtype": "int32"}, {"name": "MobilenetV2/expanded_conv_14/depthwise/depthwise/SpaceToBatchND/block_shape", "shape": [2], "dtype": "int32"}, {"name": "MobilenetV2/expanded_conv_14/depthwise/depthwise/SpaceToBatchND/paddings", "shape": [2, 2], "dtype": "int32"}, {"name": "MobilenetV2/expanded_conv_14/depthwise/depthwise_weights", "shape": [3, 3, 960, 1], "dtype": "float32", "quantization": {"dtype": "uint8", "min": -3.280568838119507, "scale": 0.022017240524291992, "original_dtype": "float32"}}, {"name": "MobilenetV2/expanded_conv_14/depthwise/depthwise/BatchToSpaceND/block_shape", "shape": [2], "dtype": "int32"}, {"name": "MobilenetV2/expanded_conv_14/depthwise/depthwise/BatchToSpaceND/crops", "shape": [2, 2], "dtype": "int32"}, {"name": "MobilenetV2/expanded_conv_16/depthwise/depthwise/SpaceToBatchND/block_shape", "shape": [2], "dtype": "int32"}, {"name": "MobilenetV2/expanded_conv_16/depthwise/depthwise/SpaceToBatchND/paddings", "shape": [2, 2], "dtype": "int32"}, {"name": "MobilenetV2/expanded_conv_16/depthwise/depthwise_weights", "shape": [3, 3, 960, 1], "dtype": "float32", "quantization": {"dtype": "uint8", "min": -1.9911360198376225, "scale": 0.015555750154981425, "original_dtype": "float32"}}, {"name": "MobilenetV2/expanded_conv_16/depthwise/depthwise/BatchToSpaceND/block_shape", "shape": [2], "dtype": "int32"}, {"name": "MobilenetV2/expanded_conv_16/depthwise/depthwise/BatchToSpaceND/crops", "shape": [2, 2], "dtype": "int32"}, {"name": "concat/axis", "shape": [], "dtype": "int32"}, {"name": "decoder/ResizeBilinear/size", "shape": [2], "dtype": "int32"}, {"name": "mul_2/x", "shape": [], "dtype": "float32", "quantization": {"dtype": "uint8", "min": 0.007843137718737125, "scale": 1.0, "original_dtype": "float32"}}, {"name": "pad_to_bounding_box_1/stack", "shape": [2], "dtype": "int32"}, {"name": "pad_to_bounding_box_1/stack_1/0", "shape": [], "dtype": "int32"}, {"name": "pad_to_bounding_box_1/stack_2/0", "shape": [], "dtype": "int32"}, {"name": "pad_to_bounding_box/stack", "shape": [2], "dtype": "int32"}, {"name": "pad_to_bounding_box/stack_1/0", "shape": [], "dtype": "int32"}, {"name": "sub/x", "shape": [], "dtype": "int32"}, {"name": "Maximum/y", "shape": [], "dtype": "int32"}, {"name": "pad_to_bounding_box/stack_2/0", "shape": [], "dtype": "int32"}, {"name": "sub_1/x", "shape": [], "dtype": "int32"}, {"name": "Maximum_1/y", "shape": [], "dtype": "int32"}, {"name": "pad_to_bounding_box/ExpandDims/dim", "shape": [], "dtype": "int32"}, {"name": "pad_to_bounding_box/stack_3", "shape": [2], "dtype": "int32"}, {"name": "resize/ExpandDims/dim", "shape": [], "dtype": "int32"}, {"name": "Cast_1", "shape": [], "dtype": "float32", "quantization": {"dtype": "uint8", "min": 513.0, "scale": 1.0, "original_dtype": "float32"}}, {"name": "strided_slice_1/stack", "shape": [1], "dtype": "int32"}, {"name": "strided_slice_1/stack_1", "shape": [1], "dtype": "int32"}, {"name": "strided_slice_1/stack_2", "shape": [1], "dtype": "int32"}, {"name": "Cast_3", "shape": [], "dtype": "float32", "quantization": {"dtype": "uint8", "min": 513.0, "scale": 1.0, "original_dtype": "float32"}}, {"name": "strided_slice_2/stack", "shape": [1], "dtype": "int32"}, {"name": "strided_slice_2/stack_1", "shape": [1], "dtype": "int32"}, {"name": "strided_slice_2/stack_2", "shape": [1], "dtype": "int32"}, {"name": "pad_to_bounding_box_1/ExpandDims/dim", "shape": [], "dtype": "int32"}, {"name": "pad_to_bounding_box_1/stack_3", "shape": [2], "dtype": "int32"}, {"name": "Reshape", "shape": [1, 1, 3], "dtype": "float32", "quantization": {"dtype": "uint8", "min": 127.5, "scale": 1.0, "original_dtype": "float32"}}, {"name": "ExpandDims/dim", "shape": [], "dtype": "int32"}, {"name": "sub_2/y", "shape": [], "dtype": "float32", "quantization": {"dtype": "uint8", "min": 1.0, "scale": 1.0, "original_dtype": "float32"}}, {"name": "decoder/ResizeBilinear_1/size", "shape": [2], "dtype": "int32"}, {"name": "decoder/concat/axis", "shape": [], "dtype": "int32"}, {"name": "logits/semantic/weights", "shape": [1, 1, 256, 19], "dtype": "float32", "quantization": {"dtype": "uint8", "min": -0.34990044586798724, "scale": 0.0031522562690809663, "original_dtype": "float32"}}, {"name": "logits/semantic/biases", "shape": [19], "dtype": "float32", "quantization": {"dtype": "uint8", "min": -0.21060847838719687, "scale": 0.0030971835056940716, "original_dtype": "float32"}}, {"name": "ResizeBilinear_1/size", "shape": [2], "dtype": "int32"}, {"name": "strided_slice_4", "shape": [2], "dtype": "int32"}, {"name": "ArgMax/dimension", "shape": [], "dtype": "int32"}, {"name": "strided_slice_7/stack", "shape": [3], "dtype": "int32"}, {"name": "strided_slice_7/stack_1/0", "shape": [], "dtype": "int32"}, {"name": "strided_slice_5/stack", "shape": [1], "dtype": "int32"}, {"name": "strided_slice_5/stack_1", "shape": [1], "dtype": "int32"}, {"name": "strided_slice_5/stack_2", "shape": [1], "dtype": "int32"}, {"name": "strided_slice_3/stack", "shape": [1], "dtype": "int32"}, {"name": "strided_slice_3/stack_1", "shape": [1], "dtype": "int32"}, {"name": "strided_slice_3/stack_2", "shape": [1], "dtype": "int32"}, {"name": "strided_slice_6/stack", "shape": [1], "dtype": "int32"}, {"name": "strided_slice_6/stack_1", "shape": [1], "dtype": "int32"}, {"name": "strided_slice_6/stack_2", "shape": [1], "dtype": "int32"}, {"name": "strided_slice_7/stack_2", "shape": [3], "dtype": "int32"}, {"name": "ExpandDims_1/dim", "shape": [], "dtype": "int32"}, {"name": "strided_slice/stack", "shape": [1], "dtype": "int32"}, {"name": "strided_slice/stack_1", "shape": [1], "dtype": "int32"}, {"name": "strided_slice/stack_2", "shape": [1], "dtype": "int32"}, {"name": "MobilenetV2/Conv/Conv2D_weights", "shape": [3, 3, 3, 32], "dtype": "float32", "quantization": {"dtype": "uint8", "min": -11.345895206227022, "scale": 0.07091184503891888, "original_dtype": "float32"}}, {"name": "MobilenetV2/expanded_conv_15/depthwise/BatchNorm/FusedBatchNormV3/Offset", "shape": [960], "dtype": "float32", "quantization": {"dtype": "uint8", "min": -7.128290075414321, "scale": 0.053196194592644186, "original_dtype": "float32"}}, {"name": "MobilenetV2/Conv/Conv2D_bn_offset", "shape": [32], "dtype": "float32", "quantization": {"dtype": "uint8", "min": -2.8803203442517447, "scale": 0.028518023210413315, "original_dtype": "float32"}}, {"name": "MobilenetV2/expanded_conv/depthwise/depthwise_weights", "shape": [3, 3, 32, 1], "dtype": "float32", "quantization": {"dtype": "uint8", "min": -22.265720404830635, "scale": 0.34254954468970206, "original_dtype": "float32"}}, {"name": "MobilenetV2/expanded_conv/depthwise/depthwise_bn_offset", "shape": [32], "dtype": "float32", "quantization": {"dtype": "uint8", "min": -1.0780890679826924, "scale": 0.025071838790295172, "original_dtype": "float32"}}, {"name": "MobilenetV2/expanded_conv/project/Conv2D_weights", "shape": [1, 1, 32, 16], "dtype": "float32", "quantization": {"dtype": "uint8", "min": -5.867219139547909, "scale": 0.048893492829565906, "original_dtype": "float32"}}, {"name": "MobilenetV2/expanded_conv/project/Conv2D_bn_offset", "shape": [16], "dtype": "float32", "quantization": {"dtype": "uint8", "min": -21.704685802085727, "scale": 0.22375964744418275, "original_dtype": "float32"}}, {"name": "MobilenetV2/expanded_conv_1/expand/Conv2D_weights", "shape": [1, 1, 16, 96], "dtype": "float32", "quantization": {"dtype": "uint8", "min": -0.49042510250035454, "scale": 0.004191667542738073, "original_dtype": "float32"}}, {"name": "MobilenetV2/expanded_conv_1/expand/Conv2D_bn_offset", "shape": [96], "dtype": "float32", "quantization": {"dtype": "uint8", "min": -2.1385609795065483, "scale": 0.022047020407284006, "original_dtype": "float32"}}, {"name": "concat_projection/Conv2D_weights", "shape": [1, 1, 512, 256], "dtype": "float32", "quantization": {"dtype": "uint8", "min": -0.2982501436682308, "scale": 0.002259470785365385, "original_dtype": "float32"}}, {"name": "MobilenetV2/expanded_conv_1/depthwise/depthwise_weights", "shape": [3, 3, 96, 1], "dtype": "float32", "quantization": {"dtype": "uint8", "min": -4.159141413370768, "scale": 0.030581922157138, "original_dtype": "float32"}}, {"name": "MobilenetV2/expanded_conv_1/depthwise/depthwise_bn_offset", "shape": [96], "dtype": "float32", "quantization": {"dtype": "uint8", "min": -12.527237764994302, "scale": 0.07979132334391276, "original_dtype": "float32"}}, {"name": "MobilenetV2/expanded_conv_1/project/Conv2D_weights", "shape": [1, 1, 96, 24], "dtype": "float32", "quantization": {"dtype": "uint8", "min": -2.6019345311557545, "scale": 0.020815476249246036, "original_dtype": "float32"}}, {"name": "MobilenetV2/expanded_conv_1/project/Conv2D_bn_offset", "shape": [24], "dtype": "float32", "quantization": {"dtype": "uint8", "min": -31.1247953527114, "scale": 0.19452997095444624, "original_dtype": "float32"}}, {"name": "MobilenetV2/expanded_conv_2/expand/Conv2D_weights", "shape": [1, 1, 24, 144], "dtype": "float32", "quantization": {"dtype": "uint8", "min": -0.27715936303138733, "scale": 0.0022172749042510985, "original_dtype": "float32"}}, {"name": "concat_projection/Conv2D_bn_offset", "shape": [256], "dtype": "float32", "quantization": {"dtype": "uint8", "min": -0.9510027661043055, "scale": 0.009510027661043054, "original_dtype": "float32"}}, {"name": "MobilenetV2/expanded_conv_2/expand/Conv2D_bn_offset", "shape": [144], "dtype": "float32", "quantization": {"dtype": "uint8", "min": -2.7579029232847927, "scale": 0.02677575653674556, "original_dtype": "float32"}}, {"name": "MobilenetV2/expanded_conv_2/depthwise/depthwise_weights", "shape": [3, 3, 144, 1], "dtype": "float32", "quantization": {"dtype": "uint8", "min": -7.748551134969674, "scale": 0.09808292575910979, "original_dtype": "float32"}}, {"name": "MobilenetV2/expanded_conv_2/depthwise/depthwise_bn_offset", "shape": [144], "dtype": "float32", "quantization": {"dtype": "uint8", "min": -3.145794262605555, "scale": 0.07315800610710593, "original_dtype": "float32"}}, {"name": "MobilenetV2/expanded_conv_2/project/Conv2D_weights", "shape": [1, 1, 144, 24], "dtype": "float32", "quantization": {"dtype": "uint8", "min": -2.5046618573805866, "scale": 0.018832044040455537, "original_dtype": "float32"}}, {"name": "MobilenetV2/expanded_conv_2/project/Conv2D_bn_offset", "shape": [24], "dtype": "float32", "quantization": {"dtype": "uint8", "min": -18.961616097244562, "scale": 0.12725916843788296, "original_dtype": "float32"}}, {"name": "decoder/feature_projection0/Conv2D_weights", "shape": [1, 1, 144, 48], "dtype": "float32", "quantization": {"dtype": "uint8", "min": -0.24413925298288755, "scale": 0.001922356322699902, "original_dtype": "float32"}}, {"name": "decoder/feature_projection0/Conv2D_bn_offset", "shape": [48], "dtype": "float32", "quantization": {"dtype": "uint8", "min": -3.3708502264583813, "scale": 0.027184276019825655, "original_dtype": "float32"}}, {"name": "MobilenetV2/expanded_conv_3/expand/Conv2D_weights", "shape": [1, 1, 24, 144], "dtype": "float32", "quantization": {"dtype": "uint8", "min": -0.3696479367859223, "scale": 0.0023248297911064295, "original_dtype": "float32"}}, {"name": "decoder/decoder_conv0_depthwise/depthwise_weights", "shape": [3, 3, 304, 1], "dtype": "float32", "quantization": {"dtype": "uint8", "min": -3.9485759594861203, "scale": 0.03210224357305789, "original_dtype": "float32"}}, {"name": "MobilenetV2/expanded_conv_3/expand/Conv2D_bn_offset", "shape": [144], "dtype": "float32", "quantization": {"dtype": "uint8", "min": -2.502980525820863, "scale": 0.020516233818203795, "original_dtype": "float32"}}, {"name": "MobilenetV2/expanded_conv_3/depthwise/depthwise_weights", "shape": [3, 3, 144, 1], "dtype": "float32", "quantization": {"dtype": "uint8", "min": -4.787138866910747, "scale": 0.02674379255257401, "original_dtype": "float32"}}, {"name": "MobilenetV2/expanded_conv_3/depthwise/depthwise_bn_offset", "shape": [144], "dtype": "float32", "quantization": {"dtype": "uint8", "min": -4.462427958320168, "scale": 0.06285109800450941, "original_dtype": "float32"}}, {"name": "MobilenetV2/expanded_conv_3/project/Conv2D_weights", "shape": [1, 1, 144, 32], "dtype": "float32", "quantization": {"dtype": "uint8", "min": -1.4716061816496007, "scale": 0.012908826154821059, "original_dtype": "float32"}}, {"name": "decoder/decoder_conv0_depthwise/depthwise_bn_offset", "shape": [304], "dtype": "float32", "quantization": {"dtype": "uint8", "min": -1.2316664821961345, "scale": 0.0092606502420762, "original_dtype": "float32"}}, {"name": "MobilenetV2/expanded_conv_3/project/Conv2D_bn_offset", "shape": [32], "dtype": "float32", "quantization": {"dtype": "uint8", "min": -16.781136522106095, "scale": 0.09589220869774912, "original_dtype": "float32"}}, {"name": "MobilenetV2/expanded_conv_4/expand/Conv2D_weights", "shape": [1, 1, 32, 192], "dtype": "float32", "quantization": {"dtype": "uint8", "min": -0.15693673596662633, "scale": 0.00135290289626402, "original_dtype": "float32"}}, {"name": "MobilenetV2/expanded_conv_4/expand/Conv2D_bn_offset", "shape": [192], "dtype": "float32", "quantization": {"dtype": "uint8", "min": -2.324037052603329, "scale": 0.020937270744174133, "original_dtype": "float32"}}, {"name": "MobilenetV2/expanded_conv_4/depthwise/depthwise_weights", "shape": [3, 3, 192, 1], "dtype": "float32", "quantization": {"dtype": "uint8", "min": -8.494626868004893, "scale": 0.0551599147273045, "original_dtype": "float32"}}, {"name": "MobilenetV2/expanded_conv_4/depthwise/depthwise_bn_offset", "shape": [192], "dtype": "float32", "quantization": {"dtype": "uint8", "min": -4.81389674392401, "scale": 0.04962780148375268, "original_dtype": "float32"}}, {"name": "MobilenetV2/expanded_conv_4/project/Conv2D_weights", "shape": [1, 1, 192, 32], "dtype": "float32", "quantization": {"dtype": "uint8", "min": -1.716532574447931, "scale": 0.01699537202423694, "original_dtype": "float32"}}, {"name": "decoder/decoder_conv0_pointwise/Conv2D_weights", "shape": [1, 1, 304, 256], "dtype": "float32", "quantization": {"dtype": "uint8", "min": -0.26134454152163333, "scale": 0.002090756332173067, "original_dtype": "float32"}}, {"name": "MobilenetV2/expanded_conv_4/project/Conv2D_bn_offset", "shape": [32], "dtype": "float32", "quantization": {"dtype": "uint8", "min": -17.501596196492514, "scale": 0.10543130238850912, "original_dtype": "float32"}}, {"name": "MobilenetV2/expanded_conv_5/expand/Conv2D_weights", "shape": [1, 1, 32, 192], "dtype": "float32", "quantization": {"dtype": "uint8", "min": -0.14117547349602566, "scale": 0.0010614697255340276, "original_dtype": "float32"}}, {"name": "MobilenetV2/expanded_conv_5/expand/Conv2D_bn_offset", "shape": [192], "dtype": "float32", "quantization": {"dtype": "uint8", "min": -1.210524172408908, "scale": 0.013601395195605707, "original_dtype": "float32"}}, {"name": "decoder/decoder_conv0_pointwise/Conv2D_bn_offset", "shape": [256], "dtype": "float32", "quantization": {"dtype": "uint8", "min": -1.7159241358439128, "scale": 0.012617089234146417, "original_dtype": "float32"}}, {"name": "MobilenetV2/expanded_conv_5/depthwise/depthwise_weights", "shape": [3, 3, 192, 1], "dtype": "float32", "quantization": {"dtype": "uint8", "min": -6.29284454794491, "scale": 0.05826707914763806, "original_dtype": "float32"}}, {"name": "MobilenetV2/expanded_conv_5/depthwise/depthwise_bn_offset", "shape": [192], "dtype": "float32", "quantization": {"dtype": "uint8", "min": -10.51319091647279, "scale": 0.0633324754004385, "original_dtype": "float32"}}, {"name": "MobilenetV2/expanded_conv_5/project/Conv2D_weights", "shape": [1, 1, 192, 32], "dtype": "float32", "quantization": {"dtype": "uint8", "min": -3.253086921280506, "scale": 0.024832724589927524, "original_dtype": "float32"}}, {"name": "MobilenetV2/expanded_conv_14/depthwise/BatchNorm/FusedBatchNormV3/Scaled", "shape": [960], "dtype": "float32", "quantization": {"dtype": "uint8", "min": 0.22961990535259247, "scale": 0.06185751551506566, "original_dtype": "float32"}}, {"name": "MobilenetV2/expanded_conv_5/project/Conv2D_bn_offset", "shape": [32], "dtype": "float32", "quantization": {"dtype": "uint8", "min": -8.73734395644244, "scale": 0.0809013329300226, "original_dtype": "float32"}}, {"name": "MobilenetV2/expanded_conv_6/expand/Conv2D_weights", "shape": [1, 1, 32, 192], "dtype": "float32", "quantization": {"dtype": "uint8", "min": -0.20302464418551502, "scale": 0.0015038862532260372, "original_dtype": "float32"}}, {"name": "MobilenetV2/expanded_conv_6/expand/Conv2D_bn_offset", "shape": [192], "dtype": "float32", "quantization": {"dtype": "uint8", "min": -1.9784515979243258, "scale": 0.016350839652267156, "original_dtype": "float32"}}, {"name": "decoder/decoder_conv1_depthwise/depthwise_weights", "shape": [3, 3, 256, 1], "dtype": "float32", "quantization": {"dtype": "uint8", "min": -2.3091765011058136, "scale": 0.01847341200884651, "original_dtype": "float32"}}, {"name": "MobilenetV2/expanded_conv_6/depthwise/depthwise_weights", "shape": [3, 3, 192, 1], "dtype": "float32", "quantization": {"dtype": "uint8", "min": -1.6709367761424945, "scale": 0.014160481153749953, "original_dtype": "float32"}}, {"name": "MobilenetV2/expanded_conv_6/depthwise/depthwise_bn_offset", "shape": [192], "dtype": "float32", "quantization": {"dtype": "uint8", "min": -1.7575060526529949, "scale": 0.04393765131632487, "original_dtype": "float32"}}, {"name": "MobilenetV2/expanded_conv_6/project/Conv2D_weights", "shape": [1, 1, 192, 64], "dtype": "float32", "quantization": {"dtype": "uint8", "min": -1.483470636255601, "scale": 0.012362255302130008, "original_dtype": "float32"}}, {"name": "MobilenetV2/expanded_conv_6/project/Conv2D_bn_offset", "shape": [64], "dtype": "float32", "quantization": {"dtype": "uint8", "min": -13.425074453914867, "scale": 0.12430624494365618, "original_dtype": "float32"}}, {"name": "MobilenetV2/expanded_conv_7/expand/Conv2D_weights", "shape": [1, 1, 64, 384], "dtype": "float32", "quantization": {"dtype": "uint8", "min": -0.15310384911649366, "scale": 0.0011868515435387106, "original_dtype": "float32"}}, {"name": "decoder/decoder_conv1_depthwise/depthwise_bn_offset", "shape": [256], "dtype": "float32", "quantization": {"dtype": "uint8", "min": -0.8778101247899672, "scale": 0.006966747022142597, "original_dtype": "float32"}}, {"name": "MobilenetV2/expanded_conv_7/expand/Conv2D_bn_offset", "shape": [384], "dtype": "float32", "quantization": {"dtype": "uint8", "min": -1.6072690753375785, "scale": 0.015913555201362162, "original_dtype": "float32"}}, {"name": "MobilenetV2/expanded_conv_7/depthwise/depthwise_weights", "shape": [3, 3, 384, 1], "dtype": "float32", "quantization": {"dtype": "uint8", "min": -8.10734255173627, "scale": 0.09109373653636259, "original_dtype": "float32"}}, {"name": "MobilenetV2/expanded_conv_7/depthwise/depthwise_bn_offset", "shape": [384], "dtype": "float32", "quantization": {"dtype": "uint8", "min": -19.474250165153954, "scale": 0.115918155744964, "original_dtype": "float32"}}, {"name": "MobilenetV2/expanded_conv_7/project/Conv2D_weights", "shape": [1, 1, 384, 64], "dtype": "float32", "quantization": {"dtype": "uint8", "min": -0.8726295034090678, "scale": 0.010266229451871386, "original_dtype": "float32"}}, {"name": "MobilenetV2/expanded_conv_7/project/Conv2D_bn_offset", "shape": [64], "dtype": "float32", "quantization": {"dtype": "uint8", "min": -9.78917449502384, "scale": 0.059690088384291705, "original_dtype": "float32"}}, {"name": "MobilenetV2/expanded_conv_8/expand/Conv2D_weights", "shape": [1, 1, 64, 384], "dtype": "float32", "quantization": {"dtype": "uint8", "min": -0.172180631406167, "scale": 0.0011555747074239394, "original_dtype": "float32"}}, {"name": "decoder/decoder_conv1_pointwise/Conv2D_weights", "shape": [1, 1, 256, 256], "dtype": "float32", "quantization": {"dtype": "uint8", "min": -0.2965714426601634, "scale": 0.0023537416084139953, "original_dtype": "float32"}}, {"name": "MobilenetV2/expanded_conv_8/expand/Conv2D_bn_offset", "shape": [384], "dtype": "float32", "quantization": {"dtype": "uint8", "min": -1.016894494785982, "scale": 0.011174664777867934, "original_dtype": "float32"}}, {"name": "MobilenetV2/expanded_conv_8/depthwise/depthwise_weights", "shape": [3, 3, 384, 1], "dtype": "float32", "quantization": {"dtype": "uint8", "min": -4.177690633138021, "scale": 0.04262949625651042, "original_dtype": "float32"}}, {"name": "MobilenetV2/expanded_conv_8/depthwise/depthwise_bn_offset", "shape": [384], "dtype": "float32", "quantization": {"dtype": "uint8", "min": -3.261835951898612, "scale": 0.029925100476134055, "original_dtype": "float32"}}, {"name": "MobilenetV2/expanded_conv_8/project/Conv2D_weights", "shape": [1, 1, 384, 64], "dtype": "float32", "quantization": {"dtype": "uint8", "min": -1.197970164523405, "scale": 0.009739594833523619, "original_dtype": "float32"}}, {"name": "decoder/decoder_conv1_pointwise/Conv2D_bn_offset", "shape": [256], "dtype": "float32", "quantization": {"dtype": "uint8", "min": -1.7801421282338161, "scale": 0.01401686715144737, "original_dtype": "float32"}}, {"name": "MobilenetV2/expanded_conv_8/project/Conv2D_bn_offset", "shape": [64], "dtype": "float32", "quantization": {"dtype": "uint8", "min": -5.187888070648792, "scale": 0.047162618824079926, "original_dtype": "float32"}}, {"name": "MobilenetV2/expanded_conv_9/expand/Conv2D_weights", "shape": [1, 1, 64, 384], "dtype": "float32", "quantization": {"dtype": "uint8", "min": -0.14903101149727319, "scale": 0.001182785805533914, "original_dtype": "float32"}}, {"name": "MobilenetV2/expanded_conv_9/expand/Conv2D_bn_offset", "shape": [384], "dtype": "float32", "quantization": {"dtype": "uint8", "min": -1.371957808382371, "scale": 0.01115412852343391, "original_dtype": "float32"}}, {"name": "MobilenetV2/expanded_conv_9/depthwise/depthwise_weights", "shape": [3, 3, 384, 1], "dtype": "float32", "quantization": {"dtype": "uint8", "min": -5.598516105203068, "scale": 0.03782781152164235, "original_dtype": "float32"}}, {"name": "MobilenetV2/expanded_conv_9/depthwise/depthwise_bn_offset", "shape": [384], "dtype": "float32", "quantization": {"dtype": "uint8", "min": -13.630034115735222, "scale": 0.07136143516091739, "original_dtype": "float32"}}, {"name": "MobilenetV2/expanded_conv_9/project/Conv2D_weights", "shape": [1, 1, 384, 64], "dtype": "float32", "quantization": {"dtype": "uint8", "min": -1.1227885325749716, "scale": 0.009936181704203288, "original_dtype": "float32"}}, {"name": "MobilenetV2/expanded_conv_14/depthwise/BatchNorm/FusedBatchNormV3/Offset", "shape": [960], "dtype": "float32", "quantization": {"dtype": "uint8", "min": -6.81329948200899, "scale": 0.052816275054333256, "original_dtype": "float32"}}, {"name": "MobilenetV2/expanded_conv_9/project/Conv2D_bn_offset", "shape": [64], "dtype": "float32", "quantization": {"dtype": "uint8", "min": -12.990188733269187, "scale": 0.08018635020536535, "original_dtype": "float32"}}, {"name": "MobilenetV2/expanded_conv_10/expand/Conv2D_weights", "shape": [1, 1, 64, 384], "dtype": "float32", "quantization": {"dtype": "uint8", "min": -0.20993352403827742, "scale": 0.0016401056565490423, "original_dtype": "float32"}}, {"name": "MobilenetV2/expanded_conv_10/expand/Conv2D_bn_offset", "shape": [384], "dtype": "float32", "quantization": {"dtype": "uint8", "min": -1.1024556903278127, "scale": 0.018073044103734632, "original_dtype": "float32"}}, {"name": "MobilenetV2/expanded_conv_10/depthwise/depthwise_weights", "shape": [3, 3, 384, 1], "dtype": "float32", "quantization": {"dtype": "uint8", "min": -4.609261073318182, "scale": 0.03687408858654546, "original_dtype": "float32"}}, {"name": "MobilenetV2/expanded_conv_10/depthwise/depthwise_bn_offset", "shape": [384], "dtype": "float32", "quantization": {"dtype": "uint8", "min": -3.5783367886262782, "scale": 0.04417699739044788, "original_dtype": "float32"}}, {"name": "MobilenetV2/expanded_conv_10/project/Conv2D_weights", "shape": [1, 1, 384, 96], "dtype": "float32", "quantization": {"dtype": "uint8", "min": -0.7036416544633752, "scale": 0.005584457575106153, "original_dtype": "float32"}}, {"name": "MobilenetV2/expanded_conv_10/project/Conv2D_bn_offset", "shape": [96], "dtype": "float32", "quantization": {"dtype": "uint8", "min": -6.897812063553754, "scale": 0.056079772874420765, "original_dtype": "float32"}}, {"name": "MobilenetV2/expanded_conv_11/expand/Conv2D_weights", "shape": [1, 1, 96, 576], "dtype": "float32", "quantization": {"dtype": "uint8", "min": -0.24705439677425461, "scale": 0.0018436895281660791, "original_dtype": "float32"}}, {"name": "MobilenetV2/expanded_conv_11/expand/Conv2D_bn_offset", "shape": [576], "dtype": "float32", "quantization": {"dtype": "uint8", "min": -1.5228091370825674, "scale": 0.011896946383457558, "original_dtype": "float32"}}, {"name": "MobilenetV2/expanded_conv_11/depthwise/depthwise_weights", "shape": [3, 3, 576, 1], "dtype": "float32", "quantization": {"dtype": "uint8", "min": -9.04508404451258, "scale": 0.06554408727907667, "original_dtype": "float32"}}, {"name": "MobilenetV2/expanded_conv_11/depthwise/depthwise_bn_offset", "shape": [576], "dtype": "float32", "quantization": {"dtype": "uint8", "min": -3.4866804235121784, "scale": 0.034866804235121784, "original_dtype": "float32"}}, {"name": "MobilenetV2/expanded_conv_11/project/Conv2D_weights", "shape": [1, 1, 576, 96], "dtype": "float32", "quantization": {"dtype": "uint8", "min": -0.880197811126709, "scale": 0.00647204272887286, "original_dtype": "float32"}}, {"name": "MobilenetV2/expanded_conv_11/project/Conv2D_bn_offset", "shape": [96], "dtype": "float32", "quantization": {"dtype": "uint8", "min": -5.602661067364263, "scale": 0.0448212885389141, "original_dtype": "float32"}}, {"name": "MobilenetV2/expanded_conv_12/expand/Conv2D_weights", "shape": [1, 1, 96, 576], "dtype": "float32", "quantization": {"dtype": "uint8", "min": -0.16547719695988825, "scale": 0.0012257570145176907, "original_dtype": "float32"}}, {"name": "MobilenetV2/expanded_conv_12/expand/Conv2D_bn_offset", "shape": [576], "dtype": "float32", "quantization": {"dtype": "uint8", "min": -1.4822775995030122, "scale": 0.01703767355750589, "original_dtype": "float32"}}, {"name": "MobilenetV2/expanded_conv_12/depthwise/depthwise_weights", "shape": [3, 3, 576, 1], "dtype": "float32", "quantization": {"dtype": "uint8", "min": -5.823598508273855, "scale": 0.04445495044483858, "original_dtype": "float32"}}, {"name": "MobilenetV2/expanded_conv_12/depthwise/depthwise_bn_offset", "shape": [576], "dtype": "float32", "quantization": {"dtype": "uint8", "min": -4.599200566609701, "scale": 0.043388684590657554, "original_dtype": "float32"}}, {"name": "MobilenetV2/expanded_conv_12/project/Conv2D_weights", "shape": [1, 1, 576, 96], "dtype": "float32", "quantization": {"dtype": "uint8", "min": -2.439935803413391, "scale": 0.015947292832767263, "original_dtype": "float32"}}, {"name": "MobilenetV2/expanded_conv_12/project/Conv2D_bn_offset", "shape": [96], "dtype": "float32", "quantization": {"dtype": "uint8", "min": -12.832619723151712, "scale": 0.08121911217184628, "original_dtype": "float32"}}, {"name": "MobilenetV2/expanded_conv_13/expand/Conv2D_weights", "shape": [1, 1, 96, 576], "dtype": "float32", "quantization": {"dtype": "uint8", "min": -0.19254171485994376, "scale": 0.0013851921932370055, "original_dtype": "float32"}}, {"name": "MobilenetV2/expanded_conv_13/expand/Conv2D_bn_offset", "shape": [576], "dtype": "float32", "quantization": {"dtype": "uint8", "min": -3.5419333177454333, "scale": 0.021863785912008847, "original_dtype": "float32"}}, {"name": "MobilenetV2/expanded_conv_13/depthwise/depthwise_weights", "shape": [3, 3, 576, 1], "dtype": "float32", "quantization": {"dtype": "uint8", "min": -3.4232596079508464, "scale": 0.027606932322184245, "original_dtype": "float32"}}, {"name": "MobilenetV2/expanded_conv_13/depthwise/depthwise_bn_offset", "shape": [576], "dtype": "float32", "quantization": {"dtype": "uint8", "min": -4.339715351777918, "scale": 0.03499770444982192, "original_dtype": "float32"}}, {"name": "MobilenetV2/expanded_conv_13/project/Conv2D_weights", "shape": [1, 1, 576, 160], "dtype": "float32", "quantization": {"dtype": "uint8", "min": -0.8430810054143271, "scale": 0.0077346881230672205, "original_dtype": "float32"}}, {"name": "MobilenetV2/expanded_conv_13/project/Conv2D_bn_offset", "shape": [160], "dtype": "float32", "quantization": {"dtype": "uint8", "min": -11.59617612876144, "scale": 0.08342572754504633, "original_dtype": "float32"}}, {"name": "MobilenetV2/expanded_conv_14/expand/Conv2D_weights", "shape": [1, 1, 160, 960], "dtype": "float32", "quantization": {"dtype": "uint8", "min": -0.3077923746669994, "scale": 0.0021374470462986067, "original_dtype": "float32"}}, {"name": "MobilenetV2/expanded_conv_14/expand/Conv2D_bn_offset", "shape": [960], "dtype": "float32", "quantization": {"dtype": "uint8", "min": -1.4055510577033548, "scale": 0.0167327506869447, "original_dtype": "float32"}}, {"name": "MobilenetV2/expanded_conv_14/project/Conv2D_weights", "shape": [1, 1, 960, 160], "dtype": "float32", "quantization": {"dtype": "uint8", "min": -1.2264793484818701, "scale": 0.0089524040035173, "original_dtype": "float32"}}, {"name": "MobilenetV2/expanded_conv_16/depthwise/BatchNorm/FusedBatchNormV3/Scaled", "shape": [960], "dtype": "float32", "quantization": {"dtype": "uint8", "min": 0.22480778396129608, "scale": 0.19485065218280342, "original_dtype": "float32"}}, {"name": "MobilenetV2/expanded_conv_14/project/Conv2D_bn_offset", "shape": [160], "dtype": "float32", "quantization": {"dtype": "uint8", "min": -6.609610596825094, "scale": 0.05123729144825655, "original_dtype": "float32"}}, {"name": "MobilenetV2/expanded_conv_15/expand/Conv2D_weights", "shape": [1, 1, 160, 960], "dtype": "float32", "quantization": {"dtype": "uint8", "min": -0.1740274914339477, "scale": 0.0013922199314715816, "original_dtype": "float32"}}, {"name": "MobilenetV2/expanded_conv_15/expand/Conv2D_bn_offset", "shape": [960], "dtype": "float32", "quantization": {"dtype": "uint8", "min": -1.7318241007187787, "scale": 0.013424993028827742, "original_dtype": "float32"}}, {"name": "MobilenetV2/expanded_conv_15/project/Conv2D_weights", "shape": [1, 1, 960, 160], "dtype": "float32", "quantization": {"dtype": "uint8", "min": -1.51152365768657, "scale": 0.012288810225094066, "original_dtype": "float32"}}, {"name": "MobilenetV2/expanded_conv_16/depthwise/BatchNorm/FusedBatchNormV3/Offset", "shape": [960], "dtype": "float32", "quantization": {"dtype": "uint8", "min": -5.575147095848532, "scale": 0.04460117676678826, "original_dtype": "float32"}}, {"name": "MobilenetV2/expanded_conv_15/project/Conv2D_bn_offset", "shape": [160], "dtype": "float32", "quantization": {"dtype": "uint8", "min": -5.804153262867647, "scale": 0.06045992982153799, "original_dtype": "float32"}}, {"name": "MobilenetV2/expanded_conv_16/expand/Conv2D_weights", "shape": [1, 1, 160, 960], "dtype": "float32", "quantization": {"dtype": "uint8", "min": -0.15323244385859547, "scale": 0.001187848402004616, "original_dtype": "float32"}}, {"name": "MobilenetV2/expanded_conv_16/expand/Conv2D_bn_offset", "shape": [960], "dtype": "float32", "quantization": {"dtype": "uint8", "min": -2.0250654426275516, "scale": 0.013870311250873641, "original_dtype": "float32"}}, {"name": "MobilenetV2/expanded_conv_16/project/Conv2D_weights", "shape": [1, 1, 960, 320], "dtype": "float32", "quantization": {"dtype": "uint8", "min": -0.5611962886417614, "scale": 0.004157009545494529, "original_dtype": "float32"}}, {"name": "MobilenetV2/expanded_conv_16/project/Conv2D_bn_offset", "shape": [320], "dtype": "float32", "quantization": {"dtype": "uint8", "min": -7.449058341979981, "scale": 0.05911951065063477, "original_dtype": "float32"}}, {"name": "aspp0/Conv2D_weights", "shape": [1, 1, 320, 256], "dtype": "float32", "quantization": {"dtype": "uint8", "min": -0.08075129781283584, "scale": 0.0007021851983724856, "original_dtype": "float32"}}, {"name": "MobilenetV2/expanded_conv_15/depthwise/BatchNorm/FusedBatchNormV3/Scaled", "shape": [960], "dtype": "float32", "quantization": {"dtype": "uint8", "min": 0.24993476271629333, "scale": 0.12312056001494913, "original_dtype": "float32"}}, {"name": "aspp0/Conv2D_bn_offset", "shape": [256], "dtype": "float32", "quantization": {"dtype": "uint8", "min": -0.2159796160810134, "scale": 0.0019457623070361567, "original_dtype": "float32"}}, {"name": "image_pooling/Conv2D_weights", "shape": [1, 1, 320, 256], "dtype": "float32", "quantization": {"dtype": "uint8", "min": -37.28585142247817, "scale": 0.29591945573395373, "original_dtype": "float32"}}, {"name": "image_pooling/Conv2D_bn_offset", "shape": [256], "dtype": "float32", "quantization": {"dtype": "uint8", "min": -188.67503608254825, "scale": 1.338120823280484, "original_dtype": "float32"}}, {"name": "pad_to_bounding_box_1/sub_2/x", "shape": [], "dtype": "int32"}, {"name": "pad_to_bounding_box_1/sub_1/x", "shape": [], "dtype": "int32"}]}]}