{"format": "graph-model", "generatedBy": "2.7.0-dev20210923", "convertedBy": "TensorFlow.js Converter v3.9.0", "signature": {"outputs": {"SemanticPredictions": {"name": "SemanticPredictions"}}}, "modelTopology": {"node": [{"name": "ResizeBilinear/size", "op": "Const", "attr": {"dtype": {"type": "DT_INT32"}, "value": {"tensor": {"dtype": "DT_INT32", "tensorShape": {"dim": [{"size": "2"}]}}}}}, {"name": "aspp1_depthwise/depthwise/SpaceToBatchND/block_shape", "op": "Const", "attr": {"value": {"tensor": {"dtype": "DT_INT32", "tensorShape": {"dim": [{"size": "2"}]}}}, "dtype": {"type": "DT_INT32"}}}, {"name": "aspp1_depthwise/depthwise/SpaceToBatchND/paddings", "op": "Const", "attr": {"dtype": {"type": "DT_INT32"}, "value": {"tensor": {"dtype": "DT_INT32", "tensorShape": {"dim": [{"size": "2"}, {"size": "2"}]}}}}}, {"name": "aspp1_depthwise/depthwise_weights", "op": "Const", "attr": {"dtype": {"type": "DT_FLOAT"}, "value": {"tensor": {"dtype": "DT_FLOAT", "tensorShape": {"dim": [{"size": "3"}, {"size": "3"}, {"size": "2048"}, {"size": "1"}]}}}}}, {"name": "aspp1_depthwise/depthwise/BatchToSpaceND/block_shape", "op": "Const", "attr": {"dtype": {"type": "DT_INT32"}, "value": {"tensor": {"dtype": "DT_INT32", "tensorShape": {"dim": [{"size": "2"}]}}}}}, {"name": "aspp1_depthwise/depthwise/BatchToSpaceND/crops", "op": "Const", "attr": {"dtype": {"type": "DT_INT32"}, "value": {"tensor": {"dtype": "DT_INT32", "tensorShape": {"dim": [{"size": "2"}, {"size": "2"}]}}}}}, {"name": "aspp2_depthwise/depthwise/SpaceToBatchND/block_shape", "op": "Const", "attr": {"dtype": {"type": "DT_INT32"}, "value": {"tensor": {"dtype": "DT_INT32", "tensorShape": {"dim": [{"size": "2"}]}}}}}, {"name": "aspp2_depthwise/depthwise/SpaceToBatchND/paddings", "op": "Const", "attr": {"dtype": {"type": "DT_INT32"}, "value": {"tensor": {"dtype": "DT_INT32", "tensorShape": {"dim": [{"size": "2"}, {"size": "2"}]}}}}}, {"name": "aspp2_depthwise/depthwise_weights", "op": "Const", "attr": {"value": {"tensor": {"dtype": "DT_FLOAT", "tensorShape": {"dim": [{"size": "3"}, {"size": "3"}, {"size": "2048"}, {"size": "1"}]}}}, "dtype": {"type": "DT_FLOAT"}}}, {"name": "aspp2_depthwise/depthwise/BatchToSpaceND/block_shape", "op": "Const", "attr": {"dtype": {"type": "DT_INT32"}, "value": {"tensor": {"dtype": "DT_INT32", "tensorShape": {"dim": [{"size": "2"}]}}}}}, {"name": "aspp2_depthwise/depthwise/BatchToSpaceND/crops", "op": "Const", "attr": {"dtype": {"type": "DT_INT32"}, "value": {"tensor": {"dtype": "DT_INT32", "tensorShape": {"dim": [{"size": "2"}, {"size": "2"}]}}}}}, {"name": "xception_65/entry_flow/block3/unit_1/xception_module/Pad/paddings", "op": "Const", "attr": {"value": {"tensor": {"dtype": "DT_INT32", "tensorShape": {"dim": [{"size": "4"}, {"size": "2"}]}}}, "dtype": {"type": "DT_INT32"}}}, {"name": "xception_65/entry_flow/block2/unit_1/xception_module/Pad/paddings", "op": "Const", "attr": {"dtype": {"type": "DT_INT32"}, "value": {"tensor": {"dtype": "DT_INT32", "tensorShape": {"dim": [{"size": "4"}, {"size": "2"}]}}}}}, {"name": "xception_65/exit_flow/block2/unit_1/xception_module/separable_conv1_depthwise/depthwise/SpaceToBatchND/block_shape", "op": "Const", "attr": {"value": {"tensor": {"dtype": "DT_INT32", "tensorShape": {"dim": [{"size": "2"}]}}}, "dtype": {"type": "DT_INT32"}}}, {"name": "xception_65/exit_flow/block2/unit_1/xception_module/separable_conv1_depthwise/depthwise/SpaceToBatchND/paddings", "op": "Const", "attr": {"value": {"tensor": {"dtype": "DT_INT32", "tensorShape": {"dim": [{"size": "2"}, {"size": "2"}]}}}, "dtype": {"type": "DT_INT32"}}}, {"name": "xception_65/exit_flow/block2/unit_1/xception_module/separable_conv1_depthwise/depthwise_weights", "op": "Const", "attr": {"dtype": {"type": "DT_FLOAT"}, "value": {"tensor": {"dtype": "DT_FLOAT", "tensorShape": {"dim": [{"size": "3"}, {"size": "3"}, {"size": "1024"}, {"size": "1"}]}}}}}, {"name": "xception_65/exit_flow/block2/unit_1/xception_module/separable_conv1_depthwise/depthwise/BatchToSpaceND/block_shape", "op": "Const", "attr": {"dtype": {"type": "DT_INT32"}, "value": {"tensor": {"dtype": "DT_INT32", "tensorShape": {"dim": [{"size": "2"}]}}}}}, {"name": "xception_65/exit_flow/block2/unit_1/xception_module/separable_conv1_depthwise/depthwise/BatchToSpaceND/crops", "op": "Const", "attr": {"dtype": {"type": "DT_INT32"}, "value": {"tensor": {"dtype": "DT_INT32", "tensorShape": {"dim": [{"size": "2"}, {"size": "2"}]}}}}}, {"name": "xception_65/exit_flow/block2/unit_1/xception_module/separable_conv2_depthwise/depthwise/SpaceToBatchND/block_shape", "op": "Const", "attr": {"dtype": {"type": "DT_INT32"}, "value": {"tensor": {"dtype": "DT_INT32", "tensorShape": {"dim": [{"size": "2"}]}}}}}, {"name": "xception_65/exit_flow/block2/unit_1/xception_module/separable_conv2_depthwise/depthwise/SpaceToBatchND/paddings", "op": "Const", "attr": {"dtype": {"type": "DT_INT32"}, "value": {"tensor": {"dtype": "DT_INT32", "tensorShape": {"dim": [{"size": "2"}, {"size": "2"}]}}}}}, {"name": "xception_65/exit_flow/block2/unit_1/xception_module/separable_conv2_depthwise/depthwise_weights", "op": "Const", "attr": {"dtype": {"type": "DT_FLOAT"}, "value": {"tensor": {"dtype": "DT_FLOAT", "tensorShape": {"dim": [{"size": "3"}, {"size": "3"}, {"size": "1536"}, {"size": "1"}]}}}}}, {"name": "xception_65/exit_flow/block2/unit_1/xception_module/separable_conv2_depthwise/depthwise/BatchToSpaceND/block_shape", "op": "Const", "attr": {"dtype": {"type": "DT_INT32"}, "value": {"tensor": {"dtype": "DT_INT32", "tensorShape": {"dim": [{"size": "2"}]}}}}}, {"name": "xception_65/exit_flow/block2/unit_1/xception_module/separable_conv2_depthwise/depthwise/BatchToSpaceND/crops", "op": "Const", "attr": {"dtype": {"type": "DT_INT32"}, "value": {"tensor": {"dtype": "DT_INT32", "tensorShape": {"dim": [{"size": "2"}, {"size": "2"}]}}}}}, {"name": "xception_65/exit_flow/block2/unit_1/xception_module/separable_conv3_depthwise/depthwise/SpaceToBatchND/block_shape", "op": "Const", "attr": {"dtype": {"type": "DT_INT32"}, "value": {"tensor": {"dtype": "DT_INT32", "tensorShape": {"dim": [{"size": "2"}]}}}}}, {"name": "xception_65/exit_flow/block2/unit_1/xception_module/separable_conv3_depthwise/depthwise/SpaceToBatchND/paddings", "op": "Const", "attr": {"dtype": {"type": "DT_INT32"}, "value": {"tensor": {"dtype": "DT_INT32", "tensorShape": {"dim": [{"size": "2"}, {"size": "2"}]}}}}}, {"name": "xception_65/exit_flow/block2/unit_1/xception_module/separable_conv3_depthwise/depthwise_weights", "op": "Const", "attr": {"dtype": {"type": "DT_FLOAT"}, "value": {"tensor": {"dtype": "DT_FLOAT", "tensorShape": {"dim": [{"size": "3"}, {"size": "3"}, {"size": "1536"}, {"size": "1"}]}}}}}, {"name": "xception_65/exit_flow/block2/unit_1/xception_module/separable_conv3_depthwise/depthwise/BatchToSpaceND/block_shape", "op": "Const", "attr": {"dtype": {"type": "DT_INT32"}, "value": {"tensor": {"dtype": "DT_INT32", "tensorShape": {"dim": [{"size": "2"}]}}}}}, {"name": "xception_65/exit_flow/block2/unit_1/xception_module/separable_conv3_depthwise/depthwise/BatchToSpaceND/crops", "op": "Const", "attr": {"value": {"tensor": {"dtype": "DT_INT32", "tensorShape": {"dim": [{"size": "2"}, {"size": "2"}]}}}, "dtype": {"type": "DT_INT32"}}}, {"name": "aspp3_depthwise/depthwise/SpaceToBatchND/block_shape", "op": "Const", "attr": {"dtype": {"type": "DT_INT32"}, "value": {"tensor": {"dtype": "DT_INT32", "tensorShape": {"dim": [{"size": "2"}]}}}}}, {"name": "aspp3_depthwise/depthwise/SpaceToBatchND/paddings", "op": "Const", "attr": {"dtype": {"type": "DT_INT32"}, "value": {"tensor": {"dtype": "DT_INT32", "tensorShape": {"dim": [{"size": "2"}, {"size": "2"}]}}}}}, {"name": "aspp3_depthwise/depthwise_weights", "op": "Const", "attr": {"dtype": {"type": "DT_FLOAT"}, "value": {"tensor": {"dtype": "DT_FLOAT", "tensorShape": {"dim": [{"size": "3"}, {"size": "3"}, {"size": "2048"}, {"size": "1"}]}}}}}, {"name": "aspp3_depthwise/depthwise/BatchToSpaceND/block_shape", "op": "Const", "attr": {"dtype": {"type": "DT_INT32"}, "value": {"tensor": {"dtype": "DT_INT32", "tensorShape": {"dim": [{"size": "2"}]}}}}}, {"name": "aspp3_depthwise/depthwise/BatchToSpaceND/crops", "op": "Const", "attr": {"dtype": {"type": "DT_INT32"}, "value": {"tensor": {"dtype": "DT_INT32", "tensorShape": {"dim": [{"size": "2"}, {"size": "2"}]}}}}}, {"name": "concat/axis", "op": "Const", "attr": {"value": {"tensor": {"dtype": "DT_INT32", "tensorShape": {}}}, "dtype": {"type": "DT_INT32"}}}, {"name": "decoder/ResizeBilinear/size", "op": "Const", "attr": {"dtype": {"type": "DT_INT32"}, "value": {"tensor": {"dtype": "DT_INT32", "tensorShape": {"dim": [{"size": "2"}]}}}}}, {"name": "xception_65/entry_flow/block1/unit_1/xception_module/Pad/paddings", "op": "Const", "attr": {"value": {"tensor": {"dtype": "DT_INT32", "tensorShape": {"dim": [{"size": "4"}, {"size": "2"}]}}}, "dtype": {"type": "DT_INT32"}}}, {"name": "mul_2/x", "op": "Const", "attr": {"value": {"tensor": {"dtype": "DT_FLOAT", "tensorShape": {}}}, "dtype": {"type": "DT_FLOAT"}}}, {"name": "pad_to_bounding_box_1/stack", "op": "Const", "attr": {"dtype": {"type": "DT_INT32"}, "value": {"tensor": {"dtype": "DT_INT32", "tensorShape": {"dim": [{"size": "2"}]}}}}}, {"name": "pad_to_bounding_box_1/stack_1/0", "op": "Const", "attr": {"value": {"tensor": {"dtype": "DT_INT32", "tensorShape": {}}}, "dtype": {"type": "DT_INT32"}}}, {"name": "pad_to_bounding_box_1/stack_2/0", "op": "Const", "attr": {"dtype": {"type": "DT_INT32"}, "value": {"tensor": {"dtype": "DT_INT32", "tensorShape": {}}}}}, {"name": "pad_to_bounding_box/stack", "op": "Const", "attr": {"value": {"tensor": {"dtype": "DT_INT32", "tensorShape": {"dim": [{"size": "2"}]}}}, "dtype": {"type": "DT_INT32"}}}, {"name": "pad_to_bounding_box/stack_1/0", "op": "Const", "attr": {"dtype": {"type": "DT_INT32"}, "value": {"tensor": {"dtype": "DT_INT32", "tensorShape": {}}}}}, {"name": "sub/x", "op": "Const", "attr": {"dtype": {"type": "DT_INT32"}, "value": {"tensor": {"dtype": "DT_INT32", "tensorShape": {}}}}}, {"name": "Maximum/y", "op": "Const", "attr": {"dtype": {"type": "DT_INT32"}, "value": {"tensor": {"dtype": "DT_INT32", "tensorShape": {}}}}}, {"name": "pad_to_bounding_box/stack_2/0", "op": "Const", "attr": {"dtype": {"type": "DT_INT32"}, "value": {"tensor": {"dtype": "DT_INT32", "tensorShape": {}}}}}, {"name": "sub_1/x", "op": "Const", "attr": {"dtype": {"type": "DT_INT32"}, "value": {"tensor": {"dtype": "DT_INT32", "tensorShape": {}}}}}, {"name": "Maximum_1/y", "op": "Const", "attr": {"dtype": {"type": "DT_INT32"}, "value": {"tensor": {"dtype": "DT_INT32", "tensorShape": {}}}}}, {"name": "pad_to_bounding_box/ExpandDims/dim", "op": "Const", "attr": {"value": {"tensor": {"dtype": "DT_INT32", "tensorShape": {}}}, "dtype": {"type": "DT_INT32"}}}, {"name": "pad_to_bounding_box/stack_3", "op": "Const", "attr": {"dtype": {"type": "DT_INT32"}, "value": {"tensor": {"dtype": "DT_INT32", "tensorShape": {"dim": [{"size": "2"}]}}}}}, {"name": "resize/ExpandDims/dim", "op": "Const", "attr": {"dtype": {"type": "DT_INT32"}, "value": {"tensor": {"dtype": "DT_INT32", "tensorShape": {}}}}}, {"name": "Cast_1", "op": "Const", "attr": {"dtype": {"type": "DT_FLOAT"}, "value": {"tensor": {"dtype": "DT_FLOAT", "tensorShape": {}}}}}, {"name": "strided_slice_1/stack", "op": "Const", "attr": {"dtype": {"type": "DT_INT32"}, "value": {"tensor": {"dtype": "DT_INT32", "tensorShape": {"dim": [{"size": "1"}]}}}}}, {"name": "strided_slice_1/stack_1", "op": "Const", "attr": {"value": {"tensor": {"dtype": "DT_INT32", "tensorShape": {"dim": [{"size": "1"}]}}}, "dtype": {"type": "DT_INT32"}}}, {"name": "strided_slice_1/stack_2", "op": "Const", "attr": {"dtype": {"type": "DT_INT32"}, "value": {"tensor": {"dtype": "DT_INT32", "tensorShape": {"dim": [{"size": "1"}]}}}}}, {"name": "Cast_3", "op": "Const", "attr": {"dtype": {"type": "DT_FLOAT"}, "value": {"tensor": {"dtype": "DT_FLOAT", "tensorShape": {}}}}}, {"name": "strided_slice_2/stack", "op": "Const", "attr": {"dtype": {"type": "DT_INT32"}, "value": {"tensor": {"dtype": "DT_INT32", "tensorShape": {"dim": [{"size": "1"}]}}}}}, {"name": "strided_slice_2/stack_1", "op": "Const", "attr": {"dtype": {"type": "DT_INT32"}, "value": {"tensor": {"dtype": "DT_INT32", "tensorShape": {"dim": [{"size": "1"}]}}}}}, {"name": "strided_slice_2/stack_2", "op": "Const", "attr": {"dtype": {"type": "DT_INT32"}, "value": {"tensor": {"dtype": "DT_INT32", "tensorShape": {"dim": [{"size": "1"}]}}}}}, {"name": "pad_to_bounding_box_1/ExpandDims/dim", "op": "Const", "attr": {"dtype": {"type": "DT_INT32"}, "value": {"tensor": {"dtype": "DT_INT32", "tensorShape": {}}}}}, {"name": "pad_to_bounding_box_1/stack_3", "op": "Const", "attr": {"dtype": {"type": "DT_INT32"}, "value": {"tensor": {"dtype": "DT_INT32", "tensorShape": {"dim": [{"size": "2"}]}}}}}, {"name": "Reshape", "op": "Const", "attr": {"dtype": {"type": "DT_FLOAT"}, "value": {"tensor": {"dtype": "DT_FLOAT", "tensorShape": {"dim": [{"size": "1"}, {"size": "1"}, {"size": "3"}]}}}}}, {"name": "ExpandDims/dim", "op": "Const", "attr": {"value": {"tensor": {"dtype": "DT_INT32", "tensorShape": {}}}, "dtype": {"type": "DT_INT32"}}}, {"name": "sub_2/y", "op": "Const", "attr": {"value": {"tensor": {"dtype": "DT_FLOAT", "tensorShape": {}}}, "dtype": {"type": "DT_FLOAT"}}}, {"name": "xception_65/Pad/paddings", "op": "Const", "attr": {"dtype": {"type": "DT_INT32"}, "value": {"tensor": {"dtype": "DT_INT32", "tensorShape": {"dim": [{"size": "4"}, {"size": "2"}]}}}}}, {"name": "decoder/ResizeBilinear_1/size", "op": "Const", "attr": {"value": {"tensor": {"dtype": "DT_INT32", "tensorShape": {"dim": [{"size": "2"}]}}}, "dtype": {"type": "DT_INT32"}}}, {"name": "decoder/concat/axis", "op": "Const", "attr": {"dtype": {"type": "DT_INT32"}, "value": {"tensor": {"dtype": "DT_INT32", "tensorShape": {}}}}}, {"name": "logits/semantic/weights", "op": "Const", "attr": {"dtype": {"type": "DT_FLOAT"}, "value": {"tensor": {"dtype": "DT_FLOAT", "tensorShape": {"dim": [{"size": "1"}, {"size": "1"}, {"size": "256"}, {"size": "19"}]}}}}}, {"name": "logits/semantic/biases", "op": "Const", "attr": {"dtype": {"type": "DT_FLOAT"}, "value": {"tensor": {"dtype": "DT_FLOAT", "tensorShape": {"dim": [{"size": "19"}]}}}}}, {"name": "ResizeBilinear_1/size", "op": "Const", "attr": {"dtype": {"type": "DT_INT32"}, "value": {"tensor": {"dtype": "DT_INT32", "tensorShape": {"dim": [{"size": "2"}]}}}}}, {"name": "strided_slice_4", "op": "Const", "attr": {"dtype": {"type": "DT_INT32"}, "value": {"tensor": {"dtype": "DT_INT32", "tensorShape": {"dim": [{"size": "2"}]}}}}}, {"name": "ArgMax/dimension", "op": "Const", "attr": {"dtype": {"type": "DT_INT32"}, "value": {"tensor": {"dtype": "DT_INT32", "tensorShape": {}}}}}, {"name": "strided_slice_7/stack", "op": "Const", "attr": {"dtype": {"type": "DT_INT32"}, "value": {"tensor": {"dtype": "DT_INT32", "tensorShape": {"dim": [{"size": "3"}]}}}}}, {"name": "strided_slice_7/stack_1/0", "op": "Const", "attr": {"dtype": {"type": "DT_INT32"}, "value": {"tensor": {"dtype": "DT_INT32", "tensorShape": {}}}}}, {"name": "strided_slice_5/stack", "op": "Const", "attr": {"dtype": {"type": "DT_INT32"}, "value": {"tensor": {"dtype": "DT_INT32", "tensorShape": {"dim": [{"size": "1"}]}}}}}, {"name": "strided_slice_5/stack_1", "op": "Const", "attr": {"dtype": {"type": "DT_INT32"}, "value": {"tensor": {"dtype": "DT_INT32", "tensorShape": {"dim": [{"size": "1"}]}}}}}, {"name": "strided_slice_5/stack_2", "op": "Const", "attr": {"value": {"tensor": {"dtype": "DT_INT32", "tensorShape": {"dim": [{"size": "1"}]}}}, "dtype": {"type": "DT_INT32"}}}, {"name": "strided_slice_3/stack", "op": "Const", "attr": {"dtype": {"type": "DT_INT32"}, "value": {"tensor": {"dtype": "DT_INT32", "tensorShape": {"dim": [{"size": "1"}]}}}}}, {"name": "strided_slice_3/stack_1", "op": "Const", "attr": {"dtype": {"type": "DT_INT32"}, "value": {"tensor": {"dtype": "DT_INT32", "tensorShape": {"dim": [{"size": "1"}]}}}}}, {"name": "strided_slice_3/stack_2", "op": "Const", "attr": {"dtype": {"type": "DT_INT32"}, "value": {"tensor": {"dtype": "DT_INT32", "tensorShape": {"dim": [{"size": "1"}]}}}}}, {"name": "strided_slice_6/stack", "op": "Const", "attr": {"dtype": {"type": "DT_INT32"}, "value": {"tensor": {"dtype": "DT_INT32", "tensorShape": {"dim": [{"size": "1"}]}}}}}, {"name": "strided_slice_6/stack_1", "op": "Const", "attr": {"dtype": {"type": "DT_INT32"}, "value": {"tensor": {"dtype": "DT_INT32", "tensorShape": {"dim": [{"size": "1"}]}}}}}, {"name": "strided_slice_6/stack_2", "op": "Const", "attr": {"value": {"tensor": {"dtype": "DT_INT32", "tensorShape": {"dim": [{"size": "1"}]}}}, "dtype": {"type": "DT_INT32"}}}, {"name": "strided_slice_7/stack_2", "op": "Const", "attr": {"dtype": {"type": "DT_INT32"}, "value": {"tensor": {"dtype": "DT_INT32", "tensorShape": {"dim": [{"size": "3"}]}}}}}, {"name": "ExpandDims_1/dim", "op": "Const", "attr": {"dtype": {"type": "DT_INT32"}, "value": {"tensor": {"dtype": "DT_INT32", "tensorShape": {}}}}}, {"name": "ImageTensor", "op": "Placeholder", "attr": {"dtype": {"type": "DT_UINT8"}, "shape": {"shape": {"dim": [{"size": "1"}, {"size": "-1"}, {"size": "-1"}, {"size": "3"}]}}}}, {"name": "strided_slice/stack", "op": "Const", "attr": {"dtype": {"type": "DT_INT32"}, "value": {"tensor": {"dtype": "DT_INT32", "tensorShape": {"dim": [{"size": "1"}]}}}}}, {"name": "strided_slice/stack_1", "op": "Const", "attr": {"dtype": {"type": "DT_INT32"}, "value": {"tensor": {"dtype": "DT_INT32", "tensorShape": {"dim": [{"size": "1"}]}}}}}, {"name": "strided_slice/stack_2", "op": "Const", "attr": {"dtype": {"type": "DT_INT32"}, "value": {"tensor": {"dtype": "DT_INT32", "tensorShape": {"dim": [{"size": "1"}]}}}}}, {"name": "xception_65/entry_flow/conv1_1/Conv2D_weights", "op": "Const", "attr": {"dtype": {"type": "DT_FLOAT"}, "value": {"tensor": {"dtype": "DT_FLOAT", "tensorShape": {"dim": [{"size": "3"}, {"size": "3"}, {"size": "3"}, {"size": "32"}]}}}}}, {"name": "xception_65/entry_flow/conv1_1/Conv2D_bn_offset", "op": "Const", "attr": {"dtype": {"type": "DT_FLOAT"}, "value": {"tensor": {"dtype": "DT_FLOAT", "tensorShape": {"dim": [{"size": "32"}]}}}}}, {"name": "xception_65/entry_flow/conv1_2/Conv2D_weights", "op": "Const", "attr": {"dtype": {"type": "DT_FLOAT"}, "value": {"tensor": {"dtype": "DT_FLOAT", "tensorShape": {"dim": [{"size": "3"}, {"size": "3"}, {"size": "32"}, {"size": "64"}]}}}}}, {"name": "xception_65/entry_flow/conv1_2/Conv2D_bn_offset", "op": "Const", "attr": {"dtype": {"type": "DT_FLOAT"}, "value": {"tensor": {"dtype": "DT_FLOAT", "tensorShape": {"dim": [{"size": "64"}]}}}}}, {"name": "xception_65/exit_flow/block2/unit_1/xception_module/separable_conv3_pointwise/Conv2D_weights", "op": "Const", "attr": {"value": {"tensor": {"dtype": "DT_FLOAT", "tensorShape": {"dim": [{"size": "1"}, {"size": "1"}, {"size": "1536"}, {"size": "2048"}]}}}, "dtype": {"type": "DT_FLOAT"}}}, {"name": "xception_65/entry_flow/block1/unit_1/xception_module/shortcut/Conv2D_weights", "op": "Const", "attr": {"dtype": {"type": "DT_FLOAT"}, "value": {"tensor": {"dtype": "DT_FLOAT", "tensorShape": {"dim": [{"size": "1"}, {"size": "1"}, {"size": "64"}, {"size": "128"}]}}}}}, {"name": "xception_65/entry_flow/block1/unit_1/xception_module/shortcut/Conv2D_bn_offset", "op": "Const", "attr": {"dtype": {"type": "DT_FLOAT"}, "value": {"tensor": {"dtype": "DT_FLOAT", "tensorShape": {"dim": [{"size": "128"}]}}}}}, {"name": "xception_65/entry_flow/block1/unit_1/xception_module/separable_conv1_depthwise/depthwise_weights", "op": "Const", "attr": {"dtype": {"type": "DT_FLOAT"}, "value": {"tensor": {"dtype": "DT_FLOAT", "tensorShape": {"dim": [{"size": "3"}, {"size": "3"}, {"size": "64"}, {"size": "1"}]}}}}}, {"name": "xception_65/entry_flow/block1/unit_1/xception_module/separable_conv1_depthwise/depthwise_bn_offset", "op": "Const", "attr": {"dtype": {"type": "DT_FLOAT"}, "value": {"tensor": {"dtype": "DT_FLOAT", "tensorShape": {"dim": [{"size": "64"}]}}}}}, {"name": "xception_65/entry_flow/block1/unit_1/xception_module/separable_conv1_pointwise/Conv2D_weights", "op": "Const", "attr": {"dtype": {"type": "DT_FLOAT"}, "value": {"tensor": {"dtype": "DT_FLOAT", "tensorShape": {"dim": [{"size": "1"}, {"size": "1"}, {"size": "64"}, {"size": "128"}]}}}}}, {"name": "xception_65/exit_flow/block2/unit_1/xception_module/separable_conv3_pointwise/Conv2D_bn_offset", "op": "Const", "attr": {"dtype": {"type": "DT_FLOAT"}, "value": {"tensor": {"dtype": "DT_FLOAT", "tensorShape": {"dim": [{"size": "2048"}]}}}}}, {"name": "xception_65/entry_flow/block1/unit_1/xception_module/separable_conv1_pointwise/Conv2D_bn_offset", "op": "Const", "attr": {"value": {"tensor": {"dtype": "DT_FLOAT", "tensorShape": {"dim": [{"size": "128"}]}}}, "dtype": {"type": "DT_FLOAT"}}}, {"name": "xception_65/exit_flow/block2/unit_1/xception_module/separable_conv3_depthwise/BatchNorm/FusedBatchNormV3/Scaled", "op": "Const", "attr": {"dtype": {"type": "DT_FLOAT"}, "value": {"tensor": {"dtype": "DT_FLOAT", "tensorShape": {"dim": [{"size": "1536"}]}}}}}, {"name": "xception_65/entry_flow/block1/unit_1/xception_module/separable_conv2_depthwise/depthwise_weights", "op": "Const", "attr": {"value": {"tensor": {"dtype": "DT_FLOAT", "tensorShape": {"dim": [{"size": "3"}, {"size": "3"}, {"size": "128"}, {"size": "1"}]}}}, "dtype": {"type": "DT_FLOAT"}}}, {"name": "xception_65/entry_flow/block1/unit_1/xception_module/separable_conv2_depthwise/depthwise_bn_offset", "op": "Const", "attr": {"dtype": {"type": "DT_FLOAT"}, "value": {"tensor": {"dtype": "DT_FLOAT", "tensorShape": {"dim": [{"size": "128"}]}}}}}, {"name": "xception_65/entry_flow/block1/unit_1/xception_module/separable_conv2_pointwise/Conv2D_weights", "op": "Const", "attr": {"dtype": {"type": "DT_FLOAT"}, "value": {"tensor": {"dtype": "DT_FLOAT", "tensorShape": {"dim": [{"size": "1"}, {"size": "1"}, {"size": "128"}, {"size": "128"}]}}}}}, {"name": "xception_65/entry_flow/block1/unit_1/xception_module/separable_conv2_pointwise/Conv2D_bn_offset", "op": "Const", "attr": {"value": {"tensor": {"dtype": "DT_FLOAT", "tensorShape": {"dim": [{"size": "128"}]}}}, "dtype": {"type": "DT_FLOAT"}}}, {"name": "xception_65/entry_flow/block1/unit_1/xception_module/separable_conv3_depthwise/depthwise_weights", "op": "Const", "attr": {"value": {"tensor": {"dtype": "DT_FLOAT", "tensorShape": {"dim": [{"size": "3"}, {"size": "3"}, {"size": "128"}, {"size": "1"}]}}}, "dtype": {"type": "DT_FLOAT"}}}, {"name": "xception_65/entry_flow/block1/unit_1/xception_module/separable_conv3_depthwise/depthwise_bn_offset", "op": "Const", "attr": {"dtype": {"type": "DT_FLOAT"}, "value": {"tensor": {"dtype": "DT_FLOAT", "tensorShape": {"dim": [{"size": "128"}]}}}}}, {"name": "xception_65/entry_flow/block1/unit_1/xception_module/separable_conv3_pointwise/Conv2D_weights", "op": "Const", "attr": {"dtype": {"type": "DT_FLOAT"}, "value": {"tensor": {"dtype": "DT_FLOAT", "tensorShape": {"dim": [{"size": "1"}, {"size": "1"}, {"size": "128"}, {"size": "128"}]}}}}}, {"name": "xception_65/entry_flow/block1/unit_1/xception_module/separable_conv3_pointwise/Conv2D_bn_offset", "op": "Const", "attr": {"value": {"tensor": {"dtype": "DT_FLOAT", "tensorShape": {"dim": [{"size": "128"}]}}}, "dtype": {"type": "DT_FLOAT"}}}, {"name": "xception_65/entry_flow/block2/unit_1/xception_module/shortcut/Conv2D_weights", "op": "Const", "attr": {"dtype": {"type": "DT_FLOAT"}, "value": {"tensor": {"dtype": "DT_FLOAT", "tensorShape": {"dim": [{"size": "1"}, {"size": "1"}, {"size": "128"}, {"size": "256"}]}}}}}, {"name": "xception_65/entry_flow/block2/unit_1/xception_module/shortcut/Conv2D_bn_offset", "op": "Const", "attr": {"dtype": {"type": "DT_FLOAT"}, "value": {"tensor": {"dtype": "DT_FLOAT", "tensorShape": {"dim": [{"size": "256"}]}}}}}, {"name": "xception_65/entry_flow/block2/unit_1/xception_module/separable_conv1_depthwise/depthwise_weights", "op": "Const", "attr": {"dtype": {"type": "DT_FLOAT"}, "value": {"tensor": {"dtype": "DT_FLOAT", "tensorShape": {"dim": [{"size": "3"}, {"size": "3"}, {"size": "128"}, {"size": "1"}]}}}}}, {"name": "xception_65/entry_flow/block2/unit_1/xception_module/separable_conv1_depthwise/depthwise_bn_offset", "op": "Const", "attr": {"value": {"tensor": {"dtype": "DT_FLOAT", "tensorShape": {"dim": [{"size": "128"}]}}}, "dtype": {"type": "DT_FLOAT"}}}, {"name": "xception_65/entry_flow/block2/unit_1/xception_module/separable_conv1_pointwise/Conv2D_weights", "op": "Const", "attr": {"value": {"tensor": {"dtype": "DT_FLOAT", "tensorShape": {"dim": [{"size": "1"}, {"size": "1"}, {"size": "128"}, {"size": "256"}]}}}, "dtype": {"type": "DT_FLOAT"}}}, {"name": "xception_65/entry_flow/block2/unit_1/xception_module/separable_conv1_pointwise/Conv2D_bn_offset", "op": "Const", "attr": {"dtype": {"type": "DT_FLOAT"}, "value": {"tensor": {"dtype": "DT_FLOAT", "tensorShape": {"dim": [{"size": "256"}]}}}}}, {"name": "xception_65/entry_flow/block2/unit_1/xception_module/separable_conv2_depthwise/depthwise_weights", "op": "Const", "attr": {"value": {"tensor": {"dtype": "DT_FLOAT", "tensorShape": {"dim": [{"size": "3"}, {"size": "3"}, {"size": "256"}, {"size": "1"}]}}}, "dtype": {"type": "DT_FLOAT"}}}, {"name": "xception_65/entry_flow/block2/unit_1/xception_module/separable_conv2_depthwise/depthwise_bn_offset", "op": "Const", "attr": {"dtype": {"type": "DT_FLOAT"}, "value": {"tensor": {"dtype": "DT_FLOAT", "tensorShape": {"dim": [{"size": "256"}]}}}}}, {"name": "xception_65/entry_flow/block2/unit_1/xception_module/separable_conv2_pointwise/Conv2D_weights", "op": "Const", "attr": {"value": {"tensor": {"dtype": "DT_FLOAT", "tensorShape": {"dim": [{"size": "1"}, {"size": "1"}, {"size": "256"}, {"size": "256"}]}}}, "dtype": {"type": "DT_FLOAT"}}}, {"name": "xception_65/entry_flow/block2/unit_1/xception_module/separable_conv2_pointwise/Conv2D_bn_offset", "op": "Const", "attr": {"value": {"tensor": {"dtype": "DT_FLOAT", "tensorShape": {"dim": [{"size": "256"}]}}}, "dtype": {"type": "DT_FLOAT"}}}, {"name": "decoder/feature_projection0/Conv2D_weights", "op": "Const", "attr": {"dtype": {"type": "DT_FLOAT"}, "value": {"tensor": {"dtype": "DT_FLOAT", "tensorShape": {"dim": [{"size": "1"}, {"size": "1"}, {"size": "256"}, {"size": "48"}]}}}}}, {"name": "decoder/feature_projection0/Conv2D_bn_offset", "op": "Const", "attr": {"dtype": {"type": "DT_FLOAT"}, "value": {"tensor": {"dtype": "DT_FLOAT", "tensorShape": {"dim": [{"size": "48"}]}}}}}, {"name": "xception_65/entry_flow/block2/unit_1/xception_module/separable_conv3_depthwise/depthwise_weights", "op": "Const", "attr": {"dtype": {"type": "DT_FLOAT"}, "value": {"tensor": {"dtype": "DT_FLOAT", "tensorShape": {"dim": [{"size": "3"}, {"size": "3"}, {"size": "256"}, {"size": "1"}]}}}}}, {"name": "xception_65/entry_flow/block2/unit_1/xception_module/separable_conv3_depthwise/depthwise_bn_offset", "op": "Const", "attr": {"dtype": {"type": "DT_FLOAT"}, "value": {"tensor": {"dtype": "DT_FLOAT", "tensorShape": {"dim": [{"size": "256"}]}}}}}, {"name": "xception_65/entry_flow/block2/unit_1/xception_module/separable_conv3_pointwise/Conv2D_weights", "op": "Const", "attr": {"dtype": {"type": "DT_FLOAT"}, "value": {"tensor": {"dtype": "DT_FLOAT", "tensorShape": {"dim": [{"size": "1"}, {"size": "1"}, {"size": "256"}, {"size": "256"}]}}}}}, {"name": "xception_65/entry_flow/block2/unit_1/xception_module/separable_conv3_pointwise/Conv2D_bn_offset", "op": "Const", "attr": {"dtype": {"type": "DT_FLOAT"}, "value": {"tensor": {"dtype": "DT_FLOAT", "tensorShape": {"dim": [{"size": "256"}]}}}}}, {"name": "xception_65/entry_flow/block3/unit_1/xception_module/shortcut/Conv2D_weights", "op": "Const", "attr": {"dtype": {"type": "DT_FLOAT"}, "value": {"tensor": {"dtype": "DT_FLOAT", "tensorShape": {"dim": [{"size": "1"}, {"size": "1"}, {"size": "256"}, {"size": "728"}]}}}}}, {"name": "xception_65/entry_flow/block3/unit_1/xception_module/shortcut/Conv2D_bn_offset", "op": "Const", "attr": {"dtype": {"type": "DT_FLOAT"}, "value": {"tensor": {"dtype": "DT_FLOAT", "tensorShape": {"dim": [{"size": "728"}]}}}}}, {"name": "xception_65/entry_flow/block3/unit_1/xception_module/separable_conv1_depthwise/depthwise_weights", "op": "Const", "attr": {"value": {"tensor": {"dtype": "DT_FLOAT", "tensorShape": {"dim": [{"size": "3"}, {"size": "3"}, {"size": "256"}, {"size": "1"}]}}}, "dtype": {"type": "DT_FLOAT"}}}, {"name": "xception_65/entry_flow/block3/unit_1/xception_module/separable_conv1_depthwise/depthwise_bn_offset", "op": "Const", "attr": {"value": {"tensor": {"dtype": "DT_FLOAT", "tensorShape": {"dim": [{"size": "256"}]}}}, "dtype": {"type": "DT_FLOAT"}}}, {"name": "xception_65/entry_flow/block3/unit_1/xception_module/separable_conv1_pointwise/Conv2D_weights", "op": "Const", "attr": {"dtype": {"type": "DT_FLOAT"}, "value": {"tensor": {"dtype": "DT_FLOAT", "tensorShape": {"dim": [{"size": "1"}, {"size": "1"}, {"size": "256"}, {"size": "728"}]}}}}}, {"name": "xception_65/entry_flow/block3/unit_1/xception_module/separable_conv1_pointwise/Conv2D_bn_offset", "op": "Const", "attr": {"value": {"tensor": {"dtype": "DT_FLOAT", "tensorShape": {"dim": [{"size": "728"}]}}}, "dtype": {"type": "DT_FLOAT"}}}, {"name": "xception_65/entry_flow/block3/unit_1/xception_module/separable_conv2_depthwise/depthwise_weights", "op": "Const", "attr": {"value": {"tensor": {"dtype": "DT_FLOAT", "tensorShape": {"dim": [{"size": "3"}, {"size": "3"}, {"size": "728"}, {"size": "1"}]}}}, "dtype": {"type": "DT_FLOAT"}}}, {"name": "xception_65/entry_flow/block3/unit_1/xception_module/separable_conv2_depthwise/depthwise_bn_offset", "op": "Const", "attr": {"dtype": {"type": "DT_FLOAT"}, "value": {"tensor": {"dtype": "DT_FLOAT", "tensorShape": {"dim": [{"size": "728"}]}}}}}, {"name": "xception_65/entry_flow/block3/unit_1/xception_module/separable_conv2_pointwise/Conv2D_weights", "op": "Const", "attr": {"value": {"tensor": {"dtype": "DT_FLOAT", "tensorShape": {"dim": [{"size": "1"}, {"size": "1"}, {"size": "728"}, {"size": "728"}]}}}, "dtype": {"type": "DT_FLOAT"}}}, {"name": "xception_65/entry_flow/block3/unit_1/xception_module/separable_conv2_pointwise/Conv2D_bn_offset", "op": "Const", "attr": {"dtype": {"type": "DT_FLOAT"}, "value": {"tensor": {"dtype": "DT_FLOAT", "tensorShape": {"dim": [{"size": "728"}]}}}}}, {"name": "xception_65/entry_flow/block3/unit_1/xception_module/separable_conv3_depthwise/depthwise_weights", "op": "Const", "attr": {"value": {"tensor": {"dtype": "DT_FLOAT", "tensorShape": {"dim": [{"size": "3"}, {"size": "3"}, {"size": "728"}, {"size": "1"}]}}}, "dtype": {"type": "DT_FLOAT"}}}, {"name": "xception_65/entry_flow/block3/unit_1/xception_module/separable_conv3_depthwise/depthwise_bn_offset", "op": "Const", "attr": {"dtype": {"type": "DT_FLOAT"}, "value": {"tensor": {"dtype": "DT_FLOAT", "tensorShape": {"dim": [{"size": "728"}]}}}}}, {"name": "xception_65/entry_flow/block3/unit_1/xception_module/separable_conv3_pointwise/Conv2D_weights", "op": "Const", "attr": {"dtype": {"type": "DT_FLOAT"}, "value": {"tensor": {"dtype": "DT_FLOAT", "tensorShape": {"dim": [{"size": "1"}, {"size": "1"}, {"size": "728"}, {"size": "728"}]}}}}}, {"name": "xception_65/entry_flow/block3/unit_1/xception_module/separable_conv3_pointwise/Conv2D_bn_offset", "op": "Const", "attr": {"dtype": {"type": "DT_FLOAT"}, "value": {"tensor": {"dtype": "DT_FLOAT", "tensorShape": {"dim": [{"size": "728"}]}}}}}, {"name": "xception_65/middle_flow/block1/unit_1/xception_module/separable_conv1_depthwise/depthwise_weights", "op": "Const", "attr": {"value": {"tensor": {"dtype": "DT_FLOAT", "tensorShape": {"dim": [{"size": "3"}, {"size": "3"}, {"size": "728"}, {"size": "1"}]}}}, "dtype": {"type": "DT_FLOAT"}}}, {"name": "xception_65/middle_flow/block1/unit_1/xception_module/separable_conv1_depthwise/depthwise_bn_offset", "op": "Const", "attr": {"value": {"tensor": {"dtype": "DT_FLOAT", "tensorShape": {"dim": [{"size": "728"}]}}}, "dtype": {"type": "DT_FLOAT"}}}, {"name": "xception_65/middle_flow/block1/unit_1/xception_module/separable_conv1_pointwise/Conv2D_weights", "op": "Const", "attr": {"value": {"tensor": {"dtype": "DT_FLOAT", "tensorShape": {"dim": [{"size": "1"}, {"size": "1"}, {"size": "728"}, {"size": "728"}]}}}, "dtype": {"type": "DT_FLOAT"}}}, {"name": "xception_65/middle_flow/block1/unit_1/xception_module/separable_conv1_pointwise/Conv2D_bn_offset", "op": "Const", "attr": {"value": {"tensor": {"dtype": "DT_FLOAT", "tensorShape": {"dim": [{"size": "728"}]}}}, "dtype": {"type": "DT_FLOAT"}}}, {"name": "aspp0/Conv2D_weights", "op": "Const", "attr": {"value": {"tensor": {"dtype": "DT_FLOAT", "tensorShape": {"dim": [{"size": "1"}, {"size": "1"}, {"size": "2048"}, {"size": "256"}]}}}, "dtype": {"type": "DT_FLOAT"}}}, {"name": "xception_65/middle_flow/block1/unit_1/xception_module/separable_conv2_depthwise/depthwise_weights", "op": "Const", "attr": {"dtype": {"type": "DT_FLOAT"}, "value": {"tensor": {"dtype": "DT_FLOAT", "tensorShape": {"dim": [{"size": "3"}, {"size": "3"}, {"size": "728"}, {"size": "1"}]}}}}}, {"name": "xception_65/middle_flow/block1/unit_1/xception_module/separable_conv2_depthwise/depthwise_bn_offset", "op": "Const", "attr": {"dtype": {"type": "DT_FLOAT"}, "value": {"tensor": {"dtype": "DT_FLOAT", "tensorShape": {"dim": [{"size": "728"}]}}}}}, {"name": "xception_65/middle_flow/block1/unit_1/xception_module/separable_conv2_pointwise/Conv2D_weights", "op": "Const", "attr": {"dtype": {"type": "DT_FLOAT"}, "value": {"tensor": {"dtype": "DT_FLOAT", "tensorShape": {"dim": [{"size": "1"}, {"size": "1"}, {"size": "728"}, {"size": "728"}]}}}}}, {"name": "xception_65/middle_flow/block1/unit_1/xception_module/separable_conv2_pointwise/Conv2D_bn_offset", "op": "Const", "attr": {"value": {"tensor": {"dtype": "DT_FLOAT", "tensorShape": {"dim": [{"size": "728"}]}}}, "dtype": {"type": "DT_FLOAT"}}}, {"name": "aspp0/Conv2D_bn_offset", "op": "Const", "attr": {"dtype": {"type": "DT_FLOAT"}, "value": {"tensor": {"dtype": "DT_FLOAT", "tensorShape": {"dim": [{"size": "256"}]}}}}}, {"name": "xception_65/middle_flow/block1/unit_1/xception_module/separable_conv3_depthwise/depthwise_weights", "op": "Const", "attr": {"value": {"tensor": {"dtype": "DT_FLOAT", "tensorShape": {"dim": [{"size": "3"}, {"size": "3"}, {"size": "728"}, {"size": "1"}]}}}, "dtype": {"type": "DT_FLOAT"}}}, {"name": "xception_65/middle_flow/block1/unit_1/xception_module/separable_conv3_depthwise/depthwise_bn_offset", "op": "Const", "attr": {"dtype": {"type": "DT_FLOAT"}, "value": {"tensor": {"dtype": "DT_FLOAT", "tensorShape": {"dim": [{"size": "728"}]}}}}}, {"name": "xception_65/middle_flow/block1/unit_1/xception_module/separable_conv3_pointwise/Conv2D_weights", "op": "Const", "attr": {"dtype": {"type": "DT_FLOAT"}, "value": {"tensor": {"dtype": "DT_FLOAT", "tensorShape": {"dim": [{"size": "1"}, {"size": "1"}, {"size": "728"}, {"size": "728"}]}}}}}, {"name": "xception_65/middle_flow/block1/unit_1/xception_module/separable_conv3_pointwise/Conv2D_bn_offset", "op": "Const", "attr": {"value": {"tensor": {"dtype": "DT_FLOAT", "tensorShape": {"dim": [{"size": "728"}]}}}, "dtype": {"type": "DT_FLOAT"}}}, {"name": "xception_65/middle_flow/block1/unit_2/xception_module/separable_conv1_depthwise/depthwise_weights", "op": "Const", "attr": {"value": {"tensor": {"dtype": "DT_FLOAT", "tensorShape": {"dim": [{"size": "3"}, {"size": "3"}, {"size": "728"}, {"size": "1"}]}}}, "dtype": {"type": "DT_FLOAT"}}}, {"name": "xception_65/middle_flow/block1/unit_2/xception_module/separable_conv1_depthwise/depthwise_bn_offset", "op": "Const", "attr": {"value": {"tensor": {"dtype": "DT_FLOAT", "tensorShape": {"dim": [{"size": "728"}]}}}, "dtype": {"type": "DT_FLOAT"}}}, {"name": "xception_65/middle_flow/block1/unit_2/xception_module/separable_conv1_pointwise/Conv2D_weights", "op": "Const", "attr": {"dtype": {"type": "DT_FLOAT"}, "value": {"tensor": {"dtype": "DT_FLOAT", "tensorShape": {"dim": [{"size": "1"}, {"size": "1"}, {"size": "728"}, {"size": "728"}]}}}}}, {"name": "xception_65/middle_flow/block1/unit_2/xception_module/separable_conv1_pointwise/Conv2D_bn_offset", "op": "Const", "attr": {"value": {"tensor": {"dtype": "DT_FLOAT", "tensorShape": {"dim": [{"size": "728"}]}}}, "dtype": {"type": "DT_FLOAT"}}}, {"name": "image_pooling/Conv2D_weights", "op": "Const", "attr": {"value": {"tensor": {"dtype": "DT_FLOAT", "tensorShape": {"dim": [{"size": "1"}, {"size": "1"}, {"size": "2048"}, {"size": "256"}]}}}, "dtype": {"type": "DT_FLOAT"}}}, {"name": "xception_65/middle_flow/block1/unit_2/xception_module/separable_conv2_depthwise/depthwise_weights", "op": "Const", "attr": {"value": {"tensor": {"dtype": "DT_FLOAT", "tensorShape": {"dim": [{"size": "3"}, {"size": "3"}, {"size": "728"}, {"size": "1"}]}}}, "dtype": {"type": "DT_FLOAT"}}}, {"name": "xception_65/middle_flow/block1/unit_2/xception_module/separable_conv2_depthwise/depthwise_bn_offset", "op": "Const", "attr": {"value": {"tensor": {"dtype": "DT_FLOAT", "tensorShape": {"dim": [{"size": "728"}]}}}, "dtype": {"type": "DT_FLOAT"}}}, {"name": "xception_65/middle_flow/block1/unit_2/xception_module/separable_conv2_pointwise/Conv2D_weights", "op": "Const", "attr": {"value": {"tensor": {"dtype": "DT_FLOAT", "tensorShape": {"dim": [{"size": "1"}, {"size": "1"}, {"size": "728"}, {"size": "728"}]}}}, "dtype": {"type": "DT_FLOAT"}}}, {"name": "xception_65/exit_flow/block2/unit_1/xception_module/separable_conv3_depthwise/BatchNorm/FusedBatchNormV3/Offset", "op": "Const", "attr": {"dtype": {"type": "DT_FLOAT"}, "value": {"tensor": {"dtype": "DT_FLOAT", "tensorShape": {"dim": [{"size": "1536"}]}}}}}, {"name": "xception_65/middle_flow/block1/unit_2/xception_module/separable_conv2_pointwise/Conv2D_bn_offset", "op": "Const", "attr": {"dtype": {"type": "DT_FLOAT"}, "value": {"tensor": {"dtype": "DT_FLOAT", "tensorShape": {"dim": [{"size": "728"}]}}}}}, {"name": "image_pooling/Conv2D_bn_offset", "op": "Const", "attr": {"value": {"tensor": {"dtype": "DT_FLOAT", "tensorShape": {"dim": [{"size": "256"}]}}}, "dtype": {"type": "DT_FLOAT"}}}, {"name": "xception_65/middle_flow/block1/unit_2/xception_module/separable_conv3_depthwise/depthwise_weights", "op": "Const", "attr": {"value": {"tensor": {"dtype": "DT_FLOAT", "tensorShape": {"dim": [{"size": "3"}, {"size": "3"}, {"size": "728"}, {"size": "1"}]}}}, "dtype": {"type": "DT_FLOAT"}}}, {"name": "xception_65/middle_flow/block1/unit_2/xception_module/separable_conv3_depthwise/depthwise_bn_offset", "op": "Const", "attr": {"dtype": {"type": "DT_FLOAT"}, "value": {"tensor": {"dtype": "DT_FLOAT", "tensorShape": {"dim": [{"size": "728"}]}}}}}, {"name": "xception_65/middle_flow/block1/unit_2/xception_module/separable_conv3_pointwise/Conv2D_weights", "op": "Const", "attr": {"value": {"tensor": {"dtype": "DT_FLOAT", "tensorShape": {"dim": [{"size": "1"}, {"size": "1"}, {"size": "728"}, {"size": "728"}]}}}, "dtype": {"type": "DT_FLOAT"}}}, {"name": "xception_65/middle_flow/block1/unit_2/xception_module/separable_conv3_pointwise/Conv2D_bn_offset", "op": "Const", "attr": {"dtype": {"type": "DT_FLOAT"}, "value": {"tensor": {"dtype": "DT_FLOAT", "tensorShape": {"dim": [{"size": "728"}]}}}}}, {"name": "xception_65/middle_flow/block1/unit_3/xception_module/separable_conv1_depthwise/depthwise_weights", "op": "Const", "attr": {"value": {"tensor": {"dtype": "DT_FLOAT", "tensorShape": {"dim": [{"size": "3"}, {"size": "3"}, {"size": "728"}, {"size": "1"}]}}}, "dtype": {"type": "DT_FLOAT"}}}, {"name": "xception_65/middle_flow/block1/unit_3/xception_module/separable_conv1_depthwise/depthwise_bn_offset", "op": "Const", "attr": {"value": {"tensor": {"dtype": "DT_FLOAT", "tensorShape": {"dim": [{"size": "728"}]}}}, "dtype": {"type": "DT_FLOAT"}}}, {"name": "xception_65/middle_flow/block1/unit_3/xception_module/separable_conv1_pointwise/Conv2D_weights", "op": "Const", "attr": {"dtype": {"type": "DT_FLOAT"}, "value": {"tensor": {"dtype": "DT_FLOAT", "tensorShape": {"dim": [{"size": "1"}, {"size": "1"}, {"size": "728"}, {"size": "728"}]}}}}}, {"name": "xception_65/middle_flow/block1/unit_3/xception_module/separable_conv1_pointwise/Conv2D_bn_offset", "op": "Const", "attr": {"dtype": {"type": "DT_FLOAT"}, "value": {"tensor": {"dtype": "DT_FLOAT", "tensorShape": {"dim": [{"size": "728"}]}}}}}, {"name": "xception_65/middle_flow/block1/unit_3/xception_module/separable_conv2_depthwise/depthwise_weights", "op": "Const", "attr": {"value": {"tensor": {"dtype": "DT_FLOAT", "tensorShape": {"dim": [{"size": "3"}, {"size": "3"}, {"size": "728"}, {"size": "1"}]}}}, "dtype": {"type": "DT_FLOAT"}}}, {"name": "xception_65/middle_flow/block1/unit_3/xception_module/separable_conv2_depthwise/depthwise_bn_offset", "op": "Const", "attr": {"dtype": {"type": "DT_FLOAT"}, "value": {"tensor": {"dtype": "DT_FLOAT", "tensorShape": {"dim": [{"size": "728"}]}}}}}, {"name": "xception_65/middle_flow/block1/unit_3/xception_module/separable_conv2_pointwise/Conv2D_weights", "op": "Const", "attr": {"dtype": {"type": "DT_FLOAT"}, "value": {"tensor": {"dtype": "DT_FLOAT", "tensorShape": {"dim": [{"size": "1"}, {"size": "1"}, {"size": "728"}, {"size": "728"}]}}}}}, {"name": "aspp1_pointwise/Conv2D_weights", "op": "Const", "attr": {"value": {"tensor": {"dtype": "DT_FLOAT", "tensorShape": {"dim": [{"size": "1"}, {"size": "1"}, {"size": "2048"}, {"size": "256"}]}}}, "dtype": {"type": "DT_FLOAT"}}}, {"name": "xception_65/middle_flow/block1/unit_3/xception_module/separable_conv2_pointwise/Conv2D_bn_offset", "op": "Const", "attr": {"value": {"tensor": {"dtype": "DT_FLOAT", "tensorShape": {"dim": [{"size": "728"}]}}}, "dtype": {"type": "DT_FLOAT"}}}, {"name": "xception_65/middle_flow/block1/unit_3/xception_module/separable_conv3_depthwise/depthwise_weights", "op": "Const", "attr": {"value": {"tensor": {"dtype": "DT_FLOAT", "tensorShape": {"dim": [{"size": "3"}, {"size": "3"}, {"size": "728"}, {"size": "1"}]}}}, "dtype": {"type": "DT_FLOAT"}}}, {"name": "xception_65/middle_flow/block1/unit_3/xception_module/separable_conv3_depthwise/depthwise_bn_offset", "op": "Const", "attr": {"value": {"tensor": {"dtype": "DT_FLOAT", "tensorShape": {"dim": [{"size": "728"}]}}}, "dtype": {"type": "DT_FLOAT"}}}, {"name": "xception_65/middle_flow/block1/unit_3/xception_module/separable_conv3_pointwise/Conv2D_weights", "op": "Const", "attr": {"value": {"tensor": {"dtype": "DT_FLOAT", "tensorShape": {"dim": [{"size": "1"}, {"size": "1"}, {"size": "728"}, {"size": "728"}]}}}, "dtype": {"type": "DT_FLOAT"}}}, {"name": "aspp1_pointwise/Conv2D_bn_offset", "op": "Const", "attr": {"value": {"tensor": {"dtype": "DT_FLOAT", "tensorShape": {"dim": [{"size": "256"}]}}}, "dtype": {"type": "DT_FLOAT"}}}, {"name": "xception_65/middle_flow/block1/unit_3/xception_module/separable_conv3_pointwise/Conv2D_bn_offset", "op": "Const", "attr": {"value": {"tensor": {"dtype": "DT_FLOAT", "tensorShape": {"dim": [{"size": "728"}]}}}, "dtype": {"type": "DT_FLOAT"}}}, {"name": "xception_65/middle_flow/block1/unit_4/xception_module/separable_conv1_depthwise/depthwise_weights", "op": "Const", "attr": {"value": {"tensor": {"dtype": "DT_FLOAT", "tensorShape": {"dim": [{"size": "3"}, {"size": "3"}, {"size": "728"}, {"size": "1"}]}}}, "dtype": {"type": "DT_FLOAT"}}}, {"name": "xception_65/middle_flow/block1/unit_4/xception_module/separable_conv1_depthwise/depthwise_bn_offset", "op": "Const", "attr": {"value": {"tensor": {"dtype": "DT_FLOAT", "tensorShape": {"dim": [{"size": "728"}]}}}, "dtype": {"type": "DT_FLOAT"}}}, {"name": "xception_65/middle_flow/block1/unit_4/xception_module/separable_conv1_pointwise/Conv2D_weights", "op": "Const", "attr": {"value": {"tensor": {"dtype": "DT_FLOAT", "tensorShape": {"dim": [{"size": "1"}, {"size": "1"}, {"size": "728"}, {"size": "728"}]}}}, "dtype": {"type": "DT_FLOAT"}}}, {"name": "xception_65/middle_flow/block1/unit_4/xception_module/separable_conv1_pointwise/Conv2D_bn_offset", "op": "Const", "attr": {"value": {"tensor": {"dtype": "DT_FLOAT", "tensorShape": {"dim": [{"size": "728"}]}}}, "dtype": {"type": "DT_FLOAT"}}}, {"name": "xception_65/middle_flow/block1/unit_4/xception_module/separable_conv2_depthwise/depthwise_weights", "op": "Const", "attr": {"value": {"tensor": {"dtype": "DT_FLOAT", "tensorShape": {"dim": [{"size": "3"}, {"size": "3"}, {"size": "728"}, {"size": "1"}]}}}, "dtype": {"type": "DT_FLOAT"}}}, {"name": "xception_65/middle_flow/block1/unit_4/xception_module/separable_conv2_depthwise/depthwise_bn_offset", "op": "Const", "attr": {"dtype": {"type": "DT_FLOAT"}, "value": {"tensor": {"dtype": "DT_FLOAT", "tensorShape": {"dim": [{"size": "728"}]}}}}}, {"name": "xception_65/middle_flow/block1/unit_4/xception_module/separable_conv2_pointwise/Conv2D_weights", "op": "Const", "attr": {"value": {"tensor": {"dtype": "DT_FLOAT", "tensorShape": {"dim": [{"size": "1"}, {"size": "1"}, {"size": "728"}, {"size": "728"}]}}}, "dtype": {"type": "DT_FLOAT"}}}, {"name": "aspp2_pointwise/Conv2D_weights", "op": "Const", "attr": {"value": {"tensor": {"dtype": "DT_FLOAT", "tensorShape": {"dim": [{"size": "1"}, {"size": "1"}, {"size": "2048"}, {"size": "256"}]}}}, "dtype": {"type": "DT_FLOAT"}}}, {"name": "xception_65/middle_flow/block1/unit_4/xception_module/separable_conv2_pointwise/Conv2D_bn_offset", "op": "Const", "attr": {"dtype": {"type": "DT_FLOAT"}, "value": {"tensor": {"dtype": "DT_FLOAT", "tensorShape": {"dim": [{"size": "728"}]}}}}}, {"name": "xception_65/exit_flow/block2/unit_1/xception_module/separable_conv2_depthwise/BatchNorm/FusedBatchNormV3/Scaled", "op": "Const", "attr": {"dtype": {"type": "DT_FLOAT"}, "value": {"tensor": {"dtype": "DT_FLOAT", "tensorShape": {"dim": [{"size": "1536"}]}}}}}, {"name": "xception_65/middle_flow/block1/unit_4/xception_module/separable_conv3_depthwise/depthwise_weights", "op": "Const", "attr": {"dtype": {"type": "DT_FLOAT"}, "value": {"tensor": {"dtype": "DT_FLOAT", "tensorShape": {"dim": [{"size": "3"}, {"size": "3"}, {"size": "728"}, {"size": "1"}]}}}}}, {"name": "xception_65/middle_flow/block1/unit_4/xception_module/separable_conv3_depthwise/depthwise_bn_offset", "op": "Const", "attr": {"value": {"tensor": {"dtype": "DT_FLOAT", "tensorShape": {"dim": [{"size": "728"}]}}}, "dtype": {"type": "DT_FLOAT"}}}, {"name": "xception_65/middle_flow/block1/unit_4/xception_module/separable_conv3_pointwise/Conv2D_weights", "op": "Const", "attr": {"dtype": {"type": "DT_FLOAT"}, "value": {"tensor": {"dtype": "DT_FLOAT", "tensorShape": {"dim": [{"size": "1"}, {"size": "1"}, {"size": "728"}, {"size": "728"}]}}}}}, {"name": "aspp2_pointwise/Conv2D_bn_offset", "op": "Const", "attr": {"dtype": {"type": "DT_FLOAT"}, "value": {"tensor": {"dtype": "DT_FLOAT", "tensorShape": {"dim": [{"size": "256"}]}}}}}, {"name": "xception_65/middle_flow/block1/unit_4/xception_module/separable_conv3_pointwise/Conv2D_bn_offset", "op": "Const", "attr": {"dtype": {"type": "DT_FLOAT"}, "value": {"tensor": {"dtype": "DT_FLOAT", "tensorShape": {"dim": [{"size": "728"}]}}}}}, {"name": "xception_65/middle_flow/block1/unit_5/xception_module/separable_conv1_depthwise/depthwise_weights", "op": "Const", "attr": {"dtype": {"type": "DT_FLOAT"}, "value": {"tensor": {"dtype": "DT_FLOAT", "tensorShape": {"dim": [{"size": "3"}, {"size": "3"}, {"size": "728"}, {"size": "1"}]}}}}}, {"name": "xception_65/middle_flow/block1/unit_5/xception_module/separable_conv1_depthwise/depthwise_bn_offset", "op": "Const", "attr": {"dtype": {"type": "DT_FLOAT"}, "value": {"tensor": {"dtype": "DT_FLOAT", "tensorShape": {"dim": [{"size": "728"}]}}}}}, {"name": "xception_65/middle_flow/block1/unit_5/xception_module/separable_conv1_pointwise/Conv2D_weights", "op": "Const", "attr": {"value": {"tensor": {"dtype": "DT_FLOAT", "tensorShape": {"dim": [{"size": "1"}, {"size": "1"}, {"size": "728"}, {"size": "728"}]}}}, "dtype": {"type": "DT_FLOAT"}}}, {"name": "xception_65/middle_flow/block1/unit_5/xception_module/separable_conv1_pointwise/Conv2D_bn_offset", "op": "Const", "attr": {"dtype": {"type": "DT_FLOAT"}, "value": {"tensor": {"dtype": "DT_FLOAT", "tensorShape": {"dim": [{"size": "728"}]}}}}}, {"name": "xception_65/middle_flow/block1/unit_5/xception_module/separable_conv2_depthwise/depthwise_weights", "op": "Const", "attr": {"dtype": {"type": "DT_FLOAT"}, "value": {"tensor": {"dtype": "DT_FLOAT", "tensorShape": {"dim": [{"size": "3"}, {"size": "3"}, {"size": "728"}, {"size": "1"}]}}}}}, {"name": "xception_65/middle_flow/block1/unit_5/xception_module/separable_conv2_depthwise/depthwise_bn_offset", "op": "Const", "attr": {"dtype": {"type": "DT_FLOAT"}, "value": {"tensor": {"dtype": "DT_FLOAT", "tensorShape": {"dim": [{"size": "728"}]}}}}}, {"name": "xception_65/middle_flow/block1/unit_5/xception_module/separable_conv2_pointwise/Conv2D_weights", "op": "Const", "attr": {"dtype": {"type": "DT_FLOAT"}, "value": {"tensor": {"dtype": "DT_FLOAT", "tensorShape": {"dim": [{"size": "1"}, {"size": "1"}, {"size": "728"}, {"size": "728"}]}}}}}, {"name": "aspp3_pointwise/Conv2D_weights", "op": "Const", "attr": {"dtype": {"type": "DT_FLOAT"}, "value": {"tensor": {"dtype": "DT_FLOAT", "tensorShape": {"dim": [{"size": "1"}, {"size": "1"}, {"size": "2048"}, {"size": "256"}]}}}}}, {"name": "xception_65/middle_flow/block1/unit_5/xception_module/separable_conv2_pointwise/Conv2D_bn_offset", "op": "Const", "attr": {"value": {"tensor": {"dtype": "DT_FLOAT", "tensorShape": {"dim": [{"size": "728"}]}}}, "dtype": {"type": "DT_FLOAT"}}}, {"name": "xception_65/middle_flow/block1/unit_5/xception_module/separable_conv3_depthwise/depthwise_weights", "op": "Const", "attr": {"value": {"tensor": {"dtype": "DT_FLOAT", "tensorShape": {"dim": [{"size": "3"}, {"size": "3"}, {"size": "728"}, {"size": "1"}]}}}, "dtype": {"type": "DT_FLOAT"}}}, {"name": "xception_65/middle_flow/block1/unit_5/xception_module/separable_conv3_depthwise/depthwise_bn_offset", "op": "Const", "attr": {"dtype": {"type": "DT_FLOAT"}, "value": {"tensor": {"dtype": "DT_FLOAT", "tensorShape": {"dim": [{"size": "728"}]}}}}}, {"name": "xception_65/middle_flow/block1/unit_5/xception_module/separable_conv3_pointwise/Conv2D_weights", "op": "Const", "attr": {"value": {"tensor": {"dtype": "DT_FLOAT", "tensorShape": {"dim": [{"size": "1"}, {"size": "1"}, {"size": "728"}, {"size": "728"}]}}}, "dtype": {"type": "DT_FLOAT"}}}, {"name": "aspp3_pointwise/Conv2D_bn_offset", "op": "Const", "attr": {"dtype": {"type": "DT_FLOAT"}, "value": {"tensor": {"dtype": "DT_FLOAT", "tensorShape": {"dim": [{"size": "256"}]}}}}}, {"name": "xception_65/middle_flow/block1/unit_5/xception_module/separable_conv3_pointwise/Conv2D_bn_offset", "op": "Const", "attr": {"dtype": {"type": "DT_FLOAT"}, "value": {"tensor": {"dtype": "DT_FLOAT", "tensorShape": {"dim": [{"size": "728"}]}}}}}, {"name": "xception_65/middle_flow/block1/unit_6/xception_module/separable_conv1_depthwise/depthwise_weights", "op": "Const", "attr": {"dtype": {"type": "DT_FLOAT"}, "value": {"tensor": {"dtype": "DT_FLOAT", "tensorShape": {"dim": [{"size": "3"}, {"size": "3"}, {"size": "728"}, {"size": "1"}]}}}}}, {"name": "xception_65/middle_flow/block1/unit_6/xception_module/separable_conv1_depthwise/depthwise_bn_offset", "op": "Const", "attr": {"dtype": {"type": "DT_FLOAT"}, "value": {"tensor": {"dtype": "DT_FLOAT", "tensorShape": {"dim": [{"size": "728"}]}}}}}, {"name": "xception_65/middle_flow/block1/unit_6/xception_module/separable_conv1_pointwise/Conv2D_weights", "op": "Const", "attr": {"dtype": {"type": "DT_FLOAT"}, "value": {"tensor": {"dtype": "DT_FLOAT", "tensorShape": {"dim": [{"size": "1"}, {"size": "1"}, {"size": "728"}, {"size": "728"}]}}}}}, {"name": "xception_65/exit_flow/block2/unit_1/xception_module/separable_conv2_depthwise/BatchNorm/FusedBatchNormV3/Offset", "op": "Const", "attr": {"dtype": {"type": "DT_FLOAT"}, "value": {"tensor": {"dtype": "DT_FLOAT", "tensorShape": {"dim": [{"size": "1536"}]}}}}}, {"name": "xception_65/middle_flow/block1/unit_6/xception_module/separable_conv1_pointwise/Conv2D_bn_offset", "op": "Const", "attr": {"dtype": {"type": "DT_FLOAT"}, "value": {"tensor": {"dtype": "DT_FLOAT", "tensorShape": {"dim": [{"size": "728"}]}}}}}, {"name": "xception_65/middle_flow/block1/unit_6/xception_module/separable_conv2_depthwise/depthwise_weights", "op": "Const", "attr": {"dtype": {"type": "DT_FLOAT"}, "value": {"tensor": {"dtype": "DT_FLOAT", "tensorShape": {"dim": [{"size": "3"}, {"size": "3"}, {"size": "728"}, {"size": "1"}]}}}}}, {"name": "xception_65/middle_flow/block1/unit_6/xception_module/separable_conv2_depthwise/depthwise_bn_offset", "op": "Const", "attr": {"dtype": {"type": "DT_FLOAT"}, "value": {"tensor": {"dtype": "DT_FLOAT", "tensorShape": {"dim": [{"size": "728"}]}}}}}, {"name": "xception_65/middle_flow/block1/unit_6/xception_module/separable_conv2_pointwise/Conv2D_weights", "op": "Const", "attr": {"dtype": {"type": "DT_FLOAT"}, "value": {"tensor": {"dtype": "DT_FLOAT", "tensorShape": {"dim": [{"size": "1"}, {"size": "1"}, {"size": "728"}, {"size": "728"}]}}}}}, {"name": "xception_65/middle_flow/block1/unit_6/xception_module/separable_conv2_pointwise/Conv2D_bn_offset", "op": "Const", "attr": {"dtype": {"type": "DT_FLOAT"}, "value": {"tensor": {"dtype": "DT_FLOAT", "tensorShape": {"dim": [{"size": "728"}]}}}}}, {"name": "concat_projection/Conv2D_weights", "op": "Const", "attr": {"dtype": {"type": "DT_FLOAT"}, "value": {"tensor": {"dtype": "DT_FLOAT", "tensorShape": {"dim": [{"size": "1"}, {"size": "1"}, {"size": "1280"}, {"size": "256"}]}}}}}, {"name": "xception_65/middle_flow/block1/unit_6/xception_module/separable_conv3_depthwise/depthwise_weights", "op": "Const", "attr": {"dtype": {"type": "DT_FLOAT"}, "value": {"tensor": {"dtype": "DT_FLOAT", "tensorShape": {"dim": [{"size": "3"}, {"size": "3"}, {"size": "728"}, {"size": "1"}]}}}}}, {"name": "xception_65/middle_flow/block1/unit_6/xception_module/separable_conv3_depthwise/depthwise_bn_offset", "op": "Const", "attr": {"dtype": {"type": "DT_FLOAT"}, "value": {"tensor": {"dtype": "DT_FLOAT", "tensorShape": {"dim": [{"size": "728"}]}}}}}, {"name": "xception_65/middle_flow/block1/unit_6/xception_module/separable_conv3_pointwise/Conv2D_weights", "op": "Const", "attr": {"dtype": {"type": "DT_FLOAT"}, "value": {"tensor": {"dtype": "DT_FLOAT", "tensorShape": {"dim": [{"size": "1"}, {"size": "1"}, {"size": "728"}, {"size": "728"}]}}}}}, {"name": "xception_65/middle_flow/block1/unit_6/xception_module/separable_conv3_pointwise/Conv2D_bn_offset", "op": "Const", "attr": {"value": {"tensor": {"dtype": "DT_FLOAT", "tensorShape": {"dim": [{"size": "728"}]}}}, "dtype": {"type": "DT_FLOAT"}}}, {"name": "xception_65/middle_flow/block1/unit_7/xception_module/separable_conv1_depthwise/depthwise_weights", "op": "Const", "attr": {"dtype": {"type": "DT_FLOAT"}, "value": {"tensor": {"dtype": "DT_FLOAT", "tensorShape": {"dim": [{"size": "3"}, {"size": "3"}, {"size": "728"}, {"size": "1"}]}}}}}, {"name": "xception_65/middle_flow/block1/unit_7/xception_module/separable_conv1_depthwise/depthwise_bn_offset", "op": "Const", "attr": {"dtype": {"type": "DT_FLOAT"}, "value": {"tensor": {"dtype": "DT_FLOAT", "tensorShape": {"dim": [{"size": "728"}]}}}}}, {"name": "xception_65/middle_flow/block1/unit_7/xception_module/separable_conv1_pointwise/Conv2D_weights", "op": "Const", "attr": {"dtype": {"type": "DT_FLOAT"}, "value": {"tensor": {"dtype": "DT_FLOAT", "tensorShape": {"dim": [{"size": "1"}, {"size": "1"}, {"size": "728"}, {"size": "728"}]}}}}}, {"name": "concat_projection/Conv2D_bn_offset", "op": "Const", "attr": {"dtype": {"type": "DT_FLOAT"}, "value": {"tensor": {"dtype": "DT_FLOAT", "tensorShape": {"dim": [{"size": "256"}]}}}}}, {"name": "xception_65/middle_flow/block1/unit_7/xception_module/separable_conv1_pointwise/Conv2D_bn_offset", "op": "Const", "attr": {"value": {"tensor": {"dtype": "DT_FLOAT", "tensorShape": {"dim": [{"size": "728"}]}}}, "dtype": {"type": "DT_FLOAT"}}}, {"name": "xception_65/middle_flow/block1/unit_7/xception_module/separable_conv2_depthwise/depthwise_weights", "op": "Const", "attr": {"value": {"tensor": {"dtype": "DT_FLOAT", "tensorShape": {"dim": [{"size": "3"}, {"size": "3"}, {"size": "728"}, {"size": "1"}]}}}, "dtype": {"type": "DT_FLOAT"}}}, {"name": "xception_65/middle_flow/block1/unit_7/xception_module/separable_conv2_depthwise/depthwise_bn_offset", "op": "Const", "attr": {"dtype": {"type": "DT_FLOAT"}, "value": {"tensor": {"dtype": "DT_FLOAT", "tensorShape": {"dim": [{"size": "728"}]}}}}}, {"name": "xception_65/middle_flow/block1/unit_7/xception_module/separable_conv2_pointwise/Conv2D_weights", "op": "Const", "attr": {"dtype": {"type": "DT_FLOAT"}, "value": {"tensor": {"dtype": "DT_FLOAT", "tensorShape": {"dim": [{"size": "1"}, {"size": "1"}, {"size": "728"}, {"size": "728"}]}}}}}, {"name": "xception_65/middle_flow/block1/unit_7/xception_module/separable_conv2_pointwise/Conv2D_bn_offset", "op": "Const", "attr": {"dtype": {"type": "DT_FLOAT"}, "value": {"tensor": {"dtype": "DT_FLOAT", "tensorShape": {"dim": [{"size": "728"}]}}}}}, {"name": "xception_65/middle_flow/block1/unit_7/xception_module/separable_conv3_depthwise/depthwise_weights", "op": "Const", "attr": {"dtype": {"type": "DT_FLOAT"}, "value": {"tensor": {"dtype": "DT_FLOAT", "tensorShape": {"dim": [{"size": "3"}, {"size": "3"}, {"size": "728"}, {"size": "1"}]}}}}}, {"name": "xception_65/middle_flow/block1/unit_7/xception_module/separable_conv3_depthwise/depthwise_bn_offset", "op": "Const", "attr": {"value": {"tensor": {"dtype": "DT_FLOAT", "tensorShape": {"dim": [{"size": "728"}]}}}, "dtype": {"type": "DT_FLOAT"}}}, {"name": "xception_65/middle_flow/block1/unit_7/xception_module/separable_conv3_pointwise/Conv2D_weights", "op": "Const", "attr": {"dtype": {"type": "DT_FLOAT"}, "value": {"tensor": {"dtype": "DT_FLOAT", "tensorShape": {"dim": [{"size": "1"}, {"size": "1"}, {"size": "728"}, {"size": "728"}]}}}}}, {"name": "xception_65/middle_flow/block1/unit_7/xception_module/separable_conv3_pointwise/Conv2D_bn_offset", "op": "Const", "attr": {"dtype": {"type": "DT_FLOAT"}, "value": {"tensor": {"dtype": "DT_FLOAT", "tensorShape": {"dim": [{"size": "728"}]}}}}}, {"name": "xception_65/middle_flow/block1/unit_8/xception_module/separable_conv1_depthwise/depthwise_weights", "op": "Const", "attr": {"dtype": {"type": "DT_FLOAT"}, "value": {"tensor": {"dtype": "DT_FLOAT", "tensorShape": {"dim": [{"size": "3"}, {"size": "3"}, {"size": "728"}, {"size": "1"}]}}}}}, {"name": "xception_65/middle_flow/block1/unit_8/xception_module/separable_conv1_depthwise/depthwise_bn_offset", "op": "Const", "attr": {"dtype": {"type": "DT_FLOAT"}, "value": {"tensor": {"dtype": "DT_FLOAT", "tensorShape": {"dim": [{"size": "728"}]}}}}}, {"name": "xception_65/middle_flow/block1/unit_8/xception_module/separable_conv1_pointwise/Conv2D_weights", "op": "Const", "attr": {"dtype": {"type": "DT_FLOAT"}, "value": {"tensor": {"dtype": "DT_FLOAT", "tensorShape": {"dim": [{"size": "1"}, {"size": "1"}, {"size": "728"}, {"size": "728"}]}}}}}, {"name": "decoder/decoder_conv0_depthwise/depthwise_weights", "op": "Const", "attr": {"dtype": {"type": "DT_FLOAT"}, "value": {"tensor": {"dtype": "DT_FLOAT", "tensorShape": {"dim": [{"size": "3"}, {"size": "3"}, {"size": "304"}, {"size": "1"}]}}}}}, {"name": "xception_65/middle_flow/block1/unit_8/xception_module/separable_conv1_pointwise/Conv2D_bn_offset", "op": "Const", "attr": {"value": {"tensor": {"dtype": "DT_FLOAT", "tensorShape": {"dim": [{"size": "728"}]}}}, "dtype": {"type": "DT_FLOAT"}}}, {"name": "xception_65/middle_flow/block1/unit_8/xception_module/separable_conv2_depthwise/depthwise_weights", "op": "Const", "attr": {"dtype": {"type": "DT_FLOAT"}, "value": {"tensor": {"dtype": "DT_FLOAT", "tensorShape": {"dim": [{"size": "3"}, {"size": "3"}, {"size": "728"}, {"size": "1"}]}}}}}, {"name": "xception_65/middle_flow/block1/unit_8/xception_module/separable_conv2_depthwise/depthwise_bn_offset", "op": "Const", "attr": {"dtype": {"type": "DT_FLOAT"}, "value": {"tensor": {"dtype": "DT_FLOAT", "tensorShape": {"dim": [{"size": "728"}]}}}}}, {"name": "xception_65/middle_flow/block1/unit_8/xception_module/separable_conv2_pointwise/Conv2D_weights", "op": "Const", "attr": {"dtype": {"type": "DT_FLOAT"}, "value": {"tensor": {"dtype": "DT_FLOAT", "tensorShape": {"dim": [{"size": "1"}, {"size": "1"}, {"size": "728"}, {"size": "728"}]}}}}}, {"name": "decoder/decoder_conv0_depthwise/depthwise_bn_offset", "op": "Const", "attr": {"dtype": {"type": "DT_FLOAT"}, "value": {"tensor": {"dtype": "DT_FLOAT", "tensorShape": {"dim": [{"size": "304"}]}}}}}, {"name": "xception_65/middle_flow/block1/unit_8/xception_module/separable_conv2_pointwise/Conv2D_bn_offset", "op": "Const", "attr": {"dtype": {"type": "DT_FLOAT"}, "value": {"tensor": {"dtype": "DT_FLOAT", "tensorShape": {"dim": [{"size": "728"}]}}}}}, {"name": "xception_65/middle_flow/block1/unit_8/xception_module/separable_conv3_depthwise/depthwise_weights", "op": "Const", "attr": {"value": {"tensor": {"dtype": "DT_FLOAT", "tensorShape": {"dim": [{"size": "3"}, {"size": "3"}, {"size": "728"}, {"size": "1"}]}}}, "dtype": {"type": "DT_FLOAT"}}}, {"name": "xception_65/middle_flow/block1/unit_8/xception_module/separable_conv3_depthwise/depthwise_bn_offset", "op": "Const", "attr": {"value": {"tensor": {"dtype": "DT_FLOAT", "tensorShape": {"dim": [{"size": "728"}]}}}, "dtype": {"type": "DT_FLOAT"}}}, {"name": "xception_65/middle_flow/block1/unit_8/xception_module/separable_conv3_pointwise/Conv2D_weights", "op": "Const", "attr": {"dtype": {"type": "DT_FLOAT"}, "value": {"tensor": {"dtype": "DT_FLOAT", "tensorShape": {"dim": [{"size": "1"}, {"size": "1"}, {"size": "728"}, {"size": "728"}]}}}}}, {"name": "xception_65/middle_flow/block1/unit_8/xception_module/separable_conv3_pointwise/Conv2D_bn_offset", "op": "Const", "attr": {"dtype": {"type": "DT_FLOAT"}, "value": {"tensor": {"dtype": "DT_FLOAT", "tensorShape": {"dim": [{"size": "728"}]}}}}}, {"name": "xception_65/middle_flow/block1/unit_9/xception_module/separable_conv1_depthwise/depthwise_weights", "op": "Const", "attr": {"value": {"tensor": {"dtype": "DT_FLOAT", "tensorShape": {"dim": [{"size": "3"}, {"size": "3"}, {"size": "728"}, {"size": "1"}]}}}, "dtype": {"type": "DT_FLOAT"}}}, {"name": "xception_65/middle_flow/block1/unit_9/xception_module/separable_conv1_depthwise/depthwise_bn_offset", "op": "Const", "attr": {"dtype": {"type": "DT_FLOAT"}, "value": {"tensor": {"dtype": "DT_FLOAT", "tensorShape": {"dim": [{"size": "728"}]}}}}}, {"name": "xception_65/middle_flow/block1/unit_9/xception_module/separable_conv1_pointwise/Conv2D_weights", "op": "Const", "attr": {"value": {"tensor": {"dtype": "DT_FLOAT", "tensorShape": {"dim": [{"size": "1"}, {"size": "1"}, {"size": "728"}, {"size": "728"}]}}}, "dtype": {"type": "DT_FLOAT"}}}, {"name": "decoder/decoder_conv0_pointwise/Conv2D_weights", "op": "Const", "attr": {"value": {"tensor": {"dtype": "DT_FLOAT", "tensorShape": {"dim": [{"size": "1"}, {"size": "1"}, {"size": "304"}, {"size": "256"}]}}}, "dtype": {"type": "DT_FLOAT"}}}, {"name": "xception_65/middle_flow/block1/unit_9/xception_module/separable_conv1_pointwise/Conv2D_bn_offset", "op": "Const", "attr": {"dtype": {"type": "DT_FLOAT"}, "value": {"tensor": {"dtype": "DT_FLOAT", "tensorShape": {"dim": [{"size": "728"}]}}}}}, {"name": "xception_65/middle_flow/block1/unit_9/xception_module/separable_conv2_depthwise/depthwise_weights", "op": "Const", "attr": {"value": {"tensor": {"dtype": "DT_FLOAT", "tensorShape": {"dim": [{"size": "3"}, {"size": "3"}, {"size": "728"}, {"size": "1"}]}}}, "dtype": {"type": "DT_FLOAT"}}}, {"name": "xception_65/middle_flow/block1/unit_9/xception_module/separable_conv2_depthwise/depthwise_bn_offset", "op": "Const", "attr": {"dtype": {"type": "DT_FLOAT"}, "value": {"tensor": {"dtype": "DT_FLOAT", "tensorShape": {"dim": [{"size": "728"}]}}}}}, {"name": "xception_65/middle_flow/block1/unit_9/xception_module/separable_conv2_pointwise/Conv2D_weights", "op": "Const", "attr": {"value": {"tensor": {"dtype": "DT_FLOAT", "tensorShape": {"dim": [{"size": "1"}, {"size": "1"}, {"size": "728"}, {"size": "728"}]}}}, "dtype": {"type": "DT_FLOAT"}}}, {"name": "decoder/decoder_conv0_pointwise/Conv2D_bn_offset", "op": "Const", "attr": {"value": {"tensor": {"dtype": "DT_FLOAT", "tensorShape": {"dim": [{"size": "256"}]}}}, "dtype": {"type": "DT_FLOAT"}}}, {"name": "xception_65/middle_flow/block1/unit_9/xception_module/separable_conv2_pointwise/Conv2D_bn_offset", "op": "Const", "attr": {"value": {"tensor": {"dtype": "DT_FLOAT", "tensorShape": {"dim": [{"size": "728"}]}}}, "dtype": {"type": "DT_FLOAT"}}}, {"name": "xception_65/exit_flow/block2/unit_1/xception_module/separable_conv1_depthwise/BatchNorm/FusedBatchNormV3/Scaled", "op": "Const", "attr": {"dtype": {"type": "DT_FLOAT"}, "value": {"tensor": {"dtype": "DT_FLOAT", "tensorShape": {"dim": [{"size": "1024"}]}}}}}, {"name": "xception_65/middle_flow/block1/unit_9/xception_module/separable_conv3_depthwise/depthwise_weights", "op": "Const", "attr": {"value": {"tensor": {"dtype": "DT_FLOAT", "tensorShape": {"dim": [{"size": "3"}, {"size": "3"}, {"size": "728"}, {"size": "1"}]}}}, "dtype": {"type": "DT_FLOAT"}}}, {"name": "xception_65/middle_flow/block1/unit_9/xception_module/separable_conv3_depthwise/depthwise_bn_offset", "op": "Const", "attr": {"value": {"tensor": {"dtype": "DT_FLOAT", "tensorShape": {"dim": [{"size": "728"}]}}}, "dtype": {"type": "DT_FLOAT"}}}, {"name": "xception_65/middle_flow/block1/unit_9/xception_module/separable_conv3_pointwise/Conv2D_weights", "op": "Const", "attr": {"dtype": {"type": "DT_FLOAT"}, "value": {"tensor": {"dtype": "DT_FLOAT", "tensorShape": {"dim": [{"size": "1"}, {"size": "1"}, {"size": "728"}, {"size": "728"}]}}}}}, {"name": "xception_65/middle_flow/block1/unit_9/xception_module/separable_conv3_pointwise/Conv2D_bn_offset", "op": "Const", "attr": {"dtype": {"type": "DT_FLOAT"}, "value": {"tensor": {"dtype": "DT_FLOAT", "tensorShape": {"dim": [{"size": "728"}]}}}}}, {"name": "xception_65/middle_flow/block1/unit_10/xception_module/separable_conv1_depthwise/depthwise_weights", "op": "Const", "attr": {"value": {"tensor": {"dtype": "DT_FLOAT", "tensorShape": {"dim": [{"size": "3"}, {"size": "3"}, {"size": "728"}, {"size": "1"}]}}}, "dtype": {"type": "DT_FLOAT"}}}, {"name": "xception_65/middle_flow/block1/unit_10/xception_module/separable_conv1_depthwise/depthwise_bn_offset", "op": "Const", "attr": {"value": {"tensor": {"dtype": "DT_FLOAT", "tensorShape": {"dim": [{"size": "728"}]}}}, "dtype": {"type": "DT_FLOAT"}}}, {"name": "xception_65/middle_flow/block1/unit_10/xception_module/separable_conv1_pointwise/Conv2D_weights", "op": "Const", "attr": {"dtype": {"type": "DT_FLOAT"}, "value": {"tensor": {"dtype": "DT_FLOAT", "tensorShape": {"dim": [{"size": "1"}, {"size": "1"}, {"size": "728"}, {"size": "728"}]}}}}}, {"name": "decoder/decoder_conv1_depthwise/depthwise_weights", "op": "Const", "attr": {"value": {"tensor": {"dtype": "DT_FLOAT", "tensorShape": {"dim": [{"size": "3"}, {"size": "3"}, {"size": "256"}, {"size": "1"}]}}}, "dtype": {"type": "DT_FLOAT"}}}, {"name": "xception_65/middle_flow/block1/unit_10/xception_module/separable_conv1_pointwise/Conv2D_bn_offset", "op": "Const", "attr": {"value": {"tensor": {"dtype": "DT_FLOAT", "tensorShape": {"dim": [{"size": "728"}]}}}, "dtype": {"type": "DT_FLOAT"}}}, {"name": "xception_65/middle_flow/block1/unit_10/xception_module/separable_conv2_depthwise/depthwise_weights", "op": "Const", "attr": {"value": {"tensor": {"dtype": "DT_FLOAT", "tensorShape": {"dim": [{"size": "3"}, {"size": "3"}, {"size": "728"}, {"size": "1"}]}}}, "dtype": {"type": "DT_FLOAT"}}}, {"name": "xception_65/middle_flow/block1/unit_10/xception_module/separable_conv2_depthwise/depthwise_bn_offset", "op": "Const", "attr": {"value": {"tensor": {"dtype": "DT_FLOAT", "tensorShape": {"dim": [{"size": "728"}]}}}, "dtype": {"type": "DT_FLOAT"}}}, {"name": "xception_65/middle_flow/block1/unit_10/xception_module/separable_conv2_pointwise/Conv2D_weights", "op": "Const", "attr": {"dtype": {"type": "DT_FLOAT"}, "value": {"tensor": {"dtype": "DT_FLOAT", "tensorShape": {"dim": [{"size": "1"}, {"size": "1"}, {"size": "728"}, {"size": "728"}]}}}}}, {"name": "decoder/decoder_conv1_depthwise/depthwise_bn_offset", "op": "Const", "attr": {"value": {"tensor": {"dtype": "DT_FLOAT", "tensorShape": {"dim": [{"size": "256"}]}}}, "dtype": {"type": "DT_FLOAT"}}}, {"name": "xception_65/middle_flow/block1/unit_10/xception_module/separable_conv2_pointwise/Conv2D_bn_offset", "op": "Const", "attr": {"value": {"tensor": {"dtype": "DT_FLOAT", "tensorShape": {"dim": [{"size": "728"}]}}}, "dtype": {"type": "DT_FLOAT"}}}, {"name": "xception_65/middle_flow/block1/unit_10/xception_module/separable_conv3_depthwise/depthwise_weights", "op": "Const", "attr": {"value": {"tensor": {"dtype": "DT_FLOAT", "tensorShape": {"dim": [{"size": "3"}, {"size": "3"}, {"size": "728"}, {"size": "1"}]}}}, "dtype": {"type": "DT_FLOAT"}}}, {"name": "xception_65/middle_flow/block1/unit_10/xception_module/separable_conv3_depthwise/depthwise_bn_offset", "op": "Const", "attr": {"dtype": {"type": "DT_FLOAT"}, "value": {"tensor": {"dtype": "DT_FLOAT", "tensorShape": {"dim": [{"size": "728"}]}}}}}, {"name": "xception_65/middle_flow/block1/unit_10/xception_module/separable_conv3_pointwise/Conv2D_weights", "op": "Const", "attr": {"dtype": {"type": "DT_FLOAT"}, "value": {"tensor": {"dtype": "DT_FLOAT", "tensorShape": {"dim": [{"size": "1"}, {"size": "1"}, {"size": "728"}, {"size": "728"}]}}}}}, {"name": "xception_65/middle_flow/block1/unit_10/xception_module/separable_conv3_pointwise/Conv2D_bn_offset", "op": "Const", "attr": {"value": {"tensor": {"dtype": "DT_FLOAT", "tensorShape": {"dim": [{"size": "728"}]}}}, "dtype": {"type": "DT_FLOAT"}}}, {"name": "xception_65/middle_flow/block1/unit_11/xception_module/separable_conv1_depthwise/depthwise_weights", "op": "Const", "attr": {"value": {"tensor": {"dtype": "DT_FLOAT", "tensorShape": {"dim": [{"size": "3"}, {"size": "3"}, {"size": "728"}, {"size": "1"}]}}}, "dtype": {"type": "DT_FLOAT"}}}, {"name": "xception_65/middle_flow/block1/unit_11/xception_module/separable_conv1_depthwise/depthwise_bn_offset", "op": "Const", "attr": {"dtype": {"type": "DT_FLOAT"}, "value": {"tensor": {"dtype": "DT_FLOAT", "tensorShape": {"dim": [{"size": "728"}]}}}}}, {"name": "xception_65/middle_flow/block1/unit_11/xception_module/separable_conv1_pointwise/Conv2D_weights", "op": "Const", "attr": {"value": {"tensor": {"dtype": "DT_FLOAT", "tensorShape": {"dim": [{"size": "1"}, {"size": "1"}, {"size": "728"}, {"size": "728"}]}}}, "dtype": {"type": "DT_FLOAT"}}}, {"name": "decoder/decoder_conv1_pointwise/Conv2D_weights", "op": "Const", "attr": {"value": {"tensor": {"dtype": "DT_FLOAT", "tensorShape": {"dim": [{"size": "1"}, {"size": "1"}, {"size": "256"}, {"size": "256"}]}}}, "dtype": {"type": "DT_FLOAT"}}}, {"name": "xception_65/middle_flow/block1/unit_11/xception_module/separable_conv1_pointwise/Conv2D_bn_offset", "op": "Const", "attr": {"value": {"tensor": {"dtype": "DT_FLOAT", "tensorShape": {"dim": [{"size": "728"}]}}}, "dtype": {"type": "DT_FLOAT"}}}, {"name": "xception_65/middle_flow/block1/unit_11/xception_module/separable_conv2_depthwise/depthwise_weights", "op": "Const", "attr": {"dtype": {"type": "DT_FLOAT"}, "value": {"tensor": {"dtype": "DT_FLOAT", "tensorShape": {"dim": [{"size": "3"}, {"size": "3"}, {"size": "728"}, {"size": "1"}]}}}}}, {"name": "xception_65/middle_flow/block1/unit_11/xception_module/separable_conv2_depthwise/depthwise_bn_offset", "op": "Const", "attr": {"dtype": {"type": "DT_FLOAT"}, "value": {"tensor": {"dtype": "DT_FLOAT", "tensorShape": {"dim": [{"size": "728"}]}}}}}, {"name": "xception_65/middle_flow/block1/unit_11/xception_module/separable_conv2_pointwise/Conv2D_weights", "op": "Const", "attr": {"dtype": {"type": "DT_FLOAT"}, "value": {"tensor": {"dtype": "DT_FLOAT", "tensorShape": {"dim": [{"size": "1"}, {"size": "1"}, {"size": "728"}, {"size": "728"}]}}}}}, {"name": "decoder/decoder_conv1_pointwise/Conv2D_bn_offset", "op": "Const", "attr": {"dtype": {"type": "DT_FLOAT"}, "value": {"tensor": {"dtype": "DT_FLOAT", "tensorShape": {"dim": [{"size": "256"}]}}}}}, {"name": "xception_65/middle_flow/block1/unit_11/xception_module/separable_conv2_pointwise/Conv2D_bn_offset", "op": "Const", "attr": {"dtype": {"type": "DT_FLOAT"}, "value": {"tensor": {"dtype": "DT_FLOAT", "tensorShape": {"dim": [{"size": "728"}]}}}}}, {"name": "xception_65/middle_flow/block1/unit_11/xception_module/separable_conv3_depthwise/depthwise_weights", "op": "Const", "attr": {"value": {"tensor": {"dtype": "DT_FLOAT", "tensorShape": {"dim": [{"size": "3"}, {"size": "3"}, {"size": "728"}, {"size": "1"}]}}}, "dtype": {"type": "DT_FLOAT"}}}, {"name": "xception_65/middle_flow/block1/unit_11/xception_module/separable_conv3_depthwise/depthwise_bn_offset", "op": "Const", "attr": {"dtype": {"type": "DT_FLOAT"}, "value": {"tensor": {"dtype": "DT_FLOAT", "tensorShape": {"dim": [{"size": "728"}]}}}}}, {"name": "xception_65/middle_flow/block1/unit_11/xception_module/separable_conv3_pointwise/Conv2D_weights", "op": "Const", "attr": {"value": {"tensor": {"dtype": "DT_FLOAT", "tensorShape": {"dim": [{"size": "1"}, {"size": "1"}, {"size": "728"}, {"size": "728"}]}}}, "dtype": {"type": "DT_FLOAT"}}}, {"name": "xception_65/middle_flow/block1/unit_11/xception_module/separable_conv3_pointwise/Conv2D_bn_offset", "op": "Const", "attr": {"dtype": {"type": "DT_FLOAT"}, "value": {"tensor": {"dtype": "DT_FLOAT", "tensorShape": {"dim": [{"size": "728"}]}}}}}, {"name": "xception_65/middle_flow/block1/unit_12/xception_module/separable_conv1_depthwise/depthwise_weights", "op": "Const", "attr": {"value": {"tensor": {"dtype": "DT_FLOAT", "tensorShape": {"dim": [{"size": "3"}, {"size": "3"}, {"size": "728"}, {"size": "1"}]}}}, "dtype": {"type": "DT_FLOAT"}}}, {"name": "xception_65/middle_flow/block1/unit_12/xception_module/separable_conv1_depthwise/depthwise_bn_offset", "op": "Const", "attr": {"dtype": {"type": "DT_FLOAT"}, "value": {"tensor": {"dtype": "DT_FLOAT", "tensorShape": {"dim": [{"size": "728"}]}}}}}, {"name": "xception_65/middle_flow/block1/unit_12/xception_module/separable_conv1_pointwise/Conv2D_weights", "op": "Const", "attr": {"value": {"tensor": {"dtype": "DT_FLOAT", "tensorShape": {"dim": [{"size": "1"}, {"size": "1"}, {"size": "728"}, {"size": "728"}]}}}, "dtype": {"type": "DT_FLOAT"}}}, {"name": "xception_65/exit_flow/block2/unit_1/xception_module/separable_conv1_depthwise/BatchNorm/FusedBatchNormV3/Offset", "op": "Const", "attr": {"value": {"tensor": {"dtype": "DT_FLOAT", "tensorShape": {"dim": [{"size": "1024"}]}}}, "dtype": {"type": "DT_FLOAT"}}}, {"name": "xception_65/middle_flow/block1/unit_12/xception_module/separable_conv1_pointwise/Conv2D_bn_offset", "op": "Const", "attr": {"dtype": {"type": "DT_FLOAT"}, "value": {"tensor": {"dtype": "DT_FLOAT", "tensorShape": {"dim": [{"size": "728"}]}}}}}, {"name": "xception_65/middle_flow/block1/unit_12/xception_module/separable_conv2_depthwise/depthwise_weights", "op": "Const", "attr": {"dtype": {"type": "DT_FLOAT"}, "value": {"tensor": {"dtype": "DT_FLOAT", "tensorShape": {"dim": [{"size": "3"}, {"size": "3"}, {"size": "728"}, {"size": "1"}]}}}}}, {"name": "xception_65/middle_flow/block1/unit_12/xception_module/separable_conv2_depthwise/depthwise_bn_offset", "op": "Const", "attr": {"value": {"tensor": {"dtype": "DT_FLOAT", "tensorShape": {"dim": [{"size": "728"}]}}}, "dtype": {"type": "DT_FLOAT"}}}, {"name": "xception_65/middle_flow/block1/unit_12/xception_module/separable_conv2_pointwise/Conv2D_weights", "op": "Const", "attr": {"value": {"tensor": {"dtype": "DT_FLOAT", "tensorShape": {"dim": [{"size": "1"}, {"size": "1"}, {"size": "728"}, {"size": "728"}]}}}, "dtype": {"type": "DT_FLOAT"}}}, {"name": "xception_65/middle_flow/block1/unit_12/xception_module/separable_conv2_pointwise/Conv2D_bn_offset", "op": "Const", "attr": {"value": {"tensor": {"dtype": "DT_FLOAT", "tensorShape": {"dim": [{"size": "728"}]}}}, "dtype": {"type": "DT_FLOAT"}}}, {"name": "xception_65/middle_flow/block1/unit_12/xception_module/separable_conv3_depthwise/depthwise_weights", "op": "Const", "attr": {"value": {"tensor": {"dtype": "DT_FLOAT", "tensorShape": {"dim": [{"size": "3"}, {"size": "3"}, {"size": "728"}, {"size": "1"}]}}}, "dtype": {"type": "DT_FLOAT"}}}, {"name": "xception_65/middle_flow/block1/unit_12/xception_module/separable_conv3_depthwise/depthwise_bn_offset", "op": "Const", "attr": {"value": {"tensor": {"dtype": "DT_FLOAT", "tensorShape": {"dim": [{"size": "728"}]}}}, "dtype": {"type": "DT_FLOAT"}}}, {"name": "xception_65/middle_flow/block1/unit_12/xception_module/separable_conv3_pointwise/Conv2D_weights", "op": "Const", "attr": {"value": {"tensor": {"dtype": "DT_FLOAT", "tensorShape": {"dim": [{"size": "1"}, {"size": "1"}, {"size": "728"}, {"size": "728"}]}}}, "dtype": {"type": "DT_FLOAT"}}}, {"name": "xception_65/middle_flow/block1/unit_12/xception_module/separable_conv3_pointwise/Conv2D_bn_offset", "op": "Const", "attr": {"value": {"tensor": {"dtype": "DT_FLOAT", "tensorShape": {"dim": [{"size": "728"}]}}}, "dtype": {"type": "DT_FLOAT"}}}, {"name": "xception_65/middle_flow/block1/unit_13/xception_module/separable_conv1_depthwise/depthwise_weights", "op": "Const", "attr": {"value": {"tensor": {"dtype": "DT_FLOAT", "tensorShape": {"dim": [{"size": "3"}, {"size": "3"}, {"size": "728"}, {"size": "1"}]}}}, "dtype": {"type": "DT_FLOAT"}}}, {"name": "xception_65/middle_flow/block1/unit_13/xception_module/separable_conv1_depthwise/depthwise_bn_offset", "op": "Const", "attr": {"value": {"tensor": {"dtype": "DT_FLOAT", "tensorShape": {"dim": [{"size": "728"}]}}}, "dtype": {"type": "DT_FLOAT"}}}, {"name": "xception_65/middle_flow/block1/unit_13/xception_module/separable_conv1_pointwise/Conv2D_weights", "op": "Const", "attr": {"value": {"tensor": {"dtype": "DT_FLOAT", "tensorShape": {"dim": [{"size": "1"}, {"size": "1"}, {"size": "728"}, {"size": "728"}]}}}, "dtype": {"type": "DT_FLOAT"}}}, {"name": "xception_65/middle_flow/block1/unit_13/xception_module/separable_conv1_pointwise/Conv2D_bn_offset", "op": "Const", "attr": {"value": {"tensor": {"dtype": "DT_FLOAT", "tensorShape": {"dim": [{"size": "728"}]}}}, "dtype": {"type": "DT_FLOAT"}}}, {"name": "xception_65/middle_flow/block1/unit_13/xception_module/separable_conv2_depthwise/depthwise_weights", "op": "Const", "attr": {"value": {"tensor": {"dtype": "DT_FLOAT", "tensorShape": {"dim": [{"size": "3"}, {"size": "3"}, {"size": "728"}, {"size": "1"}]}}}, "dtype": {"type": "DT_FLOAT"}}}, {"name": "xception_65/middle_flow/block1/unit_13/xception_module/separable_conv2_depthwise/depthwise_bn_offset", "op": "Const", "attr": {"value": {"tensor": {"dtype": "DT_FLOAT", "tensorShape": {"dim": [{"size": "728"}]}}}, "dtype": {"type": "DT_FLOAT"}}}, {"name": "xception_65/middle_flow/block1/unit_13/xception_module/separable_conv2_pointwise/Conv2D_weights", "op": "Const", "attr": {"value": {"tensor": {"dtype": "DT_FLOAT", "tensorShape": {"dim": [{"size": "1"}, {"size": "1"}, {"size": "728"}, {"size": "728"}]}}}, "dtype": {"type": "DT_FLOAT"}}}, {"name": "xception_65/middle_flow/block1/unit_13/xception_module/separable_conv2_pointwise/Conv2D_bn_offset", "op": "Const", "attr": {"dtype": {"type": "DT_FLOAT"}, "value": {"tensor": {"dtype": "DT_FLOAT", "tensorShape": {"dim": [{"size": "728"}]}}}}}, {"name": "xception_65/middle_flow/block1/unit_13/xception_module/separable_conv3_depthwise/depthwise_weights", "op": "Const", "attr": {"dtype": {"type": "DT_FLOAT"}, "value": {"tensor": {"dtype": "DT_FLOAT", "tensorShape": {"dim": [{"size": "3"}, {"size": "3"}, {"size": "728"}, {"size": "1"}]}}}}}, {"name": "xception_65/middle_flow/block1/unit_13/xception_module/separable_conv3_depthwise/depthwise_bn_offset", "op": "Const", "attr": {"dtype": {"type": "DT_FLOAT"}, "value": {"tensor": {"dtype": "DT_FLOAT", "tensorShape": {"dim": [{"size": "728"}]}}}}}, {"name": "xception_65/middle_flow/block1/unit_13/xception_module/separable_conv3_pointwise/Conv2D_weights", "op": "Const", "attr": {"dtype": {"type": "DT_FLOAT"}, "value": {"tensor": {"dtype": "DT_FLOAT", "tensorShape": {"dim": [{"size": "1"}, {"size": "1"}, {"size": "728"}, {"size": "728"}]}}}}}, {"name": "xception_65/middle_flow/block1/unit_13/xception_module/separable_conv3_pointwise/Conv2D_bn_offset", "op": "Const", "attr": {"dtype": {"type": "DT_FLOAT"}, "value": {"tensor": {"dtype": "DT_FLOAT", "tensorShape": {"dim": [{"size": "728"}]}}}}}, {"name": "xception_65/middle_flow/block1/unit_14/xception_module/separable_conv1_depthwise/depthwise_weights", "op": "Const", "attr": {"dtype": {"type": "DT_FLOAT"}, "value": {"tensor": {"dtype": "DT_FLOAT", "tensorShape": {"dim": [{"size": "3"}, {"size": "3"}, {"size": "728"}, {"size": "1"}]}}}}}, {"name": "xception_65/middle_flow/block1/unit_14/xception_module/separable_conv1_depthwise/depthwise_bn_offset", "op": "Const", "attr": {"dtype": {"type": "DT_FLOAT"}, "value": {"tensor": {"dtype": "DT_FLOAT", "tensorShape": {"dim": [{"size": "728"}]}}}}}, {"name": "xception_65/middle_flow/block1/unit_14/xception_module/separable_conv1_pointwise/Conv2D_weights", "op": "Const", "attr": {"dtype": {"type": "DT_FLOAT"}, "value": {"tensor": {"dtype": "DT_FLOAT", "tensorShape": {"dim": [{"size": "1"}, {"size": "1"}, {"size": "728"}, {"size": "728"}]}}}}}, {"name": "xception_65/middle_flow/block1/unit_14/xception_module/separable_conv1_pointwise/Conv2D_bn_offset", "op": "Const", "attr": {"dtype": {"type": "DT_FLOAT"}, "value": {"tensor": {"dtype": "DT_FLOAT", "tensorShape": {"dim": [{"size": "728"}]}}}}}, {"name": "xception_65/middle_flow/block1/unit_14/xception_module/separable_conv2_depthwise/depthwise_weights", "op": "Const", "attr": {"dtype": {"type": "DT_FLOAT"}, "value": {"tensor": {"dtype": "DT_FLOAT", "tensorShape": {"dim": [{"size": "3"}, {"size": "3"}, {"size": "728"}, {"size": "1"}]}}}}}, {"name": "xception_65/middle_flow/block1/unit_14/xception_module/separable_conv2_depthwise/depthwise_bn_offset", "op": "Const", "attr": {"dtype": {"type": "DT_FLOAT"}, "value": {"tensor": {"dtype": "DT_FLOAT", "tensorShape": {"dim": [{"size": "728"}]}}}}}, {"name": "xception_65/middle_flow/block1/unit_14/xception_module/separable_conv2_pointwise/Conv2D_weights", "op": "Const", "attr": {"dtype": {"type": "DT_FLOAT"}, "value": {"tensor": {"dtype": "DT_FLOAT", "tensorShape": {"dim": [{"size": "1"}, {"size": "1"}, {"size": "728"}, {"size": "728"}]}}}}}, {"name": "xception_65/middle_flow/block1/unit_14/xception_module/separable_conv2_pointwise/Conv2D_bn_offset", "op": "Const", "attr": {"dtype": {"type": "DT_FLOAT"}, "value": {"tensor": {"dtype": "DT_FLOAT", "tensorShape": {"dim": [{"size": "728"}]}}}}}, {"name": "xception_65/middle_flow/block1/unit_14/xception_module/separable_conv3_depthwise/depthwise_weights", "op": "Const", "attr": {"dtype": {"type": "DT_FLOAT"}, "value": {"tensor": {"dtype": "DT_FLOAT", "tensorShape": {"dim": [{"size": "3"}, {"size": "3"}, {"size": "728"}, {"size": "1"}]}}}}}, {"name": "xception_65/middle_flow/block1/unit_14/xception_module/separable_conv3_depthwise/depthwise_bn_offset", "op": "Const", "attr": {"dtype": {"type": "DT_FLOAT"}, "value": {"tensor": {"dtype": "DT_FLOAT", "tensorShape": {"dim": [{"size": "728"}]}}}}}, {"name": "xception_65/middle_flow/block1/unit_14/xception_module/separable_conv3_pointwise/Conv2D_weights", "op": "Const", "attr": {"dtype": {"type": "DT_FLOAT"}, "value": {"tensor": {"dtype": "DT_FLOAT", "tensorShape": {"dim": [{"size": "1"}, {"size": "1"}, {"size": "728"}, {"size": "728"}]}}}}}, {"name": "xception_65/middle_flow/block1/unit_14/xception_module/separable_conv3_pointwise/Conv2D_bn_offset", "op": "Const", "attr": {"dtype": {"type": "DT_FLOAT"}, "value": {"tensor": {"dtype": "DT_FLOAT", "tensorShape": {"dim": [{"size": "728"}]}}}}}, {"name": "xception_65/middle_flow/block1/unit_15/xception_module/separable_conv1_depthwise/depthwise_weights", "op": "Const", "attr": {"dtype": {"type": "DT_FLOAT"}, "value": {"tensor": {"dtype": "DT_FLOAT", "tensorShape": {"dim": [{"size": "3"}, {"size": "3"}, {"size": "728"}, {"size": "1"}]}}}}}, {"name": "xception_65/middle_flow/block1/unit_15/xception_module/separable_conv1_depthwise/depthwise_bn_offset", "op": "Const", "attr": {"dtype": {"type": "DT_FLOAT"}, "value": {"tensor": {"dtype": "DT_FLOAT", "tensorShape": {"dim": [{"size": "728"}]}}}}}, {"name": "xception_65/middle_flow/block1/unit_15/xception_module/separable_conv1_pointwise/Conv2D_weights", "op": "Const", "attr": {"dtype": {"type": "DT_FLOAT"}, "value": {"tensor": {"dtype": "DT_FLOAT", "tensorShape": {"dim": [{"size": "1"}, {"size": "1"}, {"size": "728"}, {"size": "728"}]}}}}}, {"name": "aspp3_depthwise/BatchNorm/FusedBatchNormV3/Scaled", "op": "Const", "attr": {"dtype": {"type": "DT_FLOAT"}, "value": {"tensor": {"dtype": "DT_FLOAT", "tensorShape": {"dim": [{"size": "2048"}]}}}}}, {"name": "xception_65/middle_flow/block1/unit_15/xception_module/separable_conv1_pointwise/Conv2D_bn_offset", "op": "Const", "attr": {"dtype": {"type": "DT_FLOAT"}, "value": {"tensor": {"dtype": "DT_FLOAT", "tensorShape": {"dim": [{"size": "728"}]}}}}}, {"name": "xception_65/middle_flow/block1/unit_15/xception_module/separable_conv2_depthwise/depthwise_weights", "op": "Const", "attr": {"dtype": {"type": "DT_FLOAT"}, "value": {"tensor": {"dtype": "DT_FLOAT", "tensorShape": {"dim": [{"size": "3"}, {"size": "3"}, {"size": "728"}, {"size": "1"}]}}}}}, {"name": "xception_65/middle_flow/block1/unit_15/xception_module/separable_conv2_depthwise/depthwise_bn_offset", "op": "Const", "attr": {"dtype": {"type": "DT_FLOAT"}, "value": {"tensor": {"dtype": "DT_FLOAT", "tensorShape": {"dim": [{"size": "728"}]}}}}}, {"name": "xception_65/middle_flow/block1/unit_15/xception_module/separable_conv2_pointwise/Conv2D_weights", "op": "Const", "attr": {"dtype": {"type": "DT_FLOAT"}, "value": {"tensor": {"dtype": "DT_FLOAT", "tensorShape": {"dim": [{"size": "1"}, {"size": "1"}, {"size": "728"}, {"size": "728"}]}}}}}, {"name": "xception_65/middle_flow/block1/unit_15/xception_module/separable_conv2_pointwise/Conv2D_bn_offset", "op": "Const", "attr": {"dtype": {"type": "DT_FLOAT"}, "value": {"tensor": {"dtype": "DT_FLOAT", "tensorShape": {"dim": [{"size": "728"}]}}}}}, {"name": "aspp3_depthwise/BatchNorm/FusedBatchNormV3/Offset", "op": "Const", "attr": {"dtype": {"type": "DT_FLOAT"}, "value": {"tensor": {"dtype": "DT_FLOAT", "tensorShape": {"dim": [{"size": "2048"}]}}}}}, {"name": "xception_65/middle_flow/block1/unit_15/xception_module/separable_conv3_depthwise/depthwise_weights", "op": "Const", "attr": {"dtype": {"type": "DT_FLOAT"}, "value": {"tensor": {"dtype": "DT_FLOAT", "tensorShape": {"dim": [{"size": "3"}, {"size": "3"}, {"size": "728"}, {"size": "1"}]}}}}}, {"name": "xception_65/middle_flow/block1/unit_15/xception_module/separable_conv3_depthwise/depthwise_bn_offset", "op": "Const", "attr": {"dtype": {"type": "DT_FLOAT"}, "value": {"tensor": {"dtype": "DT_FLOAT", "tensorShape": {"dim": [{"size": "728"}]}}}}}, {"name": "xception_65/middle_flow/block1/unit_15/xception_module/separable_conv3_pointwise/Conv2D_weights", "op": "Const", "attr": {"dtype": {"type": "DT_FLOAT"}, "value": {"tensor": {"dtype": "DT_FLOAT", "tensorShape": {"dim": [{"size": "1"}, {"size": "1"}, {"size": "728"}, {"size": "728"}]}}}}}, {"name": "xception_65/middle_flow/block1/unit_15/xception_module/separable_conv3_pointwise/Conv2D_bn_offset", "op": "Const", "attr": {"dtype": {"type": "DT_FLOAT"}, "value": {"tensor": {"dtype": "DT_FLOAT", "tensorShape": {"dim": [{"size": "728"}]}}}}}, {"name": "xception_65/middle_flow/block1/unit_16/xception_module/separable_conv1_depthwise/depthwise_weights", "op": "Const", "attr": {"dtype": {"type": "DT_FLOAT"}, "value": {"tensor": {"dtype": "DT_FLOAT", "tensorShape": {"dim": [{"size": "3"}, {"size": "3"}, {"size": "728"}, {"size": "1"}]}}}}}, {"name": "xception_65/middle_flow/block1/unit_16/xception_module/separable_conv1_depthwise/depthwise_bn_offset", "op": "Const", "attr": {"dtype": {"type": "DT_FLOAT"}, "value": {"tensor": {"dtype": "DT_FLOAT", "tensorShape": {"dim": [{"size": "728"}]}}}}}, {"name": "xception_65/middle_flow/block1/unit_16/xception_module/separable_conv1_pointwise/Conv2D_weights", "op": "Const", "attr": {"dtype": {"type": "DT_FLOAT"}, "value": {"tensor": {"dtype": "DT_FLOAT", "tensorShape": {"dim": [{"size": "1"}, {"size": "1"}, {"size": "728"}, {"size": "728"}]}}}}}, {"name": "xception_65/middle_flow/block1/unit_16/xception_module/separable_conv1_pointwise/Conv2D_bn_offset", "op": "Const", "attr": {"dtype": {"type": "DT_FLOAT"}, "value": {"tensor": {"dtype": "DT_FLOAT", "tensorShape": {"dim": [{"size": "728"}]}}}}}, {"name": "xception_65/middle_flow/block1/unit_16/xception_module/separable_conv2_depthwise/depthwise_weights", "op": "Const", "attr": {"dtype": {"type": "DT_FLOAT"}, "value": {"tensor": {"dtype": "DT_FLOAT", "tensorShape": {"dim": [{"size": "3"}, {"size": "3"}, {"size": "728"}, {"size": "1"}]}}}}}, {"name": "xception_65/middle_flow/block1/unit_16/xception_module/separable_conv2_depthwise/depthwise_bn_offset", "op": "Const", "attr": {"dtype": {"type": "DT_FLOAT"}, "value": {"tensor": {"dtype": "DT_FLOAT", "tensorShape": {"dim": [{"size": "728"}]}}}}}, {"name": "xception_65/middle_flow/block1/unit_16/xception_module/separable_conv2_pointwise/Conv2D_weights", "op": "Const", "attr": {"dtype": {"type": "DT_FLOAT"}, "value": {"tensor": {"dtype": "DT_FLOAT", "tensorShape": {"dim": [{"size": "1"}, {"size": "1"}, {"size": "728"}, {"size": "728"}]}}}}}, {"name": "aspp2_depthwise/BatchNorm/FusedBatchNormV3/Scaled", "op": "Const", "attr": {"dtype": {"type": "DT_FLOAT"}, "value": {"tensor": {"dtype": "DT_FLOAT", "tensorShape": {"dim": [{"size": "2048"}]}}}}}, {"name": "xception_65/middle_flow/block1/unit_16/xception_module/separable_conv2_pointwise/Conv2D_bn_offset", "op": "Const", "attr": {"dtype": {"type": "DT_FLOAT"}, "value": {"tensor": {"dtype": "DT_FLOAT", "tensorShape": {"dim": [{"size": "728"}]}}}}}, {"name": "xception_65/middle_flow/block1/unit_16/xception_module/separable_conv3_depthwise/depthwise_weights", "op": "Const", "attr": {"dtype": {"type": "DT_FLOAT"}, "value": {"tensor": {"dtype": "DT_FLOAT", "tensorShape": {"dim": [{"size": "3"}, {"size": "3"}, {"size": "728"}, {"size": "1"}]}}}}}, {"name": "xception_65/middle_flow/block1/unit_16/xception_module/separable_conv3_depthwise/depthwise_bn_offset", "op": "Const", "attr": {"dtype": {"type": "DT_FLOAT"}, "value": {"tensor": {"dtype": "DT_FLOAT", "tensorShape": {"dim": [{"size": "728"}]}}}}}, {"name": "xception_65/middle_flow/block1/unit_16/xception_module/separable_conv3_pointwise/Conv2D_weights", "op": "Const", "attr": {"dtype": {"type": "DT_FLOAT"}, "value": {"tensor": {"dtype": "DT_FLOAT", "tensorShape": {"dim": [{"size": "1"}, {"size": "1"}, {"size": "728"}, {"size": "728"}]}}}}}, {"name": "xception_65/middle_flow/block1/unit_16/xception_module/separable_conv3_pointwise/Conv2D_bn_offset", "op": "Const", "attr": {"dtype": {"type": "DT_FLOAT"}, "value": {"tensor": {"dtype": "DT_FLOAT", "tensorShape": {"dim": [{"size": "728"}]}}}}}, {"name": "xception_65/exit_flow/block1/unit_1/xception_module/shortcut/Conv2D_weights", "op": "Const", "attr": {"dtype": {"type": "DT_FLOAT"}, "value": {"tensor": {"dtype": "DT_FLOAT", "tensorShape": {"dim": [{"size": "1"}, {"size": "1"}, {"size": "728"}, {"size": "1024"}]}}}}}, {"name": "aspp2_depthwise/BatchNorm/FusedBatchNormV3/Offset", "op": "Const", "attr": {"dtype": {"type": "DT_FLOAT"}, "value": {"tensor": {"dtype": "DT_FLOAT", "tensorShape": {"dim": [{"size": "2048"}]}}}}}, {"name": "xception_65/exit_flow/block1/unit_1/xception_module/shortcut/Conv2D_bn_offset", "op": "Const", "attr": {"dtype": {"type": "DT_FLOAT"}, "value": {"tensor": {"dtype": "DT_FLOAT", "tensorShape": {"dim": [{"size": "1024"}]}}}}}, {"name": "xception_65/exit_flow/block1/unit_1/xception_module/separable_conv1_depthwise/depthwise_weights", "op": "Const", "attr": {"dtype": {"type": "DT_FLOAT"}, "value": {"tensor": {"dtype": "DT_FLOAT", "tensorShape": {"dim": [{"size": "3"}, {"size": "3"}, {"size": "728"}, {"size": "1"}]}}}}}, {"name": "xception_65/exit_flow/block1/unit_1/xception_module/separable_conv1_depthwise/depthwise_bn_offset", "op": "Const", "attr": {"dtype": {"type": "DT_FLOAT"}, "value": {"tensor": {"dtype": "DT_FLOAT", "tensorShape": {"dim": [{"size": "728"}]}}}}}, {"name": "xception_65/exit_flow/block1/unit_1/xception_module/separable_conv1_pointwise/Conv2D_weights", "op": "Const", "attr": {"dtype": {"type": "DT_FLOAT"}, "value": {"tensor": {"dtype": "DT_FLOAT", "tensorShape": {"dim": [{"size": "1"}, {"size": "1"}, {"size": "728"}, {"size": "728"}]}}}}}, {"name": "xception_65/exit_flow/block1/unit_1/xception_module/separable_conv1_pointwise/Conv2D_bn_offset", "op": "Const", "attr": {"dtype": {"type": "DT_FLOAT"}, "value": {"tensor": {"dtype": "DT_FLOAT", "tensorShape": {"dim": [{"size": "728"}]}}}}}, {"name": "xception_65/exit_flow/block1/unit_1/xception_module/separable_conv2_depthwise/depthwise_weights", "op": "Const", "attr": {"dtype": {"type": "DT_FLOAT"}, "value": {"tensor": {"dtype": "DT_FLOAT", "tensorShape": {"dim": [{"size": "3"}, {"size": "3"}, {"size": "728"}, {"size": "1"}]}}}}}, {"name": "xception_65/exit_flow/block1/unit_1/xception_module/separable_conv2_depthwise/depthwise_bn_offset", "op": "Const", "attr": {"dtype": {"type": "DT_FLOAT"}, "value": {"tensor": {"dtype": "DT_FLOAT", "tensorShape": {"dim": [{"size": "728"}]}}}}}, {"name": "xception_65/exit_flow/block1/unit_1/xception_module/separable_conv2_pointwise/Conv2D_weights", "op": "Const", "attr": {"dtype": {"type": "DT_FLOAT"}, "value": {"tensor": {"dtype": "DT_FLOAT", "tensorShape": {"dim": [{"size": "1"}, {"size": "1"}, {"size": "728"}, {"size": "1024"}]}}}}}, {"name": "xception_65/exit_flow/block1/unit_1/xception_module/separable_conv2_pointwise/Conv2D_bn_offset", "op": "Const", "attr": {"dtype": {"type": "DT_FLOAT"}, "value": {"tensor": {"dtype": "DT_FLOAT", "tensorShape": {"dim": [{"size": "1024"}]}}}}}, {"name": "aspp1_depthwise/BatchNorm/FusedBatchNormV3/Scaled", "op": "Const", "attr": {"dtype": {"type": "DT_FLOAT"}, "value": {"tensor": {"dtype": "DT_FLOAT", "tensorShape": {"dim": [{"size": "2048"}]}}}}}, {"name": "xception_65/exit_flow/block1/unit_1/xception_module/separable_conv3_depthwise/depthwise_weights", "op": "Const", "attr": {"dtype": {"type": "DT_FLOAT"}, "value": {"tensor": {"dtype": "DT_FLOAT", "tensorShape": {"dim": [{"size": "3"}, {"size": "3"}, {"size": "1024"}, {"size": "1"}]}}}}}, {"name": "xception_65/exit_flow/block1/unit_1/xception_module/separable_conv3_depthwise/depthwise_bn_offset", "op": "Const", "attr": {"dtype": {"type": "DT_FLOAT"}, "value": {"tensor": {"dtype": "DT_FLOAT", "tensorShape": {"dim": [{"size": "1024"}]}}}}}, {"name": "xception_65/exit_flow/block1/unit_1/xception_module/separable_conv3_pointwise/Conv2D_weights", "op": "Const", "attr": {"dtype": {"type": "DT_FLOAT"}, "value": {"tensor": {"dtype": "DT_FLOAT", "tensorShape": {"dim": [{"size": "1"}, {"size": "1"}, {"size": "1024"}, {"size": "1024"}]}}}}}, {"name": "xception_65/exit_flow/block1/unit_1/xception_module/separable_conv3_pointwise/Conv2D_bn_offset", "op": "Const", "attr": {"dtype": {"type": "DT_FLOAT"}, "value": {"tensor": {"dtype": "DT_FLOAT", "tensorShape": {"dim": [{"size": "1024"}]}}}}}, {"name": "xception_65/exit_flow/block2/unit_1/xception_module/separable_conv1_pointwise/Conv2D_weights", "op": "Const", "attr": {"dtype": {"type": "DT_FLOAT"}, "value": {"tensor": {"dtype": "DT_FLOAT", "tensorShape": {"dim": [{"size": "1"}, {"size": "1"}, {"size": "1024"}, {"size": "1536"}]}}}}}, {"name": "xception_65/exit_flow/block2/unit_1/xception_module/separable_conv1_pointwise/Conv2D_bn_offset", "op": "Const", "attr": {"dtype": {"type": "DT_FLOAT"}, "value": {"tensor": {"dtype": "DT_FLOAT", "tensorShape": {"dim": [{"size": "1536"}]}}}}}, {"name": "aspp1_depthwise/BatchNorm/FusedBatchNormV3/Offset", "op": "Const", "attr": {"dtype": {"type": "DT_FLOAT"}, "value": {"tensor": {"dtype": "DT_FLOAT", "tensorShape": {"dim": [{"size": "2048"}]}}}}}, {"name": "xception_65/exit_flow/block2/unit_1/xception_module/separable_conv2_pointwise/Conv2D_weights", "op": "Const", "attr": {"dtype": {"type": "DT_FLOAT"}, "value": {"tensor": {"dtype": "DT_FLOAT", "tensorShape": {"dim": [{"size": "1"}, {"size": "1"}, {"size": "1536"}, {"size": "1536"}]}}}}}, {"name": "xception_65/exit_flow/block2/unit_1/xception_module/separable_conv2_pointwise/Conv2D_bn_offset", "op": "Const", "attr": {"dtype": {"type": "DT_FLOAT"}, "value": {"tensor": {"dtype": "DT_FLOAT", "tensorShape": {"dim": [{"size": "1536"}]}}}}}, {"name": "Squeeze", "op": "Squeeze", "input": ["ImageTensor"], "attr": {"squeeze_dims": {"list": {"i": ["0"]}}, "T": {"type": "DT_UINT8"}}}, {"name": "Shape", "op": "Shape", "input": ["ImageTensor"], "attr": {"out_type": {"type": "DT_INT32"}, "T": {"type": "DT_UINT8"}}}, {"name": "Cast", "op": "Cast", "input": ["Squeeze"], "attr": {"SrcT": {"type": "DT_UINT8"}, "DstT": {"type": "DT_FLOAT"}, "Truncate": {"b": false}}}, {"name": "Shape_2", "op": "Shape", "input": ["Squeeze"], "attr": {"T": {"type": "DT_UINT8"}, "out_type": {"type": "DT_INT32"}}}, {"name": "strided_slice", "op": "StridedSlice", "input": ["Shape", "strided_slice/stack", "strided_slice/stack_1", "strided_slice/stack_2"], "attr": {"new_axis_mask": {"i": "0"}, "begin_mask": {"i": "0"}, "Index": {"type": "DT_INT32"}, "T": {"type": "DT_INT32"}, "shrink_axis_mask": {"i": "0"}, "end_mask": {"i": "0"}, "ellipsis_mask": {"i": "0"}}}, {"name": "pad_to_bounding_box/sub", "op": "Sub", "input": ["Cast", "Reshape"], "attr": {"T": {"type": "DT_FLOAT"}}}, {"name": "Shape_1", "op": "Shape", "input": ["Cast"], "attr": {"T": {"type": "DT_FLOAT"}, "out_type": {"type": "DT_INT32"}}}, {"name": "strided_slice_3", "op": "StridedSlice", "input": ["Shape_2", "strided_slice_3/stack", "strided_slice_3/stack_1", "strided_slice_3/stack_2"], "attr": {"new_axis_mask": {"i": "0"}, "begin_mask": {"i": "1"}, "Index": {"type": "DT_INT32"}, "T": {"type": "DT_INT32"}, "shrink_axis_mask": {"i": "0"}, "end_mask": {"i": "0"}, "ellipsis_mask": {"i": "0"}}}, {"name": "pad_to_bounding_box/ExpandDims", "op": "ExpandDims", "input": ["pad_to_bounding_box/sub", "pad_to_bounding_box/ExpandDims/dim"], "attr": {"Tdim": {"type": "DT_INT32"}, "T": {"type": "DT_FLOAT"}}}, {"name": "strided_slice_1", "op": "StridedSlice", "input": ["Shape_1", "strided_slice_1/stack", "strided_slice_1/stack_1", "strided_slice_1/stack_2"], "attr": {"begin_mask": {"i": "0"}, "new_axis_mask": {"i": "0"}, "Index": {"type": "DT_INT32"}, "T": {"type": "DT_INT32"}, "shrink_axis_mask": {"i": "1"}, "end_mask": {"i": "0"}, "ellipsis_mask": {"i": "0"}}}, {"name": "strided_slice_2", "op": "StridedSlice", "input": ["Shape_1", "strided_slice_2/stack", "strided_slice_2/stack_1", "strided_slice_2/stack_2"], "attr": {"begin_mask": {"i": "0"}, "new_axis_mask": {"i": "0"}, "Index": {"type": "DT_INT32"}, "T": {"type": "DT_INT32"}, "shrink_axis_mask": {"i": "1"}, "end_mask": {"i": "0"}, "ellipsis_mask": {"i": "0"}}}, {"name": "strided_slice_5", "op": "StridedSlice", "input": ["strided_slice_3", "strided_slice_5/stack", "strided_slice_5/stack_1", "strided_slice_5/stack_2"], "attr": {"ellipsis_mask": {"i": "0"}, "new_axis_mask": {"i": "0"}, "shrink_axis_mask": {"i": "1"}, "begin_mask": {"i": "0"}, "Index": {"type": "DT_INT32"}, "T": {"type": "DT_INT32"}, "end_mask": {"i": "0"}}}, {"name": "strided_slice_6", "op": "StridedSlice", "input": ["strided_slice_3", "strided_slice_6/stack", "strided_slice_6/stack_1", "strided_slice_6/stack_2"], "attr": {"new_axis_mask": {"i": "0"}, "begin_mask": {"i": "0"}, "Index": {"type": "DT_INT32"}, "T": {"type": "DT_INT32"}, "shrink_axis_mask": {"i": "1"}, "end_mask": {"i": "0"}, "ellipsis_mask": {"i": "0"}}}, {"name": "pad_to_bounding_box/Shape", "op": "Shape", "input": ["pad_to_bounding_box/ExpandDims"], "attr": {"out_type": {"type": "DT_INT32"}, "T": {"type": "DT_FLOAT"}}}, {"name": "sub", "op": "Sub", "input": ["sub/x", "strided_slice_1"], "attr": {"T": {"type": "DT_INT32"}}}, {"name": "Cast_5", "op": "Cast", "input": ["strided_slice_1"], "attr": {"SrcT": {"type": "DT_INT32"}, "Truncate": {"b": false}, "DstT": {"type": "DT_FLOAT"}}}, {"name": "Cast_2", "op": "Cast", "input": ["strided_slice_1"], "attr": {"SrcT": {"type": "DT_INT32"}, "Truncate": {"b": false}, "DstT": {"type": "DT_FLOAT"}}}, {"name": "sub_1", "op": "Sub", "input": ["sub_1/x", "strided_slice_2"], "attr": {"T": {"type": "DT_INT32"}}}, {"name": "Cast_6", "op": "Cast", "input": ["strided_slice_2"], "attr": {"SrcT": {"type": "DT_INT32"}, "DstT": {"type": "DT_FLOAT"}, "Truncate": {"b": false}}}, {"name": "Cast_4", "op": "Cast", "input": ["strided_slice_2"], "attr": {"Truncate": {"b": false}, "DstT": {"type": "DT_FLOAT"}, "SrcT": {"type": "DT_INT32"}}}, {"name": "strided_slice_7/stack_1", "op": "Pack", "input": ["strided_slice_7/stack_1/0", "strided_slice_5", "strided_slice_6"], "attr": {"N": {"i": "3"}, "axis": {"i": "0"}, "T": {"type": "DT_INT32"}}}, {"name": "pad_to_bounding_box/unstack", "op": "Unpack", "input": ["pad_to_bounding_box/Shape"], "attr": {"axis": {"i": "0"}, "num": {"i": "4"}, "T": {"type": "DT_INT32"}}}, {"name": "Maximum", "op": "Maximum", "input": ["sub", "Maximum/y"], "attr": {"T": {"type": "DT_INT32"}}}, {"name": "truediv", "op": "RealDiv", "input": ["Cast_1", "Cast_2"], "attr": {"T": {"type": "DT_FLOAT"}}}, {"name": "Maximum_1", "op": "Maximum", "input": ["sub_1", "Maximum_1/y"], "attr": {"T": {"type": "DT_INT32"}}}, {"name": "truediv_1", "op": "RealDiv", "input": ["Cast_3", "Cast_4"], "attr": {"T": {"type": "DT_FLOAT"}}}, {"name": "add", "op": "AddV2", "input": ["strided_slice_1", "Maximum"], "attr": {"T": {"type": "DT_INT32"}}}, {"name": "add_1", "op": "AddV2", "input": ["strided_slice_2", "Maximum_1"], "attr": {"T": {"type": "DT_INT32"}}}, {"name": "Minimum", "op": "Minimum", "input": ["truediv", "truediv_1"], "attr": {"T": {"type": "DT_FLOAT"}}}, {"name": "pad_to_bounding_box/sub_4", "op": "Sub", "input": ["add", "pad_to_bounding_box/unstack:1"], "attr": {"T": {"type": "DT_INT32"}}}, {"name": "pad_to_bounding_box/sub_2", "op": "Sub", "input": ["add_1", "pad_to_bounding_box/unstack:2"], "attr": {"T": {"type": "DT_INT32"}}}, {"name": "mul", "op": "Mul", "input": ["Cast_5", "Minimum"], "attr": {"T": {"type": "DT_FLOAT"}}}, {"name": "mul_1", "op": "Mul", "input": ["Cast_6", "Minimum"], "attr": {"T": {"type": "DT_FLOAT"}}}, {"name": "pad_to_bounding_box/stack_1", "op": "Pack", "input": ["pad_to_bounding_box/stack_1/0", "pad_to_bounding_box/sub_4"], "attr": {"N": {"i": "2"}, "axis": {"i": "0"}, "T": {"type": "DT_INT32"}}}, {"name": "pad_to_bounding_box/stack_2", "op": "Pack", "input": ["pad_to_bounding_box/stack_2/0", "pad_to_bounding_box/sub_2"], "attr": {"axis": {"i": "0"}, "T": {"type": "DT_INT32"}, "N": {"i": "2"}}}, {"name": "resize/Cast", "op": "Cast", "input": ["mul"], "attr": {"SrcT": {"type": "DT_FLOAT"}, "DstT": {"type": "DT_INT32"}, "Truncate": {"b": false}}}, {"name": "resize/Cast_1", "op": "Cast", "input": ["mul_1"], "attr": {"SrcT": {"type": "DT_FLOAT"}, "Truncate": {"b": false}, "DstT": {"type": "DT_INT32"}}}, {"name": "pad_to_bounding_box/stack_4", "op": "Pack", "input": ["pad_to_bounding_box/stack", "pad_to_bounding_box/stack_1", "pad_to_bounding_box/stack_2", "pad_to_bounding_box/stack_3"], "attr": {"axis": {"i": "0"}, "T": {"type": "DT_INT32"}, "N": {"i": "4"}}}, {"name": "resize/size", "op": "Pack", "input": ["resize/Cast", "resize/Cast_1"], "attr": {"N": {"i": "2"}, "axis": {"i": "0"}, "T": {"type": "DT_INT32"}}}, {"name": "pad_to_bounding_box/Pad", "op": "Pad", "input": ["pad_to_bounding_box/ExpandDims", "pad_to_bounding_box/stack_4"], "attr": {"Tpaddings": {"type": "DT_INT32"}, "T": {"type": "DT_FLOAT"}}}, {"name": "pad_to_bounding_box/Squeeze", "op": "Squeeze", "input": ["pad_to_bounding_box/Pad"], "attr": {"squeeze_dims": {"list": {"i": ["0"]}}, "T": {"type": "DT_FLOAT"}}}, {"name": "pad_to_bounding_box/add", "op": "AddV2", "input": ["pad_to_bounding_box/Squeeze", "Reshape"], "attr": {"T": {"type": "DT_FLOAT"}}}, {"name": "resize/ExpandDims", "op": "ExpandDims", "input": ["pad_to_bounding_box/add", "resize/ExpandDims/dim"], "attr": {"T": {"type": "DT_FLOAT"}, "Tdim": {"type": "DT_INT32"}}}, {"name": "resize/ResizeBilinear", "op": "ResizeBilinear", "input": ["resize/ExpandDims", "resize/size"], "attr": {"align_corners": {"b": true}, "T": {"type": "DT_FLOAT"}, "half_pixel_centers": {"b": false}}}, {"name": "resize/Squeeze", "op": "Squeeze", "input": ["resize/ResizeBilinear"], "attr": {"T": {"type": "DT_FLOAT"}, "squeeze_dims": {"list": {"i": ["0"]}}}}, {"name": "pad_to_bounding_box_1/sub", "op": "Sub", "input": ["resize/Squeeze", "Reshape"], "attr": {"T": {"type": "DT_FLOAT"}}}, {"name": "pad_to_bounding_box_1/ExpandDims", "op": "ExpandDims", "input": ["pad_to_bounding_box_1/sub", "pad_to_bounding_box_1/ExpandDims/dim"], "attr": {"T": {"type": "DT_FLOAT"}, "Tdim": {"type": "DT_INT32"}}}, {"name": "pad_to_bounding_box_1/Shape", "op": "Shape", "input": ["pad_to_bounding_box_1/ExpandDims"], "attr": {"out_type": {"type": "DT_INT32"}, "T": {"type": "DT_FLOAT"}}}, {"name": "pad_to_bounding_box_1/unstack", "op": "Unpack", "input": ["pad_to_bounding_box_1/Shape"], "attr": {"axis": {"i": "0"}, "num": {"i": "4"}, "T": {"type": "DT_INT32"}}}, {"name": "pad_to_bounding_box_1/sub_2/x", "op": "Const", "input": ["^pad_to_bounding_box_1/unstack"], "attr": {"dtype": {"type": "DT_INT32"}, "value": {"tensor": {"dtype": "DT_INT32", "tensorShape": {}}}}}, {"name": "pad_to_bounding_box_1/sub_1/x", "op": "Const", "input": ["^pad_to_bounding_box_1/unstack"], "attr": {"dtype": {"type": "DT_INT32"}, "value": {"tensor": {"dtype": "DT_INT32", "tensorShape": {}}}}}, {"name": "pad_to_bounding_box_1/sub_2", "op": "Sub", "input": ["pad_to_bounding_box_1/sub_2/x", "pad_to_bounding_box_1/unstack:1"], "attr": {"T": {"type": "DT_INT32"}}}, {"name": "pad_to_bounding_box_1/sub_1", "op": "Sub", "input": ["pad_to_bounding_box_1/sub_1/x", "pad_to_bounding_box_1/unstack:2"], "attr": {"T": {"type": "DT_INT32"}}}, {"name": "pad_to_bounding_box_1/stack_1", "op": "Pack", "input": ["pad_to_bounding_box_1/stack_1/0", "pad_to_bounding_box_1/sub_2"], "attr": {"axis": {"i": "0"}, "T": {"type": "DT_INT32"}, "N": {"i": "2"}}}, {"name": "pad_to_bounding_box_1/stack_2", "op": "Pack", "input": ["pad_to_bounding_box_1/stack_2/0", "pad_to_bounding_box_1/sub_1"], "attr": {"N": {"i": "2"}, "axis": {"i": "0"}, "T": {"type": "DT_INT32"}}}, {"name": "pad_to_bounding_box_1/stack_4", "op": "Pack", "input": ["pad_to_bounding_box_1/stack", "pad_to_bounding_box_1/stack_1", "pad_to_bounding_box_1/stack_2", "pad_to_bounding_box_1/stack_3"], "attr": {"axis": {"i": "0"}, "T": {"type": "DT_INT32"}, "N": {"i": "4"}}}, {"name": "pad_to_bounding_box_1/Pad", "op": "Pad", "input": ["pad_to_bounding_box_1/ExpandDims", "pad_to_bounding_box_1/stack_4"], "attr": {"Tpaddings": {"type": "DT_INT32"}, "T": {"type": "DT_FLOAT"}}}, {"name": "pad_to_bounding_box_1/Squeeze", "op": "Squeeze", "input": ["pad_to_bounding_box_1/Pad"], "attr": {"squeeze_dims": {"list": {"i": ["0"]}}, "T": {"type": "DT_FLOAT"}}}, {"name": "pad_to_bounding_box_1/add", "op": "AddV2", "input": ["pad_to_bounding_box_1/Squeeze", "Reshape"], "attr": {"T": {"type": "DT_FLOAT"}}}, {"name": "ExpandDims", "op": "ExpandDims", "input": ["pad_to_bounding_box_1/add", "ExpandDims/dim"], "attr": {"Tdim": {"type": "DT_INT32"}, "T": {"type": "DT_FLOAT"}}}, {"name": "mul_2", "op": "Mul", "input": ["mul_2/x", "ExpandDims"], "attr": {"T": {"type": "DT_FLOAT"}}}, {"name": "sub_2", "op": "Sub", "input": ["mul_2", "sub_2/y"], "attr": {"T": {"type": "DT_FLOAT"}}}, {"name": "xception_65/Pad", "op": "Pad", "input": ["sub_2", "xception_65/Pad/paddings"], "attr": {"Tpaddings": {"type": "DT_INT32"}, "T": {"type": "DT_FLOAT"}}}, {"name": "xception_65/entry_flow/conv1_1/Relu", "op": "_FusedConv2D", "input": ["xception_65/Pad", "xception_65/entry_flow/conv1_1/Conv2D_weights", "xception_65/entry_flow/conv1_1/Conv2D_bn_offset"], "device": "/device:CPU:0", "attr": {"padding": {"s": "VkFMSUQ="}, "num_args": {"i": "1"}, "T": {"type": "DT_FLOAT"}, "explicit_paddings": {"list": {}}, "epsilon": {"f": 0.0}, "use_cudnn_on_gpu": {"b": true}, "dilations": {"list": {"i": ["1", "1", "1", "1"]}}, "fused_ops": {"list": {"s": ["Qmlhc0FkZA==", "UmVsdQ=="]}}, "data_format": {"s": "TkhXQw=="}, "strides": {"list": {"i": ["1", "2", "2", "1"]}}}}, {"name": "xception_65/entry_flow/conv1_2/Relu", "op": "_FusedConv2D", "input": ["xception_65/entry_flow/conv1_1/Relu", "xception_65/entry_flow/conv1_2/Conv2D_weights", "xception_65/entry_flow/conv1_2/Conv2D_bn_offset"], "device": "/device:CPU:0", "attr": {"fused_ops": {"list": {"s": ["Qmlhc0FkZA==", "UmVsdQ=="]}}, "data_format": {"s": "TkhXQw=="}, "padding": {"s": "U0FNRQ=="}, "strides": {"list": {"i": ["1", "1", "1", "1"]}}, "num_args": {"i": "1"}, "explicit_paddings": {"list": {}}, "T": {"type": "DT_FLOAT"}, "epsilon": {"f": 0.0}, "use_cudnn_on_gpu": {"b": true}, "dilations": {"list": {"i": ["1", "1", "1", "1"]}}}}, {"name": "xception_65/entry_flow/block1/unit_1/xception_module/Relu", "op": "Relu", "input": ["xception_65/entry_flow/conv1_2/Relu"], "attr": {"T": {"type": "DT_FLOAT"}}}, {"name": "xception_65/entry_flow/block1/unit_1/xception_module/shortcut/BatchNorm/FusedBatchNormV3", "op": "_FusedConv2D", "input": ["xception_65/entry_flow/conv1_2/Relu", "xception_65/entry_flow/block1/unit_1/xception_module/shortcut/Conv2D_weights", "xception_65/entry_flow/block1/unit_1/xception_module/shortcut/Conv2D_bn_offset"], "device": "/device:CPU:0", "attr": {"fused_ops": {"list": {"s": ["Qmlhc0FkZA=="]}}, "data_format": {"s": "TkhXQw=="}, "padding": {"s": "U0FNRQ=="}, "strides": {"list": {"i": ["1", "2", "2", "1"]}}, "num_args": {"i": "1"}, "explicit_paddings": {"list": {}}, "T": {"type": "DT_FLOAT"}, "epsilon": {"f": 0.0}, "use_cudnn_on_gpu": {"b": true}, "dilations": {"list": {"i": ["1", "1", "1", "1"]}}}}, {"name": "xception_65/entry_flow/block1/unit_1/xception_module/separable_conv1_depthwise/depthwise", "op": "FusedDepthwiseConv2dNative", "input": ["xception_65/entry_flow/block1/unit_1/xception_module/Relu", "xception_65/entry_flow/block1/unit_1/xception_module/separable_conv1_depthwise/depthwise_weights", "xception_65/entry_flow/block1/unit_1/xception_module/separable_conv1_depthwise/depthwise_bn_offset"], "attr": {"T": {"type": "DT_FLOAT"}, "strides": {"list": {"i": ["1", "1", "1", "1"]}}, "num_args": {"i": "1"}, "explicit_paddings": {"list": {}}, "fused_ops": {"list": {"s": ["Qmlhc0FkZA=="]}}, "dilations": {"list": {"i": ["1", "1", "1", "1"]}}, "data_format": {"s": "TkhXQw=="}, "padding": {"s": "U0FNRQ=="}}}, {"name": "xception_65/entry_flow/block1/unit_1/xception_module/Relu_1", "op": "_FusedConv2D", "input": ["xception_65/entry_flow/block1/unit_1/xception_module/separable_conv1_depthwise/depthwise", "xception_65/entry_flow/block1/unit_1/xception_module/separable_conv1_pointwise/Conv2D_weights", "xception_65/entry_flow/block1/unit_1/xception_module/separable_conv1_pointwise/Conv2D_bn_offset"], "device": "/device:CPU:0", "attr": {"padding": {"s": "U0FNRQ=="}, "num_args": {"i": "1"}, "T": {"type": "DT_FLOAT"}, "explicit_paddings": {"list": {}}, "epsilon": {"f": 0.0}, "use_cudnn_on_gpu": {"b": true}, "dilations": {"list": {"i": ["1", "1", "1", "1"]}}, "fused_ops": {"list": {"s": ["Qmlhc0FkZA==", "UmVsdQ=="]}}, "data_format": {"s": "TkhXQw=="}, "strides": {"list": {"i": ["1", "1", "1", "1"]}}}}, {"name": "xception_65/entry_flow/block1/unit_1/xception_module/separable_conv2_depthwise/depthwise", "op": "FusedDepthwiseConv2dNative", "input": ["xception_65/entry_flow/block1/unit_1/xception_module/Relu_1", "xception_65/entry_flow/block1/unit_1/xception_module/separable_conv2_depthwise/depthwise_weights", "xception_65/entry_flow/block1/unit_1/xception_module/separable_conv2_depthwise/depthwise_bn_offset"], "attr": {"fused_ops": {"list": {"s": ["Qmlhc0FkZA=="]}}, "data_format": {"s": "TkhXQw=="}, "num_args": {"i": "1"}, "explicit_paddings": {"list": {}}, "padding": {"s": "U0FNRQ=="}, "T": {"type": "DT_FLOAT"}, "dilations": {"list": {"i": ["1", "1", "1", "1"]}}, "strides": {"list": {"i": ["1", "1", "1", "1"]}}}}, {"name": "xception_65/entry_flow/block1/unit_1/xception_module/Relu_2", "op": "_FusedConv2D", "input": ["xception_65/entry_flow/block1/unit_1/xception_module/separable_conv2_depthwise/depthwise", "xception_65/entry_flow/block1/unit_1/xception_module/separable_conv2_pointwise/Conv2D_weights", "xception_65/entry_flow/block1/unit_1/xception_module/separable_conv2_pointwise/Conv2D_bn_offset"], "device": "/device:CPU:0", "attr": {"padding": {"s": "U0FNRQ=="}, "num_args": {"i": "1"}, "T": {"type": "DT_FLOAT"}, "explicit_paddings": {"list": {}}, "epsilon": {"f": 0.0}, "use_cudnn_on_gpu": {"b": true}, "dilations": {"list": {"i": ["1", "1", "1", "1"]}}, "fused_ops": {"list": {"s": ["Qmlhc0FkZA==", "UmVsdQ=="]}}, "data_format": {"s": "TkhXQw=="}, "strides": {"list": {"i": ["1", "1", "1", "1"]}}}}, {"name": "xception_65/entry_flow/block1/unit_1/xception_module/Pad", "op": "Pad", "input": ["xception_65/entry_flow/block1/unit_1/xception_module/Relu_2", "xception_65/entry_flow/block1/unit_1/xception_module/Pad/paddings"], "attr": {"T": {"type": "DT_FLOAT"}, "Tpaddings": {"type": "DT_INT32"}}}, {"name": "xception_65/entry_flow/block1/unit_1/xception_module/separable_conv3_depthwise/depthwise", "op": "FusedDepthwiseConv2dNative", "input": ["xception_65/entry_flow/block1/unit_1/xception_module/Pad", "xception_65/entry_flow/block1/unit_1/xception_module/separable_conv3_depthwise/depthwise_weights", "xception_65/entry_flow/block1/unit_1/xception_module/separable_conv3_depthwise/depthwise_bn_offset"], "attr": {"fused_ops": {"list": {"s": ["Qmlhc0FkZA=="]}}, "data_format": {"s": "TkhXQw=="}, "padding": {"s": "VkFMSUQ="}, "strides": {"list": {"i": ["1", "2", "2", "1"]}}, "num_args": {"i": "1"}, "explicit_paddings": {"list": {}}, "T": {"type": "DT_FLOAT"}, "dilations": {"list": {"i": ["1", "1", "1", "1"]}}}}, {"name": "xception_65/entry_flow/block1/unit_1/xception_module/separable_conv3_pointwise/BatchNorm/FusedBatchNormV3", "op": "_FusedConv2D", "input": ["xception_65/entry_flow/block1/unit_1/xception_module/separable_conv3_depthwise/depthwise", "xception_65/entry_flow/block1/unit_1/xception_module/separable_conv3_pointwise/Conv2D_weights", "xception_65/entry_flow/block1/unit_1/xception_module/separable_conv3_pointwise/Conv2D_bn_offset"], "device": "/device:CPU:0", "attr": {"fused_ops": {"list": {"s": ["Qmlhc0FkZA=="]}}, "data_format": {"s": "TkhXQw=="}, "num_args": {"i": "1"}, "explicit_paddings": {"list": {}}, "padding": {"s": "U0FNRQ=="}, "T": {"type": "DT_FLOAT"}, "use_cudnn_on_gpu": {"b": true}, "epsilon": {"f": 0.0}, "dilations": {"list": {"i": ["1", "1", "1", "1"]}}, "strides": {"list": {"i": ["1", "1", "1", "1"]}}}}, {"name": "xception_65/entry_flow/block1/unit_1/xception_module/add", "op": "AddV2", "input": ["xception_65/entry_flow/block1/unit_1/xception_module/separable_conv3_pointwise/BatchNorm/FusedBatchNormV3", "xception_65/entry_flow/block1/unit_1/xception_module/shortcut/BatchNorm/FusedBatchNormV3"], "attr": {"T": {"type": "DT_FLOAT"}}}, {"name": "xception_65/entry_flow/block2/unit_1/xception_module/Relu", "op": "Relu", "input": ["xception_65/entry_flow/block1/unit_1/xception_module/add"], "attr": {"T": {"type": "DT_FLOAT"}}}, {"name": "xception_65/entry_flow/block2/unit_1/xception_module/shortcut/BatchNorm/FusedBatchNormV3", "op": "_FusedConv2D", "input": ["xception_65/entry_flow/block1/unit_1/xception_module/add", "xception_65/entry_flow/block2/unit_1/xception_module/shortcut/Conv2D_weights", "xception_65/entry_flow/block2/unit_1/xception_module/shortcut/Conv2D_bn_offset"], "device": "/device:CPU:0", "attr": {"fused_ops": {"list": {"s": ["Qmlhc0FkZA=="]}}, "data_format": {"s": "TkhXQw=="}, "num_args": {"i": "1"}, "explicit_paddings": {"list": {}}, "padding": {"s": "U0FNRQ=="}, "T": {"type": "DT_FLOAT"}, "use_cudnn_on_gpu": {"b": true}, "epsilon": {"f": 0.0}, "dilations": {"list": {"i": ["1", "1", "1", "1"]}}, "strides": {"list": {"i": ["1", "2", "2", "1"]}}}}, {"name": "xception_65/entry_flow/block2/unit_1/xception_module/separable_conv1_depthwise/depthwise", "op": "FusedDepthwiseConv2dNative", "input": ["xception_65/entry_flow/block2/unit_1/xception_module/Relu", "xception_65/entry_flow/block2/unit_1/xception_module/separable_conv1_depthwise/depthwise_weights", "xception_65/entry_flow/block2/unit_1/xception_module/separable_conv1_depthwise/depthwise_bn_offset"], "attr": {"dilations": {"list": {"i": ["1", "1", "1", "1"]}}, "fused_ops": {"list": {"s": ["Qmlhc0FkZA=="]}}, "padding": {"s": "U0FNRQ=="}, "data_format": {"s": "TkhXQw=="}, "T": {"type": "DT_FLOAT"}, "strides": {"list": {"i": ["1", "1", "1", "1"]}}, "num_args": {"i": "1"}, "explicit_paddings": {"list": {}}}}, {"name": "xception_65/entry_flow/block2/unit_1/xception_module/Relu_1", "op": "_FusedConv2D", "input": ["xception_65/entry_flow/block2/unit_1/xception_module/separable_conv1_depthwise/depthwise", "xception_65/entry_flow/block2/unit_1/xception_module/separable_conv1_pointwise/Conv2D_weights", "xception_65/entry_flow/block2/unit_1/xception_module/separable_conv1_pointwise/Conv2D_bn_offset"], "device": "/device:CPU:0", "attr": {"fused_ops": {"list": {"s": ["Qmlhc0FkZA==", "UmVsdQ=="]}}, "data_format": {"s": "TkhXQw=="}, "padding": {"s": "U0FNRQ=="}, "strides": {"list": {"i": ["1", "1", "1", "1"]}}, "num_args": {"i": "1"}, "explicit_paddings": {"list": {}}, "T": {"type": "DT_FLOAT"}, "epsilon": {"f": 0.0}, "use_cudnn_on_gpu": {"b": true}, "dilations": {"list": {"i": ["1", "1", "1", "1"]}}}}, {"name": "xception_65/entry_flow/block2/unit_1/xception_module/separable_conv2_depthwise/depthwise", "op": "FusedDepthwiseConv2dNative", "input": ["xception_65/entry_flow/block2/unit_1/xception_module/Relu_1", "xception_65/entry_flow/block2/unit_1/xception_module/separable_conv2_depthwise/depthwise_weights", "xception_65/entry_flow/block2/unit_1/xception_module/separable_conv2_depthwise/depthwise_bn_offset"], "attr": {"dilations": {"list": {"i": ["1", "1", "1", "1"]}}, "data_format": {"s": "TkhXQw=="}, "num_args": {"i": "1"}, "explicit_paddings": {"list": {}}, "T": {"type": "DT_FLOAT"}, "padding": {"s": "U0FNRQ=="}, "strides": {"list": {"i": ["1", "1", "1", "1"]}}, "fused_ops": {"list": {"s": ["Qmlhc0FkZA=="]}}}}, {"name": "xception_65/entry_flow/block2/unit_1/xception_module/separable_conv2_pointwise/BatchNorm/FusedBatchNormV3", "op": "_FusedConv2D", "input": ["xception_65/entry_flow/block2/unit_1/xception_module/separable_conv2_depthwise/depthwise", "xception_65/entry_flow/block2/unit_1/xception_module/separable_conv2_pointwise/Conv2D_weights", "xception_65/entry_flow/block2/unit_1/xception_module/separable_conv2_pointwise/Conv2D_bn_offset"], "device": "/device:CPU:0", "attr": {"fused_ops": {"list": {"s": ["Qmlhc0FkZA=="]}}, "data_format": {"s": "TkhXQw=="}, "padding": {"s": "U0FNRQ=="}, "strides": {"list": {"i": ["1", "1", "1", "1"]}}, "num_args": {"i": "1"}, "explicit_paddings": {"list": {}}, "T": {"type": "DT_FLOAT"}, "epsilon": {"f": 0.0}, "use_cudnn_on_gpu": {"b": true}, "dilations": {"list": {"i": ["1", "1", "1", "1"]}}}}, {"name": "xception_65/entry_flow/block2/unit_1/xception_module/Relu_2", "op": "Relu", "input": ["xception_65/entry_flow/block2/unit_1/xception_module/separable_conv2_pointwise/BatchNorm/FusedBatchNormV3"], "attr": {"T": {"type": "DT_FLOAT"}}}, {"name": "decoder/feature_projection0/Relu", "op": "_FusedConv2D", "input": ["xception_65/entry_flow/block2/unit_1/xception_module/separable_conv2_pointwise/BatchNorm/FusedBatchNormV3", "decoder/feature_projection0/Conv2D_weights", "decoder/feature_projection0/Conv2D_bn_offset"], "device": "/device:CPU:0", "attr": {"epsilon": {"f": 0.0}, "use_cudnn_on_gpu": {"b": true}, "dilations": {"list": {"i": ["1", "1", "1", "1"]}}, "fused_ops": {"list": {"s": ["Qmlhc0FkZA==", "UmVsdQ=="]}}, "padding": {"s": "U0FNRQ=="}, "data_format": {"s": "TkhXQw=="}, "T": {"type": "DT_FLOAT"}, "strides": {"list": {"i": ["1", "1", "1", "1"]}}, "num_args": {"i": "1"}, "explicit_paddings": {"list": {}}}}, {"name": "xception_65/entry_flow/block2/unit_1/xception_module/Pad", "op": "Pad", "input": ["xception_65/entry_flow/block2/unit_1/xception_module/Relu_2", "xception_65/entry_flow/block2/unit_1/xception_module/Pad/paddings"], "attr": {"T": {"type": "DT_FLOAT"}, "Tpaddings": {"type": "DT_INT32"}}}, {"name": "decoder/ResizeBilinear_1", "op": "ResizeBilinear", "input": ["decoder/feature_projection0/Relu", "decoder/ResizeBilinear_1/size"], "attr": {"align_corners": {"b": true}, "T": {"type": "DT_FLOAT"}, "half_pixel_centers": {"b": false}}}, {"name": "xception_65/entry_flow/block2/unit_1/xception_module/separable_conv3_depthwise/depthwise", "op": "FusedDepthwiseConv2dNative", "input": ["xception_65/entry_flow/block2/unit_1/xception_module/Pad", "xception_65/entry_flow/block2/unit_1/xception_module/separable_conv3_depthwise/depthwise_weights", "xception_65/entry_flow/block2/unit_1/xception_module/separable_conv3_depthwise/depthwise_bn_offset"], "attr": {"padding": {"s": "VkFMSUQ="}, "num_args": {"i": "1"}, "T": {"type": "DT_FLOAT"}, "explicit_paddings": {"list": {}}, "dilations": {"list": {"i": ["1", "1", "1", "1"]}}, "data_format": {"s": "TkhXQw=="}, "fused_ops": {"list": {"s": ["Qmlhc0FkZA=="]}}, "strides": {"list": {"i": ["1", "2", "2", "1"]}}}}, {"name": "xception_65/entry_flow/block2/unit_1/xception_module/separable_conv3_pointwise/BatchNorm/FusedBatchNormV3", "op": "_FusedConv2D", "input": ["xception_65/entry_flow/block2/unit_1/xception_module/separable_conv3_depthwise/depthwise", "xception_65/entry_flow/block2/unit_1/xception_module/separable_conv3_pointwise/Conv2D_weights", "xception_65/entry_flow/block2/unit_1/xception_module/separable_conv3_pointwise/Conv2D_bn_offset"], "device": "/device:CPU:0", "attr": {"padding": {"s": "U0FNRQ=="}, "num_args": {"i": "1"}, "T": {"type": "DT_FLOAT"}, "explicit_paddings": {"list": {}}, "epsilon": {"f": 0.0}, "use_cudnn_on_gpu": {"b": true}, "dilations": {"list": {"i": ["1", "1", "1", "1"]}}, "fused_ops": {"list": {"s": ["Qmlhc0FkZA=="]}}, "data_format": {"s": "TkhXQw=="}, "strides": {"list": {"i": ["1", "1", "1", "1"]}}}}, {"name": "xception_65/entry_flow/block2/unit_1/xception_module/add", "op": "AddV2", "input": ["xception_65/entry_flow/block2/unit_1/xception_module/separable_conv3_pointwise/BatchNorm/FusedBatchNormV3", "xception_65/entry_flow/block2/unit_1/xception_module/shortcut/BatchNorm/FusedBatchNormV3"], "attr": {"T": {"type": "DT_FLOAT"}}}, {"name": "xception_65/entry_flow/block3/unit_1/xception_module/Relu", "op": "Relu", "input": ["xception_65/entry_flow/block2/unit_1/xception_module/add"], "attr": {"T": {"type": "DT_FLOAT"}}}, {"name": "xception_65/entry_flow/block3/unit_1/xception_module/shortcut/BatchNorm/FusedBatchNormV3", "op": "_FusedConv2D", "input": ["xception_65/entry_flow/block2/unit_1/xception_module/add", "xception_65/entry_flow/block3/unit_1/xception_module/shortcut/Conv2D_weights", "xception_65/entry_flow/block3/unit_1/xception_module/shortcut/Conv2D_bn_offset"], "device": "/device:CPU:0", "attr": {"fused_ops": {"list": {"s": ["Qmlhc0FkZA=="]}}, "data_format": {"s": "TkhXQw=="}, "num_args": {"i": "1"}, "explicit_paddings": {"list": {}}, "padding": {"s": "U0FNRQ=="}, "T": {"type": "DT_FLOAT"}, "use_cudnn_on_gpu": {"b": true}, "epsilon": {"f": 0.0}, "dilations": {"list": {"i": ["1", "1", "1", "1"]}}, "strides": {"list": {"i": ["1", "2", "2", "1"]}}}}, {"name": "xception_65/entry_flow/block3/unit_1/xception_module/separable_conv1_depthwise/depthwise", "op": "FusedDepthwiseConv2dNative", "input": ["xception_65/entry_flow/block3/unit_1/xception_module/Relu", "xception_65/entry_flow/block3/unit_1/xception_module/separable_conv1_depthwise/depthwise_weights", "xception_65/entry_flow/block3/unit_1/xception_module/separable_conv1_depthwise/depthwise_bn_offset"], "attr": {"padding": {"s": "U0FNRQ=="}, "num_args": {"i": "1"}, "T": {"type": "DT_FLOAT"}, "explicit_paddings": {"list": {}}, "dilations": {"list": {"i": ["1", "1", "1", "1"]}}, "fused_ops": {"list": {"s": ["Qmlhc0FkZA=="]}}, "data_format": {"s": "TkhXQw=="}, "strides": {"list": {"i": ["1", "1", "1", "1"]}}}}, {"name": "xception_65/entry_flow/block3/unit_1/xception_module/Relu_1", "op": "_FusedConv2D", "input": ["xception_65/entry_flow/block3/unit_1/xception_module/separable_conv1_depthwise/depthwise", "xception_65/entry_flow/block3/unit_1/xception_module/separable_conv1_pointwise/Conv2D_weights", "xception_65/entry_flow/block3/unit_1/xception_module/separable_conv1_pointwise/Conv2D_bn_offset"], "device": "/device:CPU:0", "attr": {"T": {"type": "DT_FLOAT"}, "strides": {"list": {"i": ["1", "1", "1", "1"]}}, "num_args": {"i": "1"}, "explicit_paddings": {"list": {}}, "epsilon": {"f": 0.0}, "fused_ops": {"list": {"s": ["Qmlhc0FkZA==", "UmVsdQ=="]}}, "use_cudnn_on_gpu": {"b": true}, "dilations": {"list": {"i": ["1", "1", "1", "1"]}}, "padding": {"s": "U0FNRQ=="}, "data_format": {"s": "TkhXQw=="}}}, {"name": "xception_65/entry_flow/block3/unit_1/xception_module/separable_conv2_depthwise/depthwise", "op": "FusedDepthwiseConv2dNative", "input": ["xception_65/entry_flow/block3/unit_1/xception_module/Relu_1", "xception_65/entry_flow/block3/unit_1/xception_module/separable_conv2_depthwise/depthwise_weights", "xception_65/entry_flow/block3/unit_1/xception_module/separable_conv2_depthwise/depthwise_bn_offset"], "attr": {"T": {"type": "DT_FLOAT"}, "strides": {"list": {"i": ["1", "1", "1", "1"]}}, "num_args": {"i": "1"}, "explicit_paddings": {"list": {}}, "fused_ops": {"list": {"s": ["Qmlhc0FkZA=="]}}, "dilations": {"list": {"i": ["1", "1", "1", "1"]}}, "data_format": {"s": "TkhXQw=="}, "padding": {"s": "U0FNRQ=="}}}, {"name": "xception_65/entry_flow/block3/unit_1/xception_module/Relu_2", "op": "_FusedConv2D", "input": ["xception_65/entry_flow/block3/unit_1/xception_module/separable_conv2_depthwise/depthwise", "xception_65/entry_flow/block3/unit_1/xception_module/separable_conv2_pointwise/Conv2D_weights", "xception_65/entry_flow/block3/unit_1/xception_module/separable_conv2_pointwise/Conv2D_bn_offset"], "device": "/device:CPU:0", "attr": {"fused_ops": {"list": {"s": ["Qmlhc0FkZA==", "UmVsdQ=="]}}, "data_format": {"s": "TkhXQw=="}, "padding": {"s": "U0FNRQ=="}, "strides": {"list": {"i": ["1", "1", "1", "1"]}}, "num_args": {"i": "1"}, "explicit_paddings": {"list": {}}, "T": {"type": "DT_FLOAT"}, "epsilon": {"f": 0.0}, "use_cudnn_on_gpu": {"b": true}, "dilations": {"list": {"i": ["1", "1", "1", "1"]}}}}, {"name": "xception_65/entry_flow/block3/unit_1/xception_module/Pad", "op": "Pad", "input": ["xception_65/entry_flow/block3/unit_1/xception_module/Relu_2", "xception_65/entry_flow/block3/unit_1/xception_module/Pad/paddings"], "attr": {"T": {"type": "DT_FLOAT"}, "Tpaddings": {"type": "DT_INT32"}}}, {"name": "xception_65/entry_flow/block3/unit_1/xception_module/separable_conv3_depthwise/depthwise", "op": "FusedDepthwiseConv2dNative", "input": ["xception_65/entry_flow/block3/unit_1/xception_module/Pad", "xception_65/entry_flow/block3/unit_1/xception_module/separable_conv3_depthwise/depthwise_weights", "xception_65/entry_flow/block3/unit_1/xception_module/separable_conv3_depthwise/depthwise_bn_offset"], "attr": {"padding": {"s": "VkFMSUQ="}, "num_args": {"i": "1"}, "T": {"type": "DT_FLOAT"}, "explicit_paddings": {"list": {}}, "dilations": {"list": {"i": ["1", "1", "1", "1"]}}, "fused_ops": {"list": {"s": ["Qmlhc0FkZA=="]}}, "data_format": {"s": "TkhXQw=="}, "strides": {"list": {"i": ["1", "2", "2", "1"]}}}}, {"name": "xception_65/entry_flow/block3/unit_1/xception_module/separable_conv3_pointwise/BatchNorm/FusedBatchNormV3", "op": "_FusedConv2D", "input": ["xception_65/entry_flow/block3/unit_1/xception_module/separable_conv3_depthwise/depthwise", "xception_65/entry_flow/block3/unit_1/xception_module/separable_conv3_pointwise/Conv2D_weights", "xception_65/entry_flow/block3/unit_1/xception_module/separable_conv3_pointwise/Conv2D_bn_offset"], "device": "/device:CPU:0", "attr": {"padding": {"s": "U0FNRQ=="}, "num_args": {"i": "1"}, "T": {"type": "DT_FLOAT"}, "explicit_paddings": {"list": {}}, "epsilon": {"f": 0.0}, "use_cudnn_on_gpu": {"b": true}, "dilations": {"list": {"i": ["1", "1", "1", "1"]}}, "fused_ops": {"list": {"s": ["Qmlhc0FkZA=="]}}, "data_format": {"s": "TkhXQw=="}, "strides": {"list": {"i": ["1", "1", "1", "1"]}}}}, {"name": "xception_65/entry_flow/block3/unit_1/xception_module/add", "op": "AddV2", "input": ["xception_65/entry_flow/block3/unit_1/xception_module/separable_conv3_pointwise/BatchNorm/FusedBatchNormV3", "xception_65/entry_flow/block3/unit_1/xception_module/shortcut/BatchNorm/FusedBatchNormV3"], "attr": {"T": {"type": "DT_FLOAT"}}}, {"name": "xception_65/middle_flow/block1/unit_1/xception_module/Relu", "op": "Relu", "input": ["xception_65/entry_flow/block3/unit_1/xception_module/add"], "attr": {"T": {"type": "DT_FLOAT"}}}, {"name": "xception_65/middle_flow/block1/unit_1/xception_module/separable_conv1_depthwise/depthwise", "op": "FusedDepthwiseConv2dNative", "input": ["xception_65/middle_flow/block1/unit_1/xception_module/Relu", "xception_65/middle_flow/block1/unit_1/xception_module/separable_conv1_depthwise/depthwise_weights", "xception_65/middle_flow/block1/unit_1/xception_module/separable_conv1_depthwise/depthwise_bn_offset"], "attr": {"fused_ops": {"list": {"s": ["Qmlhc0FkZA=="]}}, "data_format": {"s": "TkhXQw=="}, "padding": {"s": "U0FNRQ=="}, "strides": {"list": {"i": ["1", "1", "1", "1"]}}, "num_args": {"i": "1"}, "explicit_paddings": {"list": {}}, "T": {"type": "DT_FLOAT"}, "dilations": {"list": {"i": ["1", "1", "1", "1"]}}}}, {"name": "xception_65/middle_flow/block1/unit_1/xception_module/Relu_1", "op": "_FusedConv2D", "input": ["xception_65/middle_flow/block1/unit_1/xception_module/separable_conv1_depthwise/depthwise", "xception_65/middle_flow/block1/unit_1/xception_module/separable_conv1_pointwise/Conv2D_weights", "xception_65/middle_flow/block1/unit_1/xception_module/separable_conv1_pointwise/Conv2D_bn_offset"], "device": "/device:CPU:0", "attr": {"fused_ops": {"list": {"s": ["Qmlhc0FkZA==", "UmVsdQ=="]}}, "data_format": {"s": "TkhXQw=="}, "padding": {"s": "U0FNRQ=="}, "strides": {"list": {"i": ["1", "1", "1", "1"]}}, "num_args": {"i": "1"}, "explicit_paddings": {"list": {}}, "T": {"type": "DT_FLOAT"}, "epsilon": {"f": 0.0}, "use_cudnn_on_gpu": {"b": true}, "dilations": {"list": {"i": ["1", "1", "1", "1"]}}}}, {"name": "xception_65/middle_flow/block1/unit_1/xception_module/separable_conv2_depthwise/depthwise", "op": "FusedDepthwiseConv2dNative", "input": ["xception_65/middle_flow/block1/unit_1/xception_module/Relu_1", "xception_65/middle_flow/block1/unit_1/xception_module/separable_conv2_depthwise/depthwise_weights", "xception_65/middle_flow/block1/unit_1/xception_module/separable_conv2_depthwise/depthwise_bn_offset"], "attr": {"data_format": {"s": "TkhXQw=="}, "fused_ops": {"list": {"s": ["Qmlhc0FkZA=="]}}, "padding": {"s": "U0FNRQ=="}, "strides": {"list": {"i": ["1", "1", "1", "1"]}}, "num_args": {"i": "1"}, "explicit_paddings": {"list": {}}, "T": {"type": "DT_FLOAT"}, "dilations": {"list": {"i": ["1", "1", "1", "1"]}}}}, {"name": "xception_65/middle_flow/block1/unit_1/xception_module/Relu_2", "op": "_FusedConv2D", "input": ["xception_65/middle_flow/block1/unit_1/xception_module/separable_conv2_depthwise/depthwise", "xception_65/middle_flow/block1/unit_1/xception_module/separable_conv2_pointwise/Conv2D_weights", "xception_65/middle_flow/block1/unit_1/xception_module/separable_conv2_pointwise/Conv2D_bn_offset"], "device": "/device:CPU:0", "attr": {"T": {"type": "DT_FLOAT"}, "strides": {"list": {"i": ["1", "1", "1", "1"]}}, "num_args": {"i": "1"}, "explicit_paddings": {"list": {}}, "epsilon": {"f": 0.0}, "fused_ops": {"list": {"s": ["Qmlhc0FkZA==", "UmVsdQ=="]}}, "use_cudnn_on_gpu": {"b": true}, "dilations": {"list": {"i": ["1", "1", "1", "1"]}}, "padding": {"s": "U0FNRQ=="}, "data_format": {"s": "TkhXQw=="}}}, {"name": "xception_65/middle_flow/block1/unit_1/xception_module/separable_conv3_depthwise/depthwise", "op": "FusedDepthwiseConv2dNative", "input": ["xception_65/middle_flow/block1/unit_1/xception_module/Relu_2", "xception_65/middle_flow/block1/unit_1/xception_module/separable_conv3_depthwise/depthwise_weights", "xception_65/middle_flow/block1/unit_1/xception_module/separable_conv3_depthwise/depthwise_bn_offset"], "attr": {"fused_ops": {"list": {"s": ["Qmlhc0FkZA=="]}}, "data_format": {"s": "TkhXQw=="}, "padding": {"s": "U0FNRQ=="}, "strides": {"list": {"i": ["1", "1", "1", "1"]}}, "num_args": {"i": "1"}, "explicit_paddings": {"list": {}}, "T": {"type": "DT_FLOAT"}, "dilations": {"list": {"i": ["1", "1", "1", "1"]}}}}, {"name": "xception_65/middle_flow/block1/unit_1/xception_module/separable_conv3_pointwise/BatchNorm/FusedBatchNormV3", "op": "_FusedConv2D", "input": ["xception_65/middle_flow/block1/unit_1/xception_module/separable_conv3_depthwise/depthwise", "xception_65/middle_flow/block1/unit_1/xception_module/separable_conv3_pointwise/Conv2D_weights", "xception_65/middle_flow/block1/unit_1/xception_module/separable_conv3_pointwise/Conv2D_bn_offset"], "device": "/device:CPU:0", "attr": {"T": {"type": "DT_FLOAT"}, "strides": {"list": {"i": ["1", "1", "1", "1"]}}, "num_args": {"i": "1"}, "explicit_paddings": {"list": {}}, "epsilon": {"f": 0.0}, "fused_ops": {"list": {"s": ["Qmlhc0FkZA=="]}}, "use_cudnn_on_gpu": {"b": true}, "dilations": {"list": {"i": ["1", "1", "1", "1"]}}, "padding": {"s": "U0FNRQ=="}, "data_format": {"s": "TkhXQw=="}}}, {"name": "xception_65/middle_flow/block1/unit_1/xception_module/add", "op": "AddV2", "input": ["xception_65/middle_flow/block1/unit_1/xception_module/separable_conv3_pointwise/BatchNorm/FusedBatchNormV3", "xception_65/entry_flow/block3/unit_1/xception_module/add"], "attr": {"T": {"type": "DT_FLOAT"}}}, {"name": "xception_65/middle_flow/block1/unit_2/xception_module/Relu", "op": "Relu", "input": ["xception_65/middle_flow/block1/unit_1/xception_module/add"], "attr": {"T": {"type": "DT_FLOAT"}}}, {"name": "xception_65/middle_flow/block1/unit_2/xception_module/separable_conv1_depthwise/depthwise", "op": "FusedDepthwiseConv2dNative", "input": ["xception_65/middle_flow/block1/unit_2/xception_module/Relu", "xception_65/middle_flow/block1/unit_2/xception_module/separable_conv1_depthwise/depthwise_weights", "xception_65/middle_flow/block1/unit_2/xception_module/separable_conv1_depthwise/depthwise_bn_offset"], "attr": {"dilations": {"list": {"i": ["1", "1", "1", "1"]}}, "fused_ops": {"list": {"s": ["Qmlhc0FkZA=="]}}, "padding": {"s": "U0FNRQ=="}, "data_format": {"s": "TkhXQw=="}, "T": {"type": "DT_FLOAT"}, "strides": {"list": {"i": ["1", "1", "1", "1"]}}, "num_args": {"i": "1"}, "explicit_paddings": {"list": {}}}}, {"name": "xception_65/middle_flow/block1/unit_2/xception_module/Relu_1", "op": "_FusedConv2D", "input": ["xception_65/middle_flow/block1/unit_2/xception_module/separable_conv1_depthwise/depthwise", "xception_65/middle_flow/block1/unit_2/xception_module/separable_conv1_pointwise/Conv2D_weights", "xception_65/middle_flow/block1/unit_2/xception_module/separable_conv1_pointwise/Conv2D_bn_offset"], "device": "/device:CPU:0", "attr": {"T": {"type": "DT_FLOAT"}, "strides": {"list": {"i": ["1", "1", "1", "1"]}}, "num_args": {"i": "1"}, "explicit_paddings": {"list": {}}, "epsilon": {"f": 0.0}, "fused_ops": {"list": {"s": ["Qmlhc0FkZA==", "UmVsdQ=="]}}, "use_cudnn_on_gpu": {"b": true}, "dilations": {"list": {"i": ["1", "1", "1", "1"]}}, "padding": {"s": "U0FNRQ=="}, "data_format": {"s": "TkhXQw=="}}}, {"name": "xception_65/middle_flow/block1/unit_2/xception_module/separable_conv2_depthwise/depthwise", "op": "FusedDepthwiseConv2dNative", "input": ["xception_65/middle_flow/block1/unit_2/xception_module/Relu_1", "xception_65/middle_flow/block1/unit_2/xception_module/separable_conv2_depthwise/depthwise_weights", "xception_65/middle_flow/block1/unit_2/xception_module/separable_conv2_depthwise/depthwise_bn_offset"], "attr": {"dilations": {"list": {"i": ["1", "1", "1", "1"]}}, "fused_ops": {"list": {"s": ["Qmlhc0FkZA=="]}}, "padding": {"s": "U0FNRQ=="}, "data_format": {"s": "TkhXQw=="}, "T": {"type": "DT_FLOAT"}, "strides": {"list": {"i": ["1", "1", "1", "1"]}}, "explicit_paddings": {"list": {}}, "num_args": {"i": "1"}}}, {"name": "xception_65/middle_flow/block1/unit_2/xception_module/Relu_2", "op": "_FusedConv2D", "input": ["xception_65/middle_flow/block1/unit_2/xception_module/separable_conv2_depthwise/depthwise", "xception_65/middle_flow/block1/unit_2/xception_module/separable_conv2_pointwise/Conv2D_weights", "xception_65/middle_flow/block1/unit_2/xception_module/separable_conv2_pointwise/Conv2D_bn_offset"], "device": "/device:CPU:0", "attr": {"fused_ops": {"list": {"s": ["Qmlhc0FkZA==", "UmVsdQ=="]}}, "data_format": {"s": "TkhXQw=="}, "padding": {"s": "U0FNRQ=="}, "strides": {"list": {"i": ["1", "1", "1", "1"]}}, "num_args": {"i": "1"}, "explicit_paddings": {"list": {}}, "T": {"type": "DT_FLOAT"}, "epsilon": {"f": 0.0}, "use_cudnn_on_gpu": {"b": true}, "dilations": {"list": {"i": ["1", "1", "1", "1"]}}}}, {"name": "xception_65/middle_flow/block1/unit_2/xception_module/separable_conv3_depthwise/depthwise", "op": "FusedDepthwiseConv2dNative", "input": ["xception_65/middle_flow/block1/unit_2/xception_module/Relu_2", "xception_65/middle_flow/block1/unit_2/xception_module/separable_conv3_depthwise/depthwise_weights", "xception_65/middle_flow/block1/unit_2/xception_module/separable_conv3_depthwise/depthwise_bn_offset"], "attr": {"data_format": {"s": "TkhXQw=="}, "fused_ops": {"list": {"s": ["Qmlhc0FkZA=="]}}, "padding": {"s": "U0FNRQ=="}, "strides": {"list": {"i": ["1", "1", "1", "1"]}}, "num_args": {"i": "1"}, "explicit_paddings": {"list": {}}, "T": {"type": "DT_FLOAT"}, "dilations": {"list": {"i": ["1", "1", "1", "1"]}}}}, {"name": "xception_65/middle_flow/block1/unit_2/xception_module/separable_conv3_pointwise/BatchNorm/FusedBatchNormV3", "op": "_FusedConv2D", "input": ["xception_65/middle_flow/block1/unit_2/xception_module/separable_conv3_depthwise/depthwise", "xception_65/middle_flow/block1/unit_2/xception_module/separable_conv3_pointwise/Conv2D_weights", "xception_65/middle_flow/block1/unit_2/xception_module/separable_conv3_pointwise/Conv2D_bn_offset"], "device": "/device:CPU:0", "attr": {"padding": {"s": "U0FNRQ=="}, "num_args": {"i": "1"}, "T": {"type": "DT_FLOAT"}, "explicit_paddings": {"list": {}}, "epsilon": {"f": 0.0}, "use_cudnn_on_gpu": {"b": true}, "dilations": {"list": {"i": ["1", "1", "1", "1"]}}, "fused_ops": {"list": {"s": ["Qmlhc0FkZA=="]}}, "data_format": {"s": "TkhXQw=="}, "strides": {"list": {"i": ["1", "1", "1", "1"]}}}}, {"name": "xception_65/middle_flow/block1/unit_2/xception_module/add", "op": "AddV2", "input": ["xception_65/middle_flow/block1/unit_2/xception_module/separable_conv3_pointwise/BatchNorm/FusedBatchNormV3", "xception_65/middle_flow/block1/unit_1/xception_module/add"], "attr": {"T": {"type": "DT_FLOAT"}}}, {"name": "xception_65/middle_flow/block1/unit_3/xception_module/Relu", "op": "Relu", "input": ["xception_65/middle_flow/block1/unit_2/xception_module/add"], "attr": {"T": {"type": "DT_FLOAT"}}}, {"name": "xception_65/middle_flow/block1/unit_3/xception_module/separable_conv1_depthwise/depthwise", "op": "FusedDepthwiseConv2dNative", "input": ["xception_65/middle_flow/block1/unit_3/xception_module/Relu", "xception_65/middle_flow/block1/unit_3/xception_module/separable_conv1_depthwise/depthwise_weights", "xception_65/middle_flow/block1/unit_3/xception_module/separable_conv1_depthwise/depthwise_bn_offset"], "attr": {"dilations": {"list": {"i": ["1", "1", "1", "1"]}}, "fused_ops": {"list": {"s": ["Qmlhc0FkZA=="]}}, "padding": {"s": "U0FNRQ=="}, "data_format": {"s": "TkhXQw=="}, "T": {"type": "DT_FLOAT"}, "strides": {"list": {"i": ["1", "1", "1", "1"]}}, "num_args": {"i": "1"}, "explicit_paddings": {"list": {}}}}, {"name": "xception_65/middle_flow/block1/unit_3/xception_module/Relu_1", "op": "_FusedConv2D", "input": ["xception_65/middle_flow/block1/unit_3/xception_module/separable_conv1_depthwise/depthwise", "xception_65/middle_flow/block1/unit_3/xception_module/separable_conv1_pointwise/Conv2D_weights", "xception_65/middle_flow/block1/unit_3/xception_module/separable_conv1_pointwise/Conv2D_bn_offset"], "device": "/device:CPU:0", "attr": {"epsilon": {"f": 0.0}, "use_cudnn_on_gpu": {"b": true}, "dilations": {"list": {"i": ["1", "1", "1", "1"]}}, "fused_ops": {"list": {"s": ["Qmlhc0FkZA==", "UmVsdQ=="]}}, "padding": {"s": "U0FNRQ=="}, "data_format": {"s": "TkhXQw=="}, "T": {"type": "DT_FLOAT"}, "strides": {"list": {"i": ["1", "1", "1", "1"]}}, "num_args": {"i": "1"}, "explicit_paddings": {"list": {}}}}, {"name": "xception_65/middle_flow/block1/unit_3/xception_module/separable_conv2_depthwise/depthwise", "op": "FusedDepthwiseConv2dNative", "input": ["xception_65/middle_flow/block1/unit_3/xception_module/Relu_1", "xception_65/middle_flow/block1/unit_3/xception_module/separable_conv2_depthwise/depthwise_weights", "xception_65/middle_flow/block1/unit_3/xception_module/separable_conv2_depthwise/depthwise_bn_offset"], "attr": {"T": {"type": "DT_FLOAT"}, "strides": {"list": {"i": ["1", "1", "1", "1"]}}, "num_args": {"i": "1"}, "explicit_paddings": {"list": {}}, "fused_ops": {"list": {"s": ["Qmlhc0FkZA=="]}}, "dilations": {"list": {"i": ["1", "1", "1", "1"]}}, "padding": {"s": "U0FNRQ=="}, "data_format": {"s": "TkhXQw=="}}}, {"name": "xception_65/middle_flow/block1/unit_3/xception_module/Relu_2", "op": "_FusedConv2D", "input": ["xception_65/middle_flow/block1/unit_3/xception_module/separable_conv2_depthwise/depthwise", "xception_65/middle_flow/block1/unit_3/xception_module/separable_conv2_pointwise/Conv2D_weights", "xception_65/middle_flow/block1/unit_3/xception_module/separable_conv2_pointwise/Conv2D_bn_offset"], "device": "/device:CPU:0", "attr": {"epsilon": {"f": 0.0}, "use_cudnn_on_gpu": {"b": true}, "dilations": {"list": {"i": ["1", "1", "1", "1"]}}, "fused_ops": {"list": {"s": ["Qmlhc0FkZA==", "UmVsdQ=="]}}, "padding": {"s": "U0FNRQ=="}, "data_format": {"s": "TkhXQw=="}, "T": {"type": "DT_FLOAT"}, "strides": {"list": {"i": ["1", "1", "1", "1"]}}, "num_args": {"i": "1"}, "explicit_paddings": {"list": {}}}}, {"name": "xception_65/middle_flow/block1/unit_3/xception_module/separable_conv3_depthwise/depthwise", "op": "FusedDepthwiseConv2dNative", "input": ["xception_65/middle_flow/block1/unit_3/xception_module/Relu_2", "xception_65/middle_flow/block1/unit_3/xception_module/separable_conv3_depthwise/depthwise_weights", "xception_65/middle_flow/block1/unit_3/xception_module/separable_conv3_depthwise/depthwise_bn_offset"], "attr": {"dilations": {"list": {"i": ["1", "1", "1", "1"]}}, "fused_ops": {"list": {"s": ["Qmlhc0FkZA=="]}}, "padding": {"s": "U0FNRQ=="}, "data_format": {"s": "TkhXQw=="}, "T": {"type": "DT_FLOAT"}, "strides": {"list": {"i": ["1", "1", "1", "1"]}}, "num_args": {"i": "1"}, "explicit_paddings": {"list": {}}}}, {"name": "xception_65/middle_flow/block1/unit_3/xception_module/separable_conv3_pointwise/BatchNorm/FusedBatchNormV3", "op": "_FusedConv2D", "input": ["xception_65/middle_flow/block1/unit_3/xception_module/separable_conv3_depthwise/depthwise", "xception_65/middle_flow/block1/unit_3/xception_module/separable_conv3_pointwise/Conv2D_weights", "xception_65/middle_flow/block1/unit_3/xception_module/separable_conv3_pointwise/Conv2D_bn_offset"], "device": "/device:CPU:0", "attr": {"T": {"type": "DT_FLOAT"}, "strides": {"list": {"i": ["1", "1", "1", "1"]}}, "num_args": {"i": "1"}, "explicit_paddings": {"list": {}}, "epsilon": {"f": 0.0}, "fused_ops": {"list": {"s": ["Qmlhc0FkZA=="]}}, "use_cudnn_on_gpu": {"b": true}, "dilations": {"list": {"i": ["1", "1", "1", "1"]}}, "padding": {"s": "U0FNRQ=="}, "data_format": {"s": "TkhXQw=="}}}, {"name": "xception_65/middle_flow/block1/unit_3/xception_module/add", "op": "AddV2", "input": ["xception_65/middle_flow/block1/unit_3/xception_module/separable_conv3_pointwise/BatchNorm/FusedBatchNormV3", "xception_65/middle_flow/block1/unit_2/xception_module/add"], "attr": {"T": {"type": "DT_FLOAT"}}}, {"name": "xception_65/middle_flow/block1/unit_4/xception_module/Relu", "op": "Relu", "input": ["xception_65/middle_flow/block1/unit_3/xception_module/add"], "attr": {"T": {"type": "DT_FLOAT"}}}, {"name": "xception_65/middle_flow/block1/unit_4/xception_module/separable_conv1_depthwise/depthwise", "op": "FusedDepthwiseConv2dNative", "input": ["xception_65/middle_flow/block1/unit_4/xception_module/Relu", "xception_65/middle_flow/block1/unit_4/xception_module/separable_conv1_depthwise/depthwise_weights", "xception_65/middle_flow/block1/unit_4/xception_module/separable_conv1_depthwise/depthwise_bn_offset"], "attr": {"dilations": {"list": {"i": ["1", "1", "1", "1"]}}, "fused_ops": {"list": {"s": ["Qmlhc0FkZA=="]}}, "padding": {"s": "U0FNRQ=="}, "data_format": {"s": "TkhXQw=="}, "T": {"type": "DT_FLOAT"}, "strides": {"list": {"i": ["1", "1", "1", "1"]}}, "num_args": {"i": "1"}, "explicit_paddings": {"list": {}}}}, {"name": "xception_65/middle_flow/block1/unit_4/xception_module/Relu_1", "op": "_FusedConv2D", "input": ["xception_65/middle_flow/block1/unit_4/xception_module/separable_conv1_depthwise/depthwise", "xception_65/middle_flow/block1/unit_4/xception_module/separable_conv1_pointwise/Conv2D_weights", "xception_65/middle_flow/block1/unit_4/xception_module/separable_conv1_pointwise/Conv2D_bn_offset"], "device": "/device:CPU:0", "attr": {"T": {"type": "DT_FLOAT"}, "strides": {"list": {"i": ["1", "1", "1", "1"]}}, "num_args": {"i": "1"}, "explicit_paddings": {"list": {}}, "epsilon": {"f": 0.0}, "fused_ops": {"list": {"s": ["Qmlhc0FkZA==", "UmVsdQ=="]}}, "use_cudnn_on_gpu": {"b": true}, "dilations": {"list": {"i": ["1", "1", "1", "1"]}}, "padding": {"s": "U0FNRQ=="}, "data_format": {"s": "TkhXQw=="}}}, {"name": "xception_65/middle_flow/block1/unit_4/xception_module/separable_conv2_depthwise/depthwise", "op": "FusedDepthwiseConv2dNative", "input": ["xception_65/middle_flow/block1/unit_4/xception_module/Relu_1", "xception_65/middle_flow/block1/unit_4/xception_module/separable_conv2_depthwise/depthwise_weights", "xception_65/middle_flow/block1/unit_4/xception_module/separable_conv2_depthwise/depthwise_bn_offset"], "attr": {"T": {"type": "DT_FLOAT"}, "strides": {"list": {"i": ["1", "1", "1", "1"]}}, "num_args": {"i": "1"}, "explicit_paddings": {"list": {}}, "fused_ops": {"list": {"s": ["Qmlhc0FkZA=="]}}, "dilations": {"list": {"i": ["1", "1", "1", "1"]}}, "padding": {"s": "U0FNRQ=="}, "data_format": {"s": "TkhXQw=="}}}, {"name": "xception_65/middle_flow/block1/unit_4/xception_module/Relu_2", "op": "_FusedConv2D", "input": ["xception_65/middle_flow/block1/unit_4/xception_module/separable_conv2_depthwise/depthwise", "xception_65/middle_flow/block1/unit_4/xception_module/separable_conv2_pointwise/Conv2D_weights", "xception_65/middle_flow/block1/unit_4/xception_module/separable_conv2_pointwise/Conv2D_bn_offset"], "device": "/device:CPU:0", "attr": {"T": {"type": "DT_FLOAT"}, "strides": {"list": {"i": ["1", "1", "1", "1"]}}, "num_args": {"i": "1"}, "explicit_paddings": {"list": {}}, "epsilon": {"f": 0.0}, "fused_ops": {"list": {"s": ["Qmlhc0FkZA==", "UmVsdQ=="]}}, "use_cudnn_on_gpu": {"b": true}, "dilations": {"list": {"i": ["1", "1", "1", "1"]}}, "padding": {"s": "U0FNRQ=="}, "data_format": {"s": "TkhXQw=="}}}, {"name": "xception_65/middle_flow/block1/unit_4/xception_module/separable_conv3_depthwise/depthwise", "op": "FusedDepthwiseConv2dNative", "input": ["xception_65/middle_flow/block1/unit_4/xception_module/Relu_2", "xception_65/middle_flow/block1/unit_4/xception_module/separable_conv3_depthwise/depthwise_weights", "xception_65/middle_flow/block1/unit_4/xception_module/separable_conv3_depthwise/depthwise_bn_offset"], "attr": {"dilations": {"list": {"i": ["1", "1", "1", "1"]}}, "padding": {"s": "U0FNRQ=="}, "strides": {"list": {"i": ["1", "1", "1", "1"]}}, "T": {"type": "DT_FLOAT"}, "data_format": {"s": "TkhXQw=="}, "fused_ops": {"list": {"s": ["Qmlhc0FkZA=="]}}, "explicit_paddings": {"list": {}}, "num_args": {"i": "1"}}}, {"name": "xception_65/middle_flow/block1/unit_4/xception_module/separable_conv3_pointwise/BatchNorm/FusedBatchNormV3", "op": "_FusedConv2D", "input": ["xception_65/middle_flow/block1/unit_4/xception_module/separable_conv3_depthwise/depthwise", "xception_65/middle_flow/block1/unit_4/xception_module/separable_conv3_pointwise/Conv2D_weights", "xception_65/middle_flow/block1/unit_4/xception_module/separable_conv3_pointwise/Conv2D_bn_offset"], "device": "/device:CPU:0", "attr": {"T": {"type": "DT_FLOAT"}, "strides": {"list": {"i": ["1", "1", "1", "1"]}}, "data_format": {"s": "TkhXQw=="}, "num_args": {"i": "1"}, "explicit_paddings": {"list": {}}, "use_cudnn_on_gpu": {"b": true}, "epsilon": {"f": 0.0}, "dilations": {"list": {"i": ["1", "1", "1", "1"]}}, "fused_ops": {"list": {"s": ["Qmlhc0FkZA=="]}}, "padding": {"s": "U0FNRQ=="}}}, {"name": "xception_65/middle_flow/block1/unit_4/xception_module/add", "op": "AddV2", "input": ["xception_65/middle_flow/block1/unit_4/xception_module/separable_conv3_pointwise/BatchNorm/FusedBatchNormV3", "xception_65/middle_flow/block1/unit_3/xception_module/add"], "attr": {"T": {"type": "DT_FLOAT"}}}, {"name": "xception_65/middle_flow/block1/unit_5/xception_module/Relu", "op": "Relu", "input": ["xception_65/middle_flow/block1/unit_4/xception_module/add"], "attr": {"T": {"type": "DT_FLOAT"}}}, {"name": "xception_65/middle_flow/block1/unit_5/xception_module/separable_conv1_depthwise/depthwise", "op": "FusedDepthwiseConv2dNative", "input": ["xception_65/middle_flow/block1/unit_5/xception_module/Relu", "xception_65/middle_flow/block1/unit_5/xception_module/separable_conv1_depthwise/depthwise_weights", "xception_65/middle_flow/block1/unit_5/xception_module/separable_conv1_depthwise/depthwise_bn_offset"], "attr": {"fused_ops": {"list": {"s": ["Qmlhc0FkZA=="]}}, "dilations": {"list": {"i": ["1", "1", "1", "1"]}}, "T": {"type": "DT_FLOAT"}, "strides": {"list": {"i": ["1", "1", "1", "1"]}}, "padding": {"s": "U0FNRQ=="}, "data_format": {"s": "TkhXQw=="}, "num_args": {"i": "1"}, "explicit_paddings": {"list": {}}}}, {"name": "xception_65/middle_flow/block1/unit_5/xception_module/Relu_1", "op": "_FusedConv2D", "input": ["xception_65/middle_flow/block1/unit_5/xceptio…
6], "dtype": "float32", "quantization": {"dtype": "uint8", "min": -0.7467455653583303, "scale": 0.006550399696125704, "original_dtype": "float32"}}, {"name": "xception_65/middle_flow/block1/unit_4/xception_module/separable_conv3_pointwise/Conv2D_bn_offset", "shape": [728], "dtype": "float32", "quantization": {"dtype": "uint8", "min": -1.2943091088650274, "scale": 0.008865130882637174, "original_dtype": "float32"}}, {"name": "xception_65/middle_flow/block1/unit_5/xception_module/separable_conv1_depthwise/depthwise_weights", "shape": [3, 3, 728, 1], "dtype": "float32", "quantization": {"dtype": "uint8", "min": -36.47970286350624, "scale": 0.27428348017673865, "original_dtype": "float32"}}, {"name": "xception_65/middle_flow/block1/unit_5/xception_module/separable_conv1_depthwise/depthwise_bn_offset", "shape": [728], "dtype": "float32", "quantization": {"dtype": "uint8", "min": -1.8596885456758385, "scale": 0.017881620631498448, "original_dtype": "float32"}}, {"name": "xception_65/middle_flow/block1/unit_5/xception_module/separable_conv1_pointwise/Conv2D_weights", "shape": [1, 1, 728, 728], "dtype": "float32", "quantization": {"dtype": "uint8", "min": -0.34269334370014715, "scale": 0.0026159797229018864, "original_dtype": "float32"}}, {"name": "xception_65/middle_flow/block1/unit_5/xception_module/separable_conv1_pointwise/Conv2D_bn_offset", "shape": [728], "dtype": "float32", "quantization": {"dtype": "uint8", "min": -1.0791362692328061, "scale": 0.005801807899101108, "original_dtype": "float32"}}, {"name": "xception_65/middle_flow/block1/unit_5/xception_module/separable_conv2_depthwise/depthwise_weights", "shape": [3, 3, 728, 1], "dtype": "float32", "quantization": {"dtype": "uint8", "min": -14.28289993136537, "scale": 0.10986846101050284, "original_dtype": "float32"}}, {"name": "xception_65/middle_flow/block1/unit_5/xception_module/separable_conv2_depthwise/depthwise_bn_offset", "shape": [728], "dtype": "float32", "quantization": {"dtype": "uint8", "min": -1.7753474445904003, "scale": 0.01334847702699549, "original_dtype": "float32"}}, {"name": "xception_65/middle_flow/block1/unit_5/xception_module/separable_conv2_pointwise/Conv2D_weights", "shape": [1, 1, 728, 728], "dtype": "float32", "quantization": {"dtype": "uint8", "min": -0.19651626348495485, "scale": 0.001559652884801229, "original_dtype": "float32"}}, {"name": "aspp3_pointwise/Conv2D_weights", "shape": [1, 1, 2048, 256], "dtype": "float32", "quantization": {"dtype": "uint8", "min": -0.0892824774279314, "scale": 0.0007085910906978682, "original_dtype": "float32"}}, {"name": "xception_65/middle_flow/block1/unit_5/xception_module/separable_conv2_pointwise/Conv2D_bn_offset", "shape": [728], "dtype": "float32", "quantization": {"dtype": "uint8", "min": -1.085505406996783, "scale": 0.006461341708314185, "original_dtype": "float32"}}, {"name": "xception_65/middle_flow/block1/unit_5/xception_module/separable_conv3_depthwise/depthwise_weights", "shape": [3, 3, 728, 1], "dtype": "float32", "quantization": {"dtype": "uint8", "min": -20.150737388461245, "scale": 0.1439338384890089, "original_dtype": "float32"}}, {"name": "xception_65/middle_flow/block1/unit_5/xception_module/separable_conv3_depthwise/depthwise_bn_offset", "shape": [728], "dtype": "float32", "quantization": {"dtype": "uint8", "min": -1.4935664859472537, "scale": 0.01140127088509354, "original_dtype": "float32"}}, {"name": "xception_65/middle_flow/block1/unit_5/xception_module/separable_conv3_pointwise/Conv2D_weights", "shape": [1, 1, 728, 728], "dtype": "float32", "quantization": {"dtype": "uint8", "min": -0.5099462576940949, "scale": 0.00401532486373303, "original_dtype": "float32"}}, {"name": "aspp3_pointwise/Conv2D_bn_offset", "shape": [256], "dtype": "float32", "quantization": {"dtype": "uint8", "min": -1.0002281679826623, "scale": 0.008198591540841495, "original_dtype": "float32"}}, {"name": "xception_65/middle_flow/block1/unit_5/xception_module/separable_conv3_pointwise/Conv2D_bn_offset", "shape": [728], "dtype": "float32", "quantization": {"dtype": "uint8", "min": -1.1919466018676756, "scale": 0.008764313249027027, "original_dtype": "float32"}}, {"name": "xception_65/middle_flow/block1/unit_6/xception_module/separable_conv1_depthwise/depthwise_weights", "shape": [3, 3, 728, 1], "dtype": "float32", "quantization": {"dtype": "uint8", "min": -13.680079000136432, "scale": 0.1731655569637523, "original_dtype": "float32"}}, {"name": "xception_65/middle_flow/block1/unit_6/xception_module/separable_conv1_depthwise/depthwise_bn_offset", "shape": [728], "dtype": "float32", "quantization": {"dtype": "uint8", "min": -3.161640189675724, "scale": 0.029548039155847885, "original_dtype": "float32"}}, {"name": "xception_65/middle_flow/block1/unit_6/xception_module/separable_conv1_pointwise/Conv2D_weights", "shape": [1, 1, 728, 728], "dtype": "float32", "quantization": {"dtype": "uint8", "min": -0.20048139387486028, "scale": 0.0018392788428886265, "original_dtype": "float32"}}, {"name": "xception_65/exit_flow/block2/unit_1/xception_module/separable_conv2_depthwise/BatchNorm/FusedBatchNormV3/Offset", "shape": [1536], "dtype": "float32", "quantization": {"dtype": "uint8", "min": -5.132699794395297, "scale": 0.058326134027219284, "original_dtype": "float32"}}, {"name": "xception_65/middle_flow/block1/unit_6/xception_module/separable_conv1_pointwise/Conv2D_bn_offset", "shape": [728], "dtype": "float32", "quantization": {"dtype": "uint8", "min": -1.1613463463152156, "scale": 0.005452330264390684, "original_dtype": "float32"}}, {"name": "xception_65/middle_flow/block1/unit_6/xception_module/separable_conv2_depthwise/depthwise_weights", "shape": [3, 3, 728, 1], "dtype": "float32", "quantization": {"dtype": "uint8", "min": -24.46846050935633, "scale": 0.1867821412927964, "original_dtype": "float32"}}, {"name": "xception_65/middle_flow/block1/unit_6/xception_module/separable_conv2_depthwise/depthwise_bn_offset", "shape": [728], "dtype": "float32", "quantization": {"dtype": "uint8", "min": -0.7974082729395697, "scale": 0.0064829940889395915, "original_dtype": "float32"}}, {"name": "xception_65/middle_flow/block1/unit_6/xception_module/separable_conv2_pointwise/Conv2D_weights", "shape": [1, 1, 728, 728], "dtype": "float32", "quantization": {"dtype": "uint8", "min": -0.17890818212546555, "scale": 0.0016264380193224141, "original_dtype": "float32"}}, {"name": "xception_65/middle_flow/block1/unit_6/xception_module/separable_conv2_pointwise/Conv2D_bn_offset", "shape": [728], "dtype": "float32", "quantization": {"dtype": "uint8", "min": -1.1184789657592773, "scale": 0.008224110042347627, "original_dtype": "float32"}}, {"name": "concat_projection/Conv2D_weights", "shape": [1, 1, 1280, 256], "dtype": "float32", "quantization": {"dtype": "uint8", "min": -0.11408932407697042, "scale": 0.0009587338157728606, "original_dtype": "float32"}}, {"name": "xception_65/middle_flow/block1/unit_6/xception_module/separable_conv3_depthwise/depthwise_weights", "shape": [3, 3, 728, 1], "dtype": "float32", "quantization": {"dtype": "uint8", "min": -40.84107520159553, "scale": 0.26013423695283777, "original_dtype": "float32"}}, {"name": "xception_65/middle_flow/block1/unit_6/xception_module/separable_conv3_depthwise/depthwise_bn_offset", "shape": [728], "dtype": "float32", "quantization": {"dtype": "uint8", "min": -0.8214863936106365, "scale": 0.012080682258979947, "original_dtype": "float32"}}, {"name": "xception_65/middle_flow/block1/unit_6/xception_module/separable_conv3_pointwise/Conv2D_weights", "shape": [1, 1, 728, 728], "dtype": "float32", "quantization": {"dtype": "uint8", "min": -0.5678522187120775, "scale": 0.004401955183814554, "original_dtype": "float32"}}, {"name": "xception_65/middle_flow/block1/unit_6/xception_module/separable_conv3_pointwise/Conv2D_bn_offset", "shape": [728], "dtype": "float32", "quantization": {"dtype": "uint8", "min": -1.0700856250875135, "scale": 0.00842587106368121, "original_dtype": "float32"}}, {"name": "xception_65/middle_flow/block1/unit_7/xception_module/separable_conv1_depthwise/depthwise_weights", "shape": [3, 3, 728, 1], "dtype": "float32", "quantization": {"dtype": "uint8", "min": -31.100180382822074, "scale": 0.22214414559158624, "original_dtype": "float32"}}, {"name": "xception_65/middle_flow/block1/unit_7/xception_module/separable_conv1_depthwise/depthwise_bn_offset", "shape": [728], "dtype": "float32", "quantization": {"dtype": "uint8", "min": -1.8093651547151453, "scale": 0.01402608647066004, "original_dtype": "float32"}}, {"name": "xception_65/middle_flow/block1/unit_7/xception_module/separable_conv1_pointwise/Conv2D_weights", "shape": [1, 1, 728, 728], "dtype": "float32", "quantization": {"dtype": "uint8", "min": -0.39180762627545523, "scale": 0.0025776817518122054, "original_dtype": "float32"}}, {"name": "concat_projection/Conv2D_bn_offset", "shape": [256], "dtype": "float32", "quantization": {"dtype": "uint8", "min": -1.41984345071456, "scale": 0.00965879898445279, "original_dtype": "float32"}}, {"name": "xception_65/middle_flow/block1/unit_7/xception_module/separable_conv1_pointwise/Conv2D_bn_offset", "shape": [728], "dtype": "float32", "quantization": {"dtype": "uint8", "min": -1.560602556957918, "scale": 0.008086023611180923, "original_dtype": "float32"}}, {"name": "xception_65/middle_flow/block1/unit_7/xception_module/separable_conv2_depthwise/depthwise_weights", "shape": [3, 3, 728, 1], "dtype": "float32", "quantization": {"dtype": "uint8", "min": -31.386519794838105, "scale": 0.28794972288842297, "original_dtype": "float32"}}, {"name": "xception_65/middle_flow/block1/unit_7/xception_module/separable_conv2_depthwise/depthwise_bn_offset", "shape": [728], "dtype": "float32", "quantization": {"dtype": "uint8", "min": -1.6420162724513634, "scale": 0.014660859575458601, "original_dtype": "float32"}}, {"name": "xception_65/middle_flow/block1/unit_7/xception_module/separable_conv2_pointwise/Conv2D_weights", "shape": [1, 1, 728, 728], "dtype": "float32", "quantization": {"dtype": "uint8", "min": -0.2590976275649725, "scale": 0.002141302707148533, "original_dtype": "float32"}}, {"name": "xception_65/middle_flow/block1/unit_7/xception_module/separable_conv2_pointwise/Conv2D_bn_offset", "shape": [728], "dtype": "float32", "quantization": {"dtype": "uint8", "min": -1.6320692333520628, "scale": 0.009117705214257334, "original_dtype": "float32"}}, {"name": "xception_65/middle_flow/block1/unit_7/xception_module/separable_conv3_depthwise/depthwise_weights", "shape": [3, 3, 728, 1], "dtype": "float32", "quantization": {"dtype": "uint8", "min": -12.752792743608063, "scale": 0.20906217612472236, "original_dtype": "float32"}}, {"name": "xception_65/middle_flow/block1/unit_7/xception_module/separable_conv3_depthwise/depthwise_bn_offset", "shape": [728], "dtype": "float32", "quantization": {"dtype": "uint8", "min": -1.0087235436720006, "scale": 0.009087599492540547, "original_dtype": "float32"}}, {"name": "xception_65/middle_flow/block1/unit_7/xception_module/separable_conv3_pointwise/Conv2D_weights", "shape": [1, 1, 728, 728], "dtype": "float32", "quantization": {"dtype": "uint8", "min": -0.6139647458113876, "scale": 0.003910603476505654, "original_dtype": "float32"}}, {"name": "xception_65/middle_flow/block1/unit_7/xception_module/separable_conv3_pointwise/Conv2D_bn_offset", "shape": [728], "dtype": "float32", "quantization": {"dtype": "uint8", "min": -1.0927334533018225, "scale": 0.007004701623729631, "original_dtype": "float32"}}, {"name": "xception_65/middle_flow/block1/unit_8/xception_module/separable_conv1_depthwise/depthwise_weights", "shape": [3, 3, 728, 1], "dtype": "float32", "quantization": {"dtype": "uint8", "min": -51.10355811025582, "scale": 0.30600933000153185, "original_dtype": "float32"}}, {"name": "xception_65/middle_flow/block1/unit_8/xception_module/separable_conv1_depthwise/depthwise_bn_offset", "shape": [728], "dtype": "float32", "quantization": {"dtype": "uint8", "min": -2.7413569618673885, "scale": 0.02538293483210545, "original_dtype": "float32"}}, {"name": "xception_65/middle_flow/block1/unit_8/xception_module/separable_conv1_pointwise/Conv2D_weights", "shape": [1, 1, 728, 728], "dtype": "float32", "quantization": {"dtype": "uint8", "min": -0.3232454557044833, "scale": 0.002649552915610519, "original_dtype": "float32"}}, {"name": "decoder/decoder_conv0_depthwise/depthwise_weights", "shape": [3, 3, 304, 1], "dtype": "float32", "quantization": {"dtype": "uint8", "min": -3.2593358095954446, "scale": 0.025867744520598767, "original_dtype": "float32"}}, {"name": "xception_65/middle_flow/block1/unit_8/xception_module/separable_conv1_pointwise/Conv2D_bn_offset", "shape": [728], "dtype": "float32", "quantization": {"dtype": "uint8", "min": -1.408224695453457, "scale": 0.006549882304434683, "original_dtype": "float32"}}, {"name": "xception_65/middle_flow/block1/unit_8/xception_module/separable_conv2_depthwise/depthwise_weights", "shape": [3, 3, 728, 1], "dtype": "float32", "quantization": {"dtype": "uint8", "min": -30.94299518360811, "scale": 0.22920737173043046, "original_dtype": "float32"}}, {"name": "xception_65/middle_flow/block1/unit_8/xception_module/separable_conv2_depthwise/depthwise_bn_offset", "shape": [728], "dtype": "float32", "quantization": {"dtype": "uint8", "min": -0.9922781528211106, "scale": 0.007632908867854698, "original_dtype": "float32"}}, {"name": "xception_65/middle_flow/block1/unit_8/xception_module/separable_conv2_pointwise/Conv2D_weights", "shape": [1, 1, 728, 728], "dtype": "float32", "quantization": {"dtype": "uint8", "min": -0.3259292658637552, "scale": 0.002311555077047909, "original_dtype": "float32"}}, {"name": "decoder/decoder_conv0_depthwise/depthwise_bn_offset", "shape": [304], "dtype": "float32", "quantization": {"dtype": "uint8", "min": -0.9992543365441117, "scale": 0.007457121914508296, "original_dtype": "float32"}}, {"name": "xception_65/middle_flow/block1/unit_8/xception_module/separable_conv2_pointwise/Conv2D_bn_offset", "shape": [728], "dtype": "float32", "quantization": {"dtype": "uint8", "min": -1.385025308412664, "scale": 0.008935647151049445, "original_dtype": "float32"}}, {"name": "xception_65/middle_flow/block1/unit_8/xception_module/separable_conv3_depthwise/depthwise_weights", "shape": [3, 3, 728, 1], "dtype": "float32", "quantization": {"dtype": "uint8", "min": -50.4275234446806, "scale": 0.30016383002786073, "original_dtype": "float32"}}, {"name": "xception_65/middle_flow/block1/unit_8/xception_module/separable_conv3_depthwise/depthwise_bn_offset", "shape": [728], "dtype": "float32", "quantization": {"dtype": "uint8", "min": -0.6876893155715045, "scale": 0.009966511819876877, "original_dtype": "float32"}}, {"name": "xception_65/middle_flow/block1/unit_8/xception_module/separable_conv3_pointwise/Conv2D_weights", "shape": [1, 1, 728, 728], "dtype": "float32", "quantization": {"dtype": "uint8", "min": -0.4467195223359501, "scale": 0.0032370979879416673, "original_dtype": "float32"}}, {"name": "xception_65/middle_flow/block1/unit_8/xception_module/separable_conv3_pointwise/Conv2D_bn_offset", "shape": [728], "dtype": "float32", "quantization": {"dtype": "uint8", "min": -1.31261251299989, "scale": 0.010759118959015492, "original_dtype": "float32"}}, {"name": "xception_65/middle_flow/block1/unit_9/xception_module/separable_conv1_depthwise/depthwise_weights", "shape": [3, 3, 728, 1], "dtype": "float32", "quantization": {"dtype": "uint8", "min": -41.62345639397116, "scale": 0.3619430990780101, "original_dtype": "float32"}}, {"name": "xception_65/middle_flow/block1/unit_9/xception_module/separable_conv1_depthwise/depthwise_bn_offset", "shape": [728], "dtype": "float32", "quantization": {"dtype": "uint8", "min": -1.374443877444548, "scale": 0.015798205487868366, "original_dtype": "float32"}}, {"name": "xception_65/middle_flow/block1/unit_9/xception_module/separable_conv1_pointwise/Conv2D_weights", "shape": [1, 1, 728, 728], "dtype": "float32", "quantization": {"dtype": "uint8", "min": -0.3403833730548036, "scale": 0.0026183336388831044, "original_dtype": "float32"}}, {"name": "decoder/decoder_conv0_pointwise/Conv2D_weights", "shape": [1, 1, 304, 256], "dtype": "float32", "quantization": {"dtype": "uint8", "min": -0.35086068686316996, "scale": 0.002506147763308357, "original_dtype": "float32"}}, {"name": "xception_65/middle_flow/block1/unit_9/xception_module/separable_conv1_pointwise/Conv2D_bn_offset", "shape": [728], "dtype": "float32", "quantization": {"dtype": "uint8", "min": -1.3103982495326623, "scale": 0.007121729617025338, "original_dtype": "float32"}}, {"name": "xception_65/middle_flow/block1/unit_9/xception_module/separable_conv2_depthwise/depthwise_weights", "shape": [3, 3, 728, 1], "dtype": "float32", "quantization": {"dtype": "uint8", "min": -32.912996299594056, "scale": 0.2317816640816483, "original_dtype": "float32"}}, {"name": "xception_65/middle_flow/block1/unit_9/xception_module/separable_conv2_depthwise/depthwise_bn_offset", "shape": [728], "dtype": "float32", "quantization": {"dtype": "uint8", "min": -2.016150445096633, "scale": 0.015629073217803355, "original_dtype": "float32"}}, {"name": "xception_65/middle_flow/block1/unit_9/xception_module/separable_conv2_pointwise/Conv2D_weights", "shape": [1, 1, 728, 728], "dtype": "float32", "quantization": {"dtype": "uint8", "min": -0.2129106260397855, "scale": 0.0016504699693006628, "original_dtype": "float32"}}, {"name": "decoder/decoder_conv0_pointwise/Conv2D_bn_offset", "shape": [256], "dtype": "float32", "quantization": {"dtype": "uint8", "min": -1.402273863437129, "scale": 0.009875168052374149, "original_dtype": "float32"}}, {"name": "xception_65/middle_flow/block1/unit_9/xception_module/separable_conv2_pointwise/Conv2D_bn_offset", "shape": [728], "dtype": "float32", "quantization": {"dtype": "uint8", "min": -1.3935441928751329, "scale": 0.006112035933662863, "original_dtype": "float32"}}, {"name": "xception_65/exit_flow/block2/unit_1/xception_module/separable_conv1_depthwise/BatchNorm/FusedBatchNormV3/Scaled", "shape": [1024], "dtype": "float32", "quantization": {"dtype": "uint8", "min": 0.09324311465024948, "scale": 0.00310316509475895, "original_dtype": "float32"}}, {"name": "xception_65/middle_flow/block1/unit_9/xception_module/separable_conv3_depthwise/depthwise_weights", "shape": [3, 3, 728, 1], "dtype": "float32", "quantization": {"dtype": "uint8", "min": -37.69600639343262, "scale": 0.24637912675446155, "original_dtype": "float32"}}, {"name": "xception_65/middle_flow/block1/unit_9/xception_module/separable_conv3_depthwise/depthwise_bn_offset", "shape": [728], "dtype": "float32", "quantization": {"dtype": "uint8", "min": -0.855007972203049, "scale": 0.006840063777624392, "original_dtype": "float32"}}, {"name": "xception_65/middle_flow/block1/unit_9/xception_module/separable_conv3_pointwise/Conv2D_weights", "shape": [1, 1, 728, 728], "dtype": "float32", "quantization": {"dtype": "uint8", "min": -0.4838093319359948, "scale": 0.0037504599374883316, "original_dtype": "float32"}}, {"name": "xception_65/middle_flow/block1/unit_9/xception_module/separable_conv3_pointwise/Conv2D_bn_offset", "shape": [728], "dtype": "float32", "quantization": {"dtype": "uint8", "min": -0.9399879792157341, "scale": 0.009038345953997443, "original_dtype": "float32"}}, {"name": "xception_65/middle_flow/block1/unit_10/xception_module/separable_conv1_depthwise/depthwise_weights", "shape": [3, 3, 728, 1], "dtype": "float32", "quantization": {"dtype": "uint8", "min": -50.711635612039004, "scale": 0.25229669458725873, "original_dtype": "float32"}}, {"name": "xception_65/middle_flow/block1/unit_10/xception_module/separable_conv1_depthwise/depthwise_bn_offset", "shape": [728], "dtype": "float32", "quantization": {"dtype": "uint8", "min": -5.916554298587874, "scale": 0.0354284688538196, "original_dtype": "float32"}}, {"name": "xception_65/middle_flow/block1/unit_10/xception_module/separable_conv1_pointwise/Conv2D_weights", "shape": [1, 1, 728, 728], "dtype": "float32", "quantization": {"dtype": "uint8", "min": -0.38531044733290576, "scale": 0.0028124850170285092, "original_dtype": "float32"}}, {"name": "decoder/decoder_conv1_depthwise/depthwise_weights", "shape": [3, 3, 256, 1], "dtype": "float32", "quantization": {"dtype": "uint8", "min": -3.0301652347340307, "scale": 0.021957719092275584, "original_dtype": "float32"}}, {"name": "xception_65/middle_flow/block1/unit_10/xception_module/separable_conv1_pointwise/Conv2D_bn_offset", "shape": [728], "dtype": "float32", "quantization": {"dtype": "uint8", "min": -0.9601031741675208, "scale": 0.004974627845427569, "original_dtype": "float32"}}, {"name": "xception_65/middle_flow/block1/unit_10/xception_module/separable_conv2_depthwise/depthwise_weights", "shape": [3, 3, 728, 1], "dtype": "float32", "quantization": {"dtype": "uint8", "min": -7.137265388638365, "scale": 0.07592835519828048, "original_dtype": "float32"}}, {"name": "xception_65/middle_flow/block1/unit_10/xception_module/separable_conv2_depthwise/depthwise_bn_offset", "shape": [728], "dtype": "float32", "quantization": {"dtype": "uint8", "min": -0.9149108564152437, "scale": 0.006099405709434958, "original_dtype": "float32"}}, {"name": "xception_65/middle_flow/block1/unit_10/xception_module/separable_conv2_pointwise/Conv2D_weights", "shape": [1, 1, 728, 728], "dtype": "float32", "quantization": {"dtype": "uint8", "min": -0.18224764150731704, "scale": 0.001469739044413847, "original_dtype": "float32"}}, {"name": "decoder/decoder_conv1_depthwise/depthwise_bn_offset", "shape": [256], "dtype": "float32", "quantization": {"dtype": "uint8", "min": -0.9024606312022488, "scale": 0.007986377267276539, "original_dtype": "float32"}}, {"name": "xception_65/middle_flow/block1/unit_10/xception_module/separable_conv2_pointwise/Conv2D_bn_offset", "shape": [728], "dtype": "float32", "quantization": {"dtype": "uint8", "min": -1.2698892831802369, "scale": 0.006224947466569789, "original_dtype": "float32"}}, {"name": "xception_65/middle_flow/block1/unit_10/xception_module/separable_conv3_depthwise/depthwise_weights", "shape": [3, 3, 728, 1], "dtype": "float32", "quantization": {"dtype": "uint8", "min": -61.78310852050781, "scale": 0.5419570922851562, "original_dtype": "float32"}}, {"name": "xception_65/middle_flow/block1/unit_10/xception_module/separable_conv3_depthwise/depthwise_bn_offset", "shape": [728], "dtype": "float32", "quantization": {"dtype": "uint8", "min": -1.2360431820738549, "scale": 0.009508024477491191, "original_dtype": "float32"}}, {"name": "xception_65/middle_flow/block1/unit_10/xception_module/separable_conv3_pointwise/Conv2D_weights", "shape": [1, 1, 728, 728], "dtype": "float32", "quantization": {"dtype": "uint8", "min": -0.6394328524084651, "scale": 0.005976007966434254, "original_dtype": "float32"}}, {"name": "xception_65/middle_flow/block1/unit_10/xception_module/separable_conv3_pointwise/Conv2D_bn_offset", "shape": [728], "dtype": "float32", "quantization": {"dtype": "uint8", "min": -0.8716408650080363, "scale": 0.00898598829905192, "original_dtype": "float32"}}, {"name": "xception_65/middle_flow/block1/unit_11/xception_module/separable_conv1_depthwise/depthwise_weights", "shape": [3, 3, 728, 1], "dtype": "float32", "quantization": {"dtype": "uint8", "min": -6.095358904670267, "scale": 0.04232888128243241, "original_dtype": "float32"}}, {"name": "xception_65/middle_flow/block1/unit_11/xception_module/separable_conv1_depthwise/depthwise_bn_offset", "shape": [728], "dtype": "float32", "quantization": {"dtype": "uint8", "min": -2.384018752154182, "scale": 0.02483352866827273, "original_dtype": "float32"}}, {"name": "xception_65/middle_flow/block1/unit_11/xception_module/separable_conv1_pointwise/Conv2D_weights", "shape": [1, 1, 728, 728], "dtype": "float32", "quantization": {"dtype": "uint8", "min": -0.2402129689852397, "scale": 0.002018596378027224, "original_dtype": "float32"}}, {"name": "decoder/decoder_conv1_pointwise/Conv2D_weights", "shape": [1, 1, 256, 256], "dtype": "float32", "quantization": {"dtype": "uint8", "min": -0.35992397888033995, "scale": 0.0029026127329059674, "original_dtype": "float32"}}, {"name": "xception_65/middle_flow/block1/unit_11/xception_module/separable_conv1_pointwise/Conv2D_bn_offset", "shape": [728], "dtype": "float32", "quantization": {"dtype": "uint8", "min": -1.3357855894986321, "scale": 0.006815232599482817, "original_dtype": "float32"}}, {"name": "xception_65/middle_flow/block1/unit_11/xception_module/separable_conv2_depthwise/depthwise_weights", "shape": [3, 3, 728, 1], "dtype": "float32", "quantization": {"dtype": "uint8", "min": -11.073651968264112, "scale": 0.08858921574611289, "original_dtype": "float32"}}, {"name": "xception_65/middle_flow/block1/unit_11/xception_module/separable_conv2_depthwise/depthwise_bn_offset", "shape": [728], "dtype": "float32", "quantization": {"dtype": "uint8", "min": -0.7951688051223755, "scale": 0.007795772599238976, "original_dtype": "float32"}}, {"name": "xception_65/middle_flow/block1/unit_11/xception_module/separable_conv2_pointwise/Conv2D_weights", "shape": [1, 1, 728, 728], "dtype": "float32", "quantization": {"dtype": "uint8", "min": -0.24415404071994856, "scale": 0.0022195821883631687, "original_dtype": "float32"}}, {"name": "decoder/decoder_conv1_pointwise/Conv2D_bn_offset", "shape": [256], "dtype": "float32", "quantization": {"dtype": "uint8", "min": -1.123468481793123, "scale": 0.012623241368462058, "original_dtype": "float32"}}, {"name": "xception_65/middle_flow/block1/unit_11/xception_module/separable_conv2_pointwise/Conv2D_bn_offset", "shape": [728], "dtype": "float32", "quantization": {"dtype": "uint8", "min": -1.456452695645538, "scale": 0.006171409727311602, "original_dtype": "float32"}}, {"name": "xception_65/middle_flow/block1/unit_11/xception_module/separable_conv3_depthwise/depthwise_weights", "shape": [3, 3, 728, 1], "dtype": "float32", "quantization": {"dtype": "uint8", "min": -16.57277503668093, "scale": 0.14411108727548635, "original_dtype": "float32"}}, {"name": "xception_65/middle_flow/block1/unit_11/xception_module/separable_conv3_depthwise/depthwise_bn_offset", "shape": [728], "dtype": "float32", "quantization": {"dtype": "uint8", "min": -1.199473253885905, "scale": 0.00881965627857283, "original_dtype": "float32"}}, {"name": "xception_65/middle_flow/block1/unit_11/xception_module/separable_conv3_pointwise/Conv2D_weights", "shape": [1, 1, 728, 728], "dtype": "float32", "quantization": {"dtype": "uint8", "min": -0.4105359654800565, "scale": 0.0031579689652312037, "original_dtype": "float32"}}, {"name": "xception_65/middle_flow/block1/unit_11/xception_module/separable_conv3_pointwise/Conv2D_bn_offset", "shape": [728], "dtype": "float32", "quantization": {"dtype": "uint8", "min": -0.689582420797909, "scale": 0.007183150216644885, "original_dtype": "float32"}}, {"name": "xception_65/middle_flow/block1/unit_12/xception_module/separable_conv1_depthwise/depthwise_weights", "shape": [3, 3, 728, 1], "dtype": "float32", "quantization": {"dtype": "uint8", "min": -4.755123676973231, "scale": 0.03234778011546415, "original_dtype": "float32"}}, {"name": "xception_65/middle_flow/block1/unit_12/xception_module/separable_conv1_depthwise/depthwise_bn_offset", "shape": [728], "dtype": "float32", "quantization": {"dtype": "uint8", "min": -5.878483648861156, "scale": 0.02826194061952479, "original_dtype": "float32"}}, {"name": "xception_65/middle_flow/block1/unit_12/xception_module/separable_conv1_pointwise/Conv2D_weights", "shape": [1, 1, 728, 728], "dtype": "float32", "quantization": {"dtype": "uint8", "min": -0.25156521797180176, "scale": 0.00184974424979266, "original_dtype": "float32"}}, {"name": "xception_65/exit_flow/block2/unit_1/xception_module/separable_conv1_depthwise/BatchNorm/FusedBatchNormV3/Offset", "shape": [1024], "dtype": "float32", "quantization": {"dtype": "uint8", "min": -3.210574598873363, "scale": 0.042807661318311506, "original_dtype": "float32"}}, {"name": "xception_65/middle_flow/block1/unit_12/xception_module/separable_conv1_pointwise/Conv2D_bn_offset", "shape": [728], "dtype": "float32", "quantization": {"dtype": "uint8", "min": -1.0914273156839258, "scale": 0.006614711004145005, "original_dtype": "float32"}}, {"name": "xception_65/middle_flow/block1/unit_12/xception_module/separable_conv2_depthwise/depthwise_weights", "shape": [3, 3, 728, 1], "dtype": "float32", "quantization": {"dtype": "uint8", "min": -8.702044554317698, "scale": 0.08789943994260302, "original_dtype": "float32"}}, {"name": "xception_65/middle_flow/block1/unit_12/xception_module/separable_conv2_depthwise/depthwise_bn_offset", "shape": [728], "dtype": "float32", "quantization": {"dtype": "uint8", "min": -2.0759284524356616, "scale": 0.015608484604779411, "original_dtype": "float32"}}, {"name": "xception_65/middle_flow/block1/unit_12/xception_module/separable_conv2_pointwise/Conv2D_weights", "shape": [1, 1, 728, 728], "dtype": "float32", "quantization": {"dtype": "uint8", "min": -0.2254775468040915, "scale": 0.0017081632333643296, "original_dtype": "float32"}}, {"name": "xception_65/middle_flow/block1/unit_12/xception_module/separable_conv2_pointwise/Conv2D_bn_offset", "shape": [728], "dtype": "float32", "quantization": {"dtype": "uint8", "min": -1.2666739655475991, "scale": 0.008388569308262246, "original_dtype": "float32"}}, {"name": "xception_65/middle_flow/block1/unit_12/xception_module/separable_conv3_depthwise/depthwise_weights", "shape": [3, 3, 728, 1], "dtype": "float32", "quantization": {"dtype": "uint8", "min": -16.99512176513672, "scale": 0.15736223856608073, "original_dtype": "float32"}}, {"name": "xception_65/middle_flow/block1/unit_12/xception_module/separable_conv3_depthwise/depthwise_bn_offset", "shape": [728], "dtype": "float32", "quantization": {"dtype": "uint8", "min": -1.304152552988015, "scale": 0.008994155537848379, "original_dtype": "float32"}}, {"name": "xception_65/middle_flow/block1/unit_12/xception_module/separable_conv3_pointwise/Conv2D_weights", "shape": [1, 1, 728, 728], "dtype": "float32", "quantization": {"dtype": "uint8", "min": -0.3943306418026195, "scale": 0.003080708139082965, "original_dtype": "float32"}}, {"name": "xception_65/middle_flow/block1/unit_12/xception_module/separable_conv3_pointwise/Conv2D_bn_offset", "shape": [728], "dtype": "float32", "quantization": {"dtype": "uint8", "min": -1.3114089965820312, "scale": 0.009642713210161994, "original_dtype": "float32"}}, {"name": "xception_65/middle_flow/block1/unit_13/xception_module/separable_conv1_depthwise/depthwise_weights", "shape": [3, 3, 728, 1], "dtype": "float32", "quantization": {"dtype": "uint8", "min": -7.837916112413593, "scale": 0.04306547314512963, "original_dtype": "float32"}}, {"name": "xception_65/middle_flow/block1/unit_13/xception_module/separable_conv1_depthwise/depthwise_bn_offset", "shape": [728], "dtype": "float32", "quantization": {"dtype": "uint8", "min": -2.632655740251728, "scale": 0.020096608704211667, "original_dtype": "float32"}}, {"name": "xception_65/middle_flow/block1/unit_13/xception_module/separable_conv1_pointwise/Conv2D_weights", "shape": [1, 1, 728, 728], "dtype": "float32", "quantization": {"dtype": "uint8", "min": -0.2676431950400857, "scale": 0.002158412863226498, "original_dtype": "float32"}}, {"name": "xception_65/middle_flow/block1/unit_13/xception_module/separable_conv1_pointwise/Conv2D_bn_offset", "shape": [728], "dtype": "float32", "quantization": {"dtype": "uint8", "min": -1.2025419408199833, "scale": 0.006396499685212677, "original_dtype": "float32"}}, {"name": "xception_65/middle_flow/block1/unit_13/xception_module/separable_conv2_depthwise/depthwise_weights", "shape": [3, 3, 728, 1], "dtype": "float32", "quantization": {"dtype": "uint8", "min": -6.35997735191794, "scale": 0.05729709326052198, "original_dtype": "float32"}}, {"name": "xception_65/middle_flow/block1/unit_13/xception_module/separable_conv2_depthwise/depthwise_bn_offset", "shape": [728], "dtype": "float32", "quantization": {"dtype": "uint8", "min": -1.2002873544599495, "scale": 0.007948922877218208, "original_dtype": "float32"}}, {"name": "xception_65/middle_flow/block1/unit_13/xception_module/separable_conv2_pointwise/Conv2D_weights", "shape": [1, 1, 728, 728], "dtype": "float32", "quantization": {"dtype": "uint8", "min": -0.23803794033387127, "scale": 0.0022040550030914007, "original_dtype": "float32"}}, {"name": "xception_65/middle_flow/block1/unit_13/xception_module/separable_conv2_pointwise/Conv2D_bn_offset", "shape": [728], "dtype": "float32", "quantization": {"dtype": "uint8", "min": -1.161013210521025, "scale": 0.0056634790757123165, "original_dtype": "float32"}}, {"name": "xception_65/middle_flow/block1/unit_13/xception_module/separable_conv3_depthwise/depthwise_weights", "shape": [3, 3, 728, 1], "dtype": "float32", "quantization": {"dtype": "uint8", "min": -26.794586540670956, "scale": 0.17176017013250613, "original_dtype": "float32"}}, {"name": "xception_65/middle_flow/block1/unit_13/xception_module/separable_conv3_depthwise/depthwise_bn_offset", "shape": [728], "dtype": "float32", "quantization": {"dtype": "uint8", "min": -1.1101878250346464, "scale": 0.007501269088071936, "original_dtype": "float32"}}, {"name": "xception_65/middle_flow/block1/unit_13/xception_module/separable_conv3_pointwise/Conv2D_weights", "shape": [1, 1, 728, 728], "dtype": "float32", "quantization": {"dtype": "uint8", "min": -0.42039283584145937, "scale": 0.0031847942109201467, "original_dtype": "float32"}}, {"name": "xception_65/middle_flow/block1/unit_13/xception_module/separable_conv3_pointwise/Conv2D_bn_offset", "shape": [728], "dtype": "float32", "quantization": {"dtype": "uint8", "min": -1.081608842868431, "scale": 0.008938916056763892, "original_dtype": "float32"}}, {"name": "xception_65/middle_flow/block1/unit_14/xception_module/separable_conv1_depthwise/depthwise_weights", "shape": [3, 3, 728, 1], "dtype": "float32", "quantization": {"dtype": "uint8", "min": -5.093214074303122, "scale": 0.0287752207587747, "original_dtype": "float32"}}, {"name": "xception_65/middle_flow/block1/unit_14/xception_module/separable_conv1_depthwise/depthwise_bn_offset", "shape": [728], "dtype": "float32", "quantization": {"dtype": "uint8", "min": -3.0394814135981543, "scale": 0.024511946883856082, "original_dtype": "float32"}}, {"name": "xception_65/middle_flow/block1/unit_14/xception_module/separable_conv1_pointwise/Conv2D_weights", "shape": [1, 1, 728, 728], "dtype": "float32", "quantization": {"dtype": "uint8", "min": -0.27755417648483727, "scale": 0.0019546068766537836, "original_dtype": "float32"}}, {"name": "xception_65/middle_flow/block1/unit_14/xception_module/separable_conv1_pointwise/Conv2D_bn_offset", "shape": [728], "dtype": "float32", "quantization": {"dtype": "uint8", "min": -1.1879682120154886, "scale": 0.006599823400086048, "original_dtype": "float32"}}, {"name": "xception_65/middle_flow/block1/unit_14/xception_module/separable_conv2_depthwise/depthwise_weights", "shape": [3, 3, 728, 1], "dtype": "float32", "quantization": {"dtype": "uint8", "min": -13.445512158262963, "scale": 0.09673030329685585, "original_dtype": "float32"}}, {"name": "xception_65/middle_flow/block1/unit_14/xception_module/separable_conv2_depthwise/depthwise_bn_offset", "shape": [728], "dtype": "float32", "quantization": {"dtype": "uint8", "min": -0.7747522485022451, "scale": 0.005097054266462139, "original_dtype": "float32"}}, {"name": "xception_65/middle_flow/block1/unit_14/xception_module/separable_conv2_pointwise/Conv2D_weights", "shape": [1, 1, 728, 728], "dtype": "float32", "quantization": {"dtype": "uint8", "min": -0.23856102631372564, "scale": 0.0017671187134350047, "original_dtype": "float32"}}, {"name": "xception_65/middle_flow/block1/unit_14/xception_module/separable_conv2_pointwise/Conv2D_bn_offset", "shape": [728], "dtype": "float32", "quantization": {"dtype": "uint8", "min": -1.1375874407151165, "scale": 0.00486148478938084, "original_dtype": "float32"}}, {"name": "xception_65/middle_flow/block1/unit_14/xception_module/separable_conv3_depthwise/depthwise_weights", "shape": [3, 3, 728, 1], "dtype": "float32", "quantization": {"dtype": "uint8", "min": -14.923216965619256, "scale": 0.12646794038660386, "original_dtype": "float32"}}, {"name": "xception_65/middle_flow/block1/unit_14/xception_module/separable_conv3_depthwise/depthwise_bn_offset", "shape": [728], "dtype": "float32", "quantization": {"dtype": "uint8", "min": -1.0808739980061848, "scale": 0.007947602926516065, "original_dtype": "float32"}}, {"name": "xception_65/middle_flow/block1/unit_14/xception_module/separable_conv3_pointwise/Conv2D_weights", "shape": [1, 1, 728, 728], "dtype": "float32", "quantization": {"dtype": "uint8", "min": -0.4105258217044905, "scale": 0.0033927753859875247, "original_dtype": "float32"}}, {"name": "xception_65/middle_flow/block1/unit_14/xception_module/separable_conv3_pointwise/Conv2D_bn_offset", "shape": [728], "dtype": "float32", "quantization": {"dtype": "uint8", "min": -0.8704348414551977, "scale": 0.009891305016536338, "original_dtype": "float32"}}, {"name": "xception_65/middle_flow/block1/unit_15/xception_module/separable_conv1_depthwise/depthwise_weights", "shape": [3, 3, 728, 1], "dtype": "float32", "quantization": {"dtype": "uint8", "min": -1.3685190542071475, "scale": 0.01732302600262212, "original_dtype": "float32"}}, {"name": "xception_65/middle_flow/block1/unit_15/xception_module/separable_conv1_depthwise/depthwise_bn_offset", "shape": [728], "dtype": "float32", "quantization": {"dtype": "uint8", "min": -1.6624221264147292, "scale": 0.014711700233758665, "original_dtype": "float32"}}, {"name": "xception_65/middle_flow/block1/unit_15/xception_module/separable_conv1_pointwise/Conv2D_weights", "shape": [1, 1, 728, 728], "dtype": "float32", "quantization": {"dtype": "uint8", "min": -0.27324065647873225, "scale": 0.0022035536812800988, "original_dtype": "float32"}}, {"name": "aspp3_depthwise/BatchNorm/FusedBatchNormV3/Scaled", "shape": [2048], "dtype": "float32", "quantization": {"dtype": "uint8", "min": 0.6737334728240967, "scale": 0.036291796553368665, "original_dtype": "float32"}}, {"name": "xception_65/middle_flow/block1/unit_15/xception_module/separable_conv1_pointwise/Conv2D_bn_offset", "shape": [728], "dtype": "float32", "quantization": {"dtype": "uint8", "min": -1.018214948387707, "scale": 0.005168603798922371, "original_dtype": "float32"}}, {"name": "xception_65/middle_flow/block1/unit_15/xception_module/separable_conv2_depthwise/depthwise_weights", "shape": [3, 3, 728, 1], "dtype": "float32", "quantization": {"dtype": "uint8", "min": -6.656916435092103, "scale": 0.04967848085889629, "original_dtype": "float32"}}, {"name": "xception_65/middle_flow/block1/unit_15/xception_module/separable_conv2_depthwise/depthwise_bn_offset", "shape": [728], "dtype": "float32", "quantization": {"dtype": "uint8", "min": -0.8427007156259873, "scale": 0.006688100917666566, "original_dtype": "float32"}}, {"name": "xception_65/middle_flow/block1/unit_15/xception_module/separable_conv2_pointwise/Conv2D_weights", "shape": [1, 1, 728, 728], "dtype": "float32", "quantization": {"dtype": "uint8", "min": -0.26408789350705986, "scale": 0.0019562066185708138, "original_dtype": "float32"}}, {"name": "xception_65/middle_flow/block1/unit_15/xception_module/separable_conv2_pointwise/Conv2D_bn_offset", "shape": [728], "dtype": "float32", "quantization": {"dtype": "uint8", "min": -1.0679031233577168, "scale": 0.004505920351720324, "original_dtype": "float32"}}, {"name": "aspp3_depthwise/BatchNorm/FusedBatchNormV3/Offset", "shape": [2048], "dtype": "float32", "quantization": {"dtype": "uint8", "min": -0.5440231935650695, "scale": 0.004730636465783213, "original_dtype": "float32"}}, {"name": "xception_65/middle_flow/block1/unit_15/xception_module/separable_conv3_depthwise/depthwise_weights", "shape": [3, 3, 728, 1], "dtype": "float32", "quantization": {"dtype": "uint8", "min": -13.7032512290805, "scale": 0.09015296861237171, "original_dtype": "float32"}}, {"name": "xception_65/middle_flow/block1/unit_15/xception_module/separable_conv3_depthwise/depthwise_bn_offset", "shape": [728], "dtype": "float32", "quantization": {"dtype": "uint8", "min": -1.0904021043403476, "scale": 0.00832368018580418, "original_dtype": "float32"}}, {"name": "xception_65/middle_flow/block1/unit_15/xception_module/separable_conv3_pointwise/Conv2D_weights", "shape": [1, 1, 728, 728], "dtype": "float32", "quantization": {"dtype": "uint8", "min": -0.4676425350647347, "scale": 0.004821057062523038, "original_dtype": "float32"}}, {"name": "xception_65/middle_flow/block1/unit_15/xception_module/separable_conv3_pointwise/Conv2D_bn_offset", "shape": [728], "dtype": "float32", "quantization": {"dtype": "uint8", "min": -0.7720833067800484, "scale": 0.010158990878684849, "original_dtype": "float32"}}, {"name": "xception_65/middle_flow/block1/unit_16/xception_module/separable_conv1_depthwise/depthwise_weights", "shape": [3, 3, 728, 1], "dtype": "float32", "quantization": {"dtype": "uint8", "min": -1.0533009861029832, "scale": 0.011087378801084033, "original_dtype": "float32"}}, {"name": "xception_65/middle_flow/block1/unit_16/xception_module/separable_conv1_depthwise/depthwise_bn_offset", "shape": [728], "dtype": "float32", "quantization": {"dtype": "uint8", "min": -2.7147893774743173, "scale": 0.024024684756409887, "original_dtype": "float32"}}, {"name": "xception_65/middle_flow/block1/unit_16/xception_module/separable_conv1_pointwise/Conv2D_weights", "shape": [1, 1, 728, 728], "dtype": "float32", "quantization": {"dtype": "uint8", "min": -0.2421732075658499, "scale": 0.0020014314674863627, "original_dtype": "float32"}}, {"name": "xception_65/middle_flow/block1/unit_16/xception_module/separable_conv1_pointwise/Conv2D_bn_offset", "shape": [728], "dtype": "float32", "quantization": {"dtype": "uint8", "min": -1.195051852978912, "scale": 0.006459739745831957, "original_dtype": "float32"}}, {"name": "xception_65/middle_flow/block1/unit_16/xception_module/separable_conv2_depthwise/depthwise_weights", "shape": [3, 3, 728, 1], "dtype": "float32", "quantization": {"dtype": "uint8", "min": -5.668987498563879, "scale": 0.047241562488032324, "original_dtype": "float32"}}, {"name": "xception_65/middle_flow/block1/unit_16/xception_module/separable_conv2_depthwise/depthwise_bn_offset", "shape": [728], "dtype": "float32", "quantization": {"dtype": "uint8", "min": -0.7426701384432175, "scale": 0.00816121031256283, "original_dtype": "float32"}}, {"name": "xception_65/middle_flow/block1/unit_16/xception_module/separable_conv2_pointwise/Conv2D_weights", "shape": [1, 1, 728, 728], "dtype": "float32", "quantization": {"dtype": "uint8", "min": -0.19396774453275345, "scale": 0.001701471443269767, "original_dtype": "float32"}}, {"name": "aspp2_depthwise/BatchNorm/FusedBatchNormV3/Scaled", "shape": [2048], "dtype": "float32", "quantization": {"dtype": "uint8", "min": 0.690614640712738, "scale": 0.027607934848934996, "original_dtype": "float32"}}, {"name": "xception_65/middle_flow/block1/unit_16/xception_module/separable_conv2_pointwise/Conv2D_bn_offset", "shape": [728], "dtype": "float32", "quantization": {"dtype": "uint8", "min": -1.1842789483420988, "scale": 0.005039484886562123, "original_dtype": "float32"}}, {"name": "xception_65/middle_flow/block1/unit_16/xception_module/separable_conv3_depthwise/depthwise_weights", "shape": [3, 3, 728, 1], "dtype": "float32", "quantization": {"dtype": "uint8", "min": -35.8095921235926, "scale": 0.45909733491785387, "original_dtype": "float32"}}, {"name": "xception_65/middle_flow/block1/unit_16/xception_module/separable_conv3_depthwise/depthwise_bn_offset", "shape": [728], "dtype": "float32", "quantization": {"dtype": "uint8", "min": -1.4491776802960563, "scale": 0.010978618790121639, "original_dtype": "float32"}}, {"name": "xception_65/middle_flow/block1/unit_16/xception_module/separable_conv3_pointwise/Conv2D_weights", "shape": [1, 1, 728, 728], "dtype": "float32", "quantization": {"dtype": "uint8", "min": -0.9084079931764042, "scale": 0.006728948097602994, "original_dtype": "float32"}}, {"name": "xception_65/middle_flow/block1/unit_16/xception_module/separable_conv3_pointwise/Conv2D_bn_offset", "shape": [728], "dtype": "float32", "quantization": {"dtype": "uint8", "min": -1.1188649822683894, "scale": 0.008879880811653884, "original_dtype": "float32"}}, {"name": "xception_65/exit_flow/block1/unit_1/xception_module/shortcut/Conv2D_weights", "shape": [1, 1, 728, 1024], "dtype": "float32", "quantization": {"dtype": "uint8", "min": -0.1480277904108459, "scale": 0.0011655731528413063, "original_dtype": "float32"}}, {"name": "aspp2_depthwise/BatchNorm/FusedBatchNormV3/Offset", "shape": [2048], "dtype": "float32", "quantization": {"dtype": "uint8", "min": -0.6921228532697641, "scale": 0.005536982826158113, "original_dtype": "float32"}}, {"name": "xception_65/exit_flow/block1/unit_1/xception_module/shortcut/Conv2D_bn_offset", "shape": [1024], "dtype": "float32", "quantization": {"dtype": "uint8", "min": -3.325573051677031, "scale": 0.026393436918071674, "original_dtype": "float32"}}, {"name": "xception_65/exit_flow/block1/unit_1/xception_module/separable_conv1_depthwise/depthwise_weights", "shape": [3, 3, 728, 1], "dtype": "float32", "quantization": {"dtype": "uint8", "min": -1.715125054471633, "scale": 0.013504921688753016, "original_dtype": "float32"}}, {"name": "xception_65/exit_flow/block1/unit_1/xception_module/separable_conv1_depthwise/depthwise_bn_offset", "shape": [728], "dtype": "float32", "quantization": {"dtype": "uint8", "min": -4.111771377862669, "scale": 0.0367122444452024, "original_dtype": "float32"}}, {"name": "xception_65/exit_flow/block1/unit_1/xception_module/separable_conv1_pointwise/Conv2D_weights", "shape": [1, 1, 728, 728], "dtype": "float32", "quantization": {"dtype": "uint8", "min": -0.3254966823493733, "scale": 0.0024110865359212837, "original_dtype": "float32"}}, {"name": "xception_65/exit_flow/block1/unit_1/xception_module/separable_conv1_pointwise/Conv2D_bn_offset", "shape": [728], "dtype": "float32", "quantization": {"dtype": "uint8", "min": -1.9665391912647323, "scale": 0.015127224548190248, "original_dtype": "float32"}}, {"name": "xception_65/exit_flow/block1/unit_1/xception_module/separable_conv2_depthwise/depthwise_weights", "shape": [3, 3, 728, 1], "dtype": "float32", "quantization": {"dtype": "uint8", "min": -126.9156099207261, "scale": 0.9196783327588848, "original_dtype": "float32"}}, {"name": "xception_65/exit_flow/block1/unit_1/xception_module/separable_conv2_depthwise/depthwise_bn_offset", "shape": [728], "dtype": "float32", "quantization": {"dtype": "uint8", "min": -6.038369456459494, "scale": 0.034115081674912395, "original_dtype": "float32"}}, {"name": "xception_65/exit_flow/block1/unit_1/xception_module/separable_conv2_pointwise/Conv2D_weights", "shape": [1, 1, 728, 1024], "dtype": "float32", "quantization": {"dtype": "uint8", "min": -0.3644740810581282, "scale": 0.0029393071053074853, "original_dtype": "float32"}}, {"name": "xception_65/exit_flow/block1/unit_1/xception_module/separable_conv2_pointwise/Conv2D_bn_offset", "shape": [1024], "dtype": "float32", "quantization": {"dtype": "uint8", "min": -2.2876811027526855, "scale": 0.008803430360321905, "original_dtype": "float32"}}, {"name": "aspp1_depthwise/BatchNorm/FusedBatchNormV3/Scaled", "shape": [2048], "dtype": "float32", "quantization": {"dtype": "uint8", "min": 0.5930734872817993, "scale": 0.022873926630207136, "original_dtype": "float32"}}, {"name": "xception_65/exit_flow/block1/unit_1/xception_module/separable_conv3_depthwise/depthwise_weights", "shape": [3, 3, 1024, 1], "dtype": "float32", "quantization": {"dtype": "uint8", "min": -69.95333494298599, "scale": 0.804061321183747, "original_dtype": "float32"}}, {"name": "xception_65/exit_flow/block1/unit_1/xception_module/separable_conv3_depthwise/depthwise_bn_offset", "shape": [1024], "dtype": "float32", "quantization": {"dtype": "uint8", "min": -0.8180247269424737, "scale": 0.005885069978003408, "original_dtype": "float32"}}, {"name": "xception_65/exit_flow/block1/unit_1/xception_module/separable_conv3_pointwise/Conv2D_weights", "shape": [1, 1, 1024, 1024], "dtype": "float32", "quantization": {"dtype": "uint8", "min": -0.7038241624832153, "scale": 0.004692161083221435, "original_dtype": "float32"}}, {"name": "xception_65/exit_flow/block1/unit_1/xception_module/separable_conv3_pointwise/Conv2D_bn_offset", "shape": [1024], "dtype": "float32", "quantization": {"dtype": "uint8", "min": -1.0528676930595848, "scale": 0.012534139203090294, "original_dtype": "float32"}}, {"name": "xception_65/exit_flow/block2/unit_1/xception_module/separable_conv1_pointwise/Conv2D_weights", "shape": [1, 1, 1024, 1536], "dtype": "float32", "quantization": {"dtype": "uint8", "min": -0.8876215757108202, "scale": 0.007158238513796937, "original_dtype": "float32"}}, {"name": "xception_65/exit_flow/block2/unit_1/xception_module/separable_conv1_pointwise/Conv2D_bn_offset", "shape": [1536], "dtype": "float32", "quantization": {"dtype": "uint8", "min": -2.753555716720282, "scale": 0.0227566588158701, "original_dtype": "float32"}}, {"name": "aspp1_depthwise/BatchNorm/FusedBatchNormV3/Offset", "shape": [2048], "dtype": "float32", "quantization": {"dtype": "uint8", "min": -0.56675792909136, "scale": 0.00464555679583082, "original_dtype": "float32"}}, {"name": "xception_65/exit_flow/block2/unit_1/xception_module/separable_conv2_pointwise/Conv2D_weights", "shape": [1, 1, 1536, 1536], "dtype": "float32", "quantization": {"dtype": "uint8", "min": -0.505290702861898, "scale": 0.00348476346801309, "original_dtype": "float32"}}, {"name": "xception_65/exit_flow/block2/unit_1/xception_module/separable_conv2_pointwise/Conv2D_bn_offset", "shape": [1536], "dtype": "float32", "quantization": {"dtype": "uint8", "min": -2.818065860224705, "scale": 0.018299128962498086, "original_dtype": "float32"}}, {"name": "pad_to_bounding_box_1/sub_2/x", "shape": [], "dtype": "int32"}, {"name": "pad_to_bounding_box_1/sub_1/x", "shape": [], "dtype": "int32"}]}]}